saved_models/agg_model.pth (torch_old, 852982 bytes, 21 tensors)

agg_predictor.rnn.weight_ih_l0 f4 [200, 300]
000000 73 f5 28 bf d9 0a d6 be 84 5b ce 3d 52 59 db 3e
       -0.65999526 -0.4180515 0.10076049 0.42841583
000010 23 a0 1b bf d5 d9 87 3e 37 dc a9 3e 9e 43 3d bf
       -0.60791224 0.2653338 0.33175823 -0.739313
000020 6a e1 30 bf 29 a8 16 bf db b2 86 3f 61 ec a2 3e
       -0.69093955 -0.5885034 1.0523332 0.31820968
000030 ce 4b f5 3e ea 4d 12 c0 a0 b5 52 bb 92 22 d0 3e
       0.47909397 -2.2860055 -0.0032151714 0.40651375
000040 79 16 15 bf 4a 99 1c 3f 57 3e 45 be e1 1a 55 3c
       -0.58237416 0.611714 -0.19262062 0.013006897
000050 5e 8b 55 3f 6d bb 44 bf 81 40 8c 3f 67 34 7d 3f
       0.8341578 -0.7684849 1.0957185 0.98908085
000060 2e e6 8c bf 62 c6 0f 3f 5d e5 55 bf 5d 0b dc 3e
       -1.1007745 0.56162083 -0.83553106 0.4297742
000070 5d c6 5c 3f 91 3c 6e 3f d1 29 66 3e c0 e7 8a 3f
       0.8624018 0.93061167 0.22476889 1.0851974
000080 cc cb da 3e e9 43 bf 3c 9a fd c5 3e dc e0 9e bd
       0.4273361 0.023347812 0.38670045 -0.07757732
000090 e5 78 20 3e 11 be 70 be 93 ff 45 3f f4 1e 5a 3f
       0.15671118 -0.23510005 0.773431 0.8520348
0000a0 d5 ec 27 3e 6b 61 92 be b7 d9 4d 3e a9 50 ba 3e
       0.16398938 -0.2858995 0.20102583 0.36389664
0000b0 6b 35 79 3f 76 da b5 3f 42 4d f2 bf 9e 02 4d be
       0.97347134 1.4207294 -1.8929827 -0.2002053
0000c0 26 b7 e4 3d cb bb 17 bf d2 8e c0 be e0 7f 62 3e
       0.11167745 -0.59270924 -0.37608963 0.22119093
0000d0 1f 16 15 bf 0d dc 95 3e 67 94 c1 3f 24 18 e4 be
       -0.5823688 0.29269448 1.5123414 -0.44549668
0000e0 7e 6e 47 3f cf 9c 8b bf bb fe 99 be eb 3e 81 bf
       0.7790297 -1.0907229 -0.30077156 -1.0097326
0000f0 5e 3e ea bf 15 23 7c be 26 4c a0 bf 36 2a ed be
       -1.8300283 -0.24622758 -1.2523239 -0.46321267
000100 e8 11 c3 be 73 e3 5c bf 8a 1e 99 3f 42 79 b1 3e
       -0.380996 -0.8628456 1.1962445 0.34662825
000110 68 82 f1 be 2a e9 eb be 63 67 99 3c 0f 92 24 3f
       -0.47169805 -0.46076328 0.018726056 0.6428537
000120 fd 3d 00 bf f2 a6 99 3d 85 23 c9 be 76 65 8f 3f
       -0.50094587 0.075025454 -0.39284912 1.1202838
000130 e1 3f e0 3e 09 64 a3 be 48 aa c7 3e 17 0f 15 3e
       0.43798736 -0.31912258 0.38997102 0.14556538
000140 c7 ba 84 bf 80 ca d8 3e c5 5f 1a bf 18 34 0f 3f
       -1.03695 0.42341995 -0.6030238 0.55938864
000150 c3 b2 09 3e 99 a4 20 bd 01 0a 5b bf 27 b0 d1 be
       0.13447098 -0.039219473 -0.8556214 -0.40954706
000160 4e 71 f2 bd 3c 37 8d be 5f 43 c7 3e f7 0e 84 3e
       -0.118380174 -0.27581203 0.38918588 0.25792667
000170 e7 3d 83 bf ea 2c 1d 3e c7 ba 68 3e 70 ae ff be
       -1.0253266 0.15349165 0.227275 -0.49937773
000180 dd 58 0d 3f 24 78 d9 be 75 a3 8a bf f3 c1 fb bd
       0.5521372 -0.42474473 -1.0831133 -0.12292852
000190 de 57 c5 be 7e ef c3 be 25 62 d9 be aa 54 38 bf
       -0.385436 -0.38268656 -0.4245769 -0.7200419
0001a0 4a 82 00 be 2a a9 b3 be 7d 4e 47 3e a9 01 cb be
       -0.12549701 -0.3509 0.19463535 -0.39649704
0001b0 28 6c cc 3e 59 0b 4c 3e 0a 67 26 3f 4f fb f5 3d
       0.39926267 0.19926204 0.65000975 0.12010824
0001c0 84 17 09 c0 a3 7c 54 be 25 77 2d 3e b0 a3 3d bb
       -2.1420603 -0.2075067 0.16939981 -0.0028936677
0001d0 64 cd 36 be af 37 28 bf be 38 ab be 9d 4d 52 bf
       -0.17851788 -0.65709966 -0.33441728 -0.8214968
0001e0 b6 4c e8 3e c1 21 98 bf 25 1e 0a bf 20 6c a6 bb
       0.45371026 -1.1885301 -0.53952247 -0.0050788075
0001f0 a5 c9 b1 3e d1 34 76 bf 5f bd 3e 3f 84 68 dd bc
       0.34724155 -0.9617434 0.7450771 -0.027027376
000200 8e 76 32 bf 11 ee 03 3f 0f 94 0c bf 3f 53 b0 3d
       -0.6971215 0.51535136 -0.5491342 0.08609628
000210 4e bd 4a 3f 06 e5 1f bf 37 1f 65 3f 62 ce 0f bf
       0.79195106 -0.6245884 0.89500755 -0.5617429
000220 7d 35 9c be 58 bd 27 3e 35 84 23 bc 92 54 87 3e
       -0.30509558 0.16380823 -0.009980251 0.2643171
000230 a1 fe d4 3d 72 94 77 be 64 47 13 3e de 82 a4 3e
       0.10400129 -0.24177721 0.14382702 0.32131094
000240 76 e7 0d bf d3 3c 36 3e 0b 30 25 3c b4 37 18 3e
       -0.55431306 0.1779664 0.010082255 0.14864999
000250 ed 4b fd 3d 45 21 3d be 86 da 41 3e ab d9 02 bf
       0.12367997 -0.18469723 0.18931016 -0.51113385
000260 31 b9 97 be 87 5e 81 bf 70 f6 dc be 34 82 28 3f
       -0.29633477 -1.0106972 -0.43156767 0.65823674
000270 2e da 18 bf b1 c5 ca 3f 02 a6 3d 3e fd e3 0c 3e
       -0.59707916 1.5841581 0.18520358 0.13758846
000280 99 09 af 3e 7b c3 55 3d 57 45 9f bf de da 14 3f
       0.3418701 0.052188378 -1.2443036 0.58146465
000290 b8 db 87 bf 24 80 8b bf 96 93 28 3f 09 34 14 3f
       -1.0613928 -1.089848 0.658502 0.578919
0002a0 08 04 26 3e ab 33 14 3f c4 0f 1d be 23 6c f9 3e
       0.16212475 0.5789134 -0.15338045 0.48715314
0002b0 9d 59 a1 3d 04 4d 15 3f 77 db f4 3e bf db a2 be
       0.078784205 0.5832064 0.47823688 -0.31808278
0002c0 67 6b 31 bf e1 e0 f9 be 72 e9 4f bf 4a 8f d8 be
       -0.6930451 -0.4880438 -0.81215584 -0.4229682
0002d0 91 e0 af bd 6f f0 5b 3f fc 43 d6 3d 3e 44 0e bf
       -0.085877545 0.8591375 0.10462186 -0.5557288
0002e0 b8 be 03 be 3e a2 63 3f 21 58 1f 3f 02 6c 0f bf
       -0.12865722 0.88919437 0.6224385 -0.5602418
0002f0 4b 67 04 bf 56 af 7a bf 33 c4 ed 3e b5 7f 8b be
       -0.5172011 -0.9792379 0.4643875 -0.2724587
000300 b1 aa f5 3e 56 e7 71 3e 9f 34 05 bf 9a ae 83 3f
       0.4798179 0.23623404 -0.5203342 1.0287659
000310 3d 39 0f 3f a0 50 d1 bc 7d 71 50 3f b8 95 05 bf
       0.55946714 -0.02555114 0.8142317 -0.5218158
000320 69 1b 54 be 67 6b 64 3e 33 55 19 bd 07 19 49 bc
       -0.20713581 0.22306596 -0.037434768 -0.012274033
000330 19 c4 40 3d 3f b3 2e 3c f2 a3 13 3f 63 28 2a 3f
       0.047062013 0.010662853 0.57672036 0.66467875
000340 79 0a d8 3e 39 4f 9f bf af 37 16 bf f1 21 c4 be
       0.4219549 -1.2446052 -0.58678716 -0.38307145
000350 e8 81 c6 3f 68 63 6d be f7 c1 53 be 79 73 4c be
       1.5508394 -0.23182452 -0.2067946 -0.19965924
000360 1c 8b ab 3f d8 cb 19 3e 9e d2 25 3f 74 0b ba be
       1.3401828 0.15019166 0.647745 -0.36336863
000370 48 0d 68 3d aa 77 2f 3f a2 fe d0 be 75 cf 1d 3f
       0.05665329 0.6854197 -0.4081927 0.6164468
000380 04 ed cb 3e 56 db 24 bf 89 14 52 3f e8 67 99 3f
       0.39829266 -0.6439718 0.82062584 1.1984835
000390 8a 3e 32 3e 90 2e 81 be bb 34 19 3e 7a 01 e1 3e
       0.1740667 -0.25230837 0.14961521 0.4394644
0003a0 ea 6c 13 be 75 dd 8f 3e 9b 62 0a bf 2f 4b 0c 3f
       -0.14397016 0.28098646 -0.5405671 0.5480222
0003b0 26 7b a2 3c 72 0e a6 bd d2 26 b8 bd dd 60 77 3e
       0.019834112 -0.08108224 -0.089917794 0.24158044
0003c0 30 f3 f5 3e 9d dc 16 bf 14 7f f3 3d ed 45 8c 3e
       0.480371 -0.5893038 0.118894726 0.273971
0003d0 80 26 77 3f 54 2b 6c 3f f0 22 a1 3e 45 5e d1 be
       0.9654312 0.92253613 0.31471968 -0.40892234
0003e0 d4 6c 84 3f a4 38 85 be 96 18 2c 3f 61 46 4f 3f
       1.0345712 -0.26019776 0.67225015 0.80966765
0003f0 3d 68 9d bd cf 3b ae be 49 d1 f3 3f c1 75 08 3f
       -0.076858975 -0.34030005 1.9048244 0.5330468

agg_predictor.rnn.weight_hh_l0 f4 [200, 50]
000000 90 16 ca 3d be 86 c8 3d 21 c9 b2 bd a4 9d 99 3d
       0.09867585 0.09791325 -0.087297685 0.07500771
000010 1a 43 e5 3e 49 13 2f bf 50 9b 41 3f 5d f4 08 3e
       0.44777757 -0.683888 0.75627613 0.13374467
000020 a7 4c 36 3f 48 46 ab be a1 14 fe 3e e5 85 e5 be
       0.7121071 -0.33452058 0.49625114 -0.44828716
000030 12 28 ae be 14 ce 07 be 91 0f 8f 3f 2d d2 a3 bd
       -0.34014946 -0.13262206 1.1176625 -0.07999072
000040 f0 2d 03 3f 05 78 93 bf a2 ea c7 be 31 f4 9c 3e
       0.5124197 -1.1521002 -0.39046198 0.30655053
000050 78 01 01 3e ec 81 1b 3e e9 46 3f bf 72 72 3d bf
       0.12598217 0.1518628 -0.74717575 -0.74002755
000060 41 2a 8d bf f9 2e 63 be 13 4f 14 bf 7a 6f 55 be
       -1.102852 -0.22185887 -0.5793316 -0.20843306
000070 88 18 b0 bf c0 a5 f8 3f 55 26 01 bf b4 81 00 bf
       -1.3757486 1.9425583 -0.50449115 -0.5019791
000080 e9 c6 bf be 64 91 45 3f 5e 0d 55 bf b6 4f 06 bf
       -0.37456444 0.77174973 -0.8322352 -0.5246538
000090 7a 2b 28 3d 05 2a 46 be ea 3e be 3f d5 5d 03 3e
       0.041057087 -0.19351967 1.486295 0.12828763
0000a0 2d b7 93 bf b0 db a9 be 2a 39 cc bc 93 08 59 3d
       -1.1540276 -0.3317542 -0.024929602 0.052986693
0000b0 2a 08 07 bf 70 41 3b 3d 29 21 4e be a6 d1 d7 bd
       -0.5274683 0.045716703 -0.20129837 -0.10538034
0000c0 01 a4 41 be 99 d5 62 3e a6 db 4f be a8 45 70 bf
       -0.18910219 0.22151794 -0.20298633 -0.93856287
0000d0 31 35 07 bf 1b b3 19 bf c8 f9 12 bf 56 f4 6e bf
       -0.5281554 -0.6003892 -0.57412386 -0.9334158
0000e0 fa 67 e9 3e 5e 82 32 be 41 78 16 bf 5e d7 f6 3e
       0.4558714 -0.17432544 -0.5877724 0.48211187
0000f0 bb c8 0b 3f fd 45 af bd 6d 05 80 be 49 36 57 bd
       0.54603165 -0.08558271 -0.2500414 -0.052542005
000100 89 a7 8b bf 3b c1 aa 3e 92 92 ae 3e ed c3 20 3f
       -1.0910503 0.33350548 0.340962 0.6279896
000110 ab 02 81 be 2f dd 8e bf 33 4f 0f be 7a 5f a2 3e
       -0.25197348 -1.116125 -0.13995056 0.31713468
000120 68 da b8 3d 04 bb ab 3d 52 80 58 be 7e 83 72 be
       0.09026033 0.0838528 -0.211427 -0.23682973
000130 fc 7a d5 be 3b ab 35 bf dc bc 88 bf fd f4 dd 3e
       -0.41695392 -0.709644 -1.0682635 0.43350974
000140 3d b6 04 3f 37 ba 91 bf 89 1e 14 3f 44 f2 9b 3f
       0.51840574 -1.1384953 0.5785909 1.2183309
000150 a0 93 be 3e ac 8a 6d 3f b1 e1 12 3f 5a fb f1 3e
       0.37222004 0.9278972 0.5737563 0.4726208
000160 49 af 1a be 18 f2 a0 bf 4e 37 5d bf 68 c7 be be
       -0.15105928 -1.2573881 -0.86412513 -0.3726151
000170 45 f4 76 bf 8b b7 18 bf ff ac 4a 3e 14 be 8c 3f
       -0.96466476 -0.59655064 0.19792555 1.0995507
000180 28 92 19 3f 52 c0 4d bf 32 cc 3f 3d de 98 35 3f
       0.5998864 -0.8037158 0.046825595 0.7093638
000190 71 3d cf be cc 8a d8 3e 7f 83 9f 3e b8 fc c6 be
       -0.40476564 0.42293394 0.3115501 -0.38864684
0001a0 3a c6 35 3f 4e fc 44 bf f3 0f 1a 3f 17 31 7e 3e
       0.71005595 -0.76947486 0.60180587 0.24823414
0001b0 84 df e9 3c a4 fc e0 be 2e 48 f0 3e 75 18 ce be
       0.028548963 -0.4394275 0.4693007 -0.40253034
0001c0 ea 3e 1b bf d9 02 19 bf af 3b 2f be 73 d3 51 bf
       -0.60642874 -0.5976997 -0.17112611 -0.8196327
0001d0 53 04 84 be f8 eb 82 bf 5d 14 f9 3e 9c a4 eb 3b
       -0.2578455 -1.0228262 0.48648348 0.007191254
0001e0 f8 06 00 3e d2 57 3d bc 58 23 93 bf 0d 0f 7f 3e
       0.12502658 -0.0115565825 -1.1495161 0.24908085
0001f0 3b 74 1b 3e d0 00 70 3e a3 14 fb be 70 ad bd bd
       0.15181057 0.2343781 -0.49039182 -0.09261596
000200 3f 8c b1 be 76 1b 2e 3e 80 f6 a0 be a2 16 de bd
       -0.34677312 0.17002663 -0.31438065 -0.108441606
000210 ee e9 99 3e 81 4c 8c bd d8 f9 6a be df 46 b1 be
       0.30061287 -0.068505295 -0.2294687 -0.34624383
000220 87 76 b6 3e 67 48 6a be b0 33 22 be 5b db b5 3d
       0.35637304 -0.22879182 -0.1584003 0.08879729
000230 f9 fb 02 3e 3d f2 43 bd d8 00 4e bf 4f c8 40 bf
       0.12791432 -0.04783844 -0.8047004 -0.75305647
000240 4e 8f a6 be 52 ea 89 3e bc c4 be be 48 fa a6 3e
       -0.32531208 0.26936585 -0.3725947 0.32612824
000250 0c af 89 be eb 73 9d bd c7 e7 49 3d f0 44 d3 3e
       -0.26891363 -0.07688125 0.049293306 0.41263533
000260 46 c4 09 bf 7b fc 36 be c8 64 69 3e 0d 51 c3 3e
       -0.53815114 -0.17869751 0.22792351 0.38147774
000270 f1 c5 c7 be 67 b6 2d 3f 5c 76 fd 3e 73 fd 61 3e
       -0.39018205 0.6785645 0.49504364 0.2206934
000280 00 9f 11 bf bb a1 0e 3e e5 80 20 3f b9 dc 4a be
       -0.5688324 0.13928883 0.6269668 -0.19810762
000290 df 44 a0 3e 79 80 39 3e 91 09 aa 3e a4 3e ff be
       0.31302544 0.18115415 0.33210424 -0.49852479
0002a0 a1 75 e9 3d 68 fa 0d bf 47 b2 7a 3f 4c 35 db 3e
       0.11399389 -0.55460215 0.9792828 0.428141
0002b0 59 47 32 3f b4 ab 20 bf a7 6e f2 bd 15 86 35 be
       0.6964012 -0.62762 -0.118375115 -0.1772693
0002c0 d2 05 52 bf 97 29 d4 be 80 f7 bb 3e 0a 8e 33 3f
       -0.8204013 -0.4143798 0.36712265 0.7013861
0002d0 64 bd 56 be 56 ed 35 be fc 18 eb 3e ff b2 42 3f
       -0.20970684 -0.17766318 0.459175 0.76054376
0002e0 fe f8 f9 be cf d8 54 bd 8c 4b 88 3e f6 68 87 be
       -0.48822778 -0.051964577 0.26620138 -0.26447266
0002f0 08 1e da 3e 59 14 3e 3f 55 eb 41 3e 5f 74 ac 3f
       0.42601037 0.742498 0.18937428 1.3473014
000300 97 cd 28 be 5b 0b ba be 3e 5e 4d be 63 77 68 bf
       -0.16484676 -0.3633679 -0.20055482 -0.9080717
000310 7e f2 d5 be 21 7f b9 3e 10 c8 1e 3e 80 d8 e5 3c
       -0.4178657 0.36229804 0.15506005 0.028057337
000320 c5 85 c5 3e a6 ac 26 3f df fe 46 bf 11 88 39 bf
       0.3857862 0.6510719 -0.7773265 -0.72473246
000330 ab f2 8f bd bf 9b 36 bf 80 a6 23 3f 04 45 3d 3e
       -0.07028707 -0.713314 0.63925934 0.18483359
000340 2f 25 6d 3f 59 fb 02 be 0f 43 a3 be 47 18 81 3e
       0.9263486 -0.12791194 -0.318871 0.25213835
000350 3e cb 37 bf 6b f8 db 3e d0 23 9e 3d c1 88 08 3f
       -0.717945 0.42962965 0.077216744 0.5333367
000360 b6 65 83 be 36 db 0d 3f 84 5e fb 3e 3b 60 fc 3e
       -0.25663537 0.55412614 0.49095547 0.49292168
000370 e0 04 d0 bd 34 37 38 3f ec b2 04 bf 78 7f 86 bf
       -0.1015718 0.71959233 -0.51835513 -1.050765
000380 dd 3d 77 3f 3a d6 2c bf e4 d8 11 c0 22 98 99 bf
       0.9657877 -0.67514384 -2.278863 -1.1999552
000390 b7 ca fb 3f 28 02 8f bf e3 54 84 bf 8e f5 1d 3f
       1.9671239 -1.1172533 -1.0338405 0.6170281
0003a0 a6 ed 01 3f 48 15 98 3f 98 58 f2 bc 7f a2 c5 3f
       0.5075325 1.1881495 -0.02958326 1.5440215
0003b0 65 76 50 3f b7 d5 14 bf b5 f1 ca 3e 17 99 19 40
       0.81430656 -0.581386 0.39637533 2.3999689
0003c0 0c 7a 96 3f 27 4e 95 be c6 e0 12 3d 59 01 c0 3f
       1.1755996 -0.29161188 0.035858892 1.5000411
0003d0 98 38 30 bf 91 3b fc 3e 1c 27 96 3f a8 62 2f 3f
       -0.68836355 0.49264196 1.1730685 0.6850991
0003e0 41 8d 39 3d 44 b5 bb 3d 6c 4a 2d 3f 70 fd bb be
       0.045300726 0.09165433 0.67691684 -0.36716795
0003f0 9e 00 ae bf 4f f6 f5 be 77 ab 8a bf 9c 0f 76 3d
       -1.3593938 -0.4803948 -1.0833577 0.06007348

agg_predictor.rnn.bias_ih_l0 f4 [200]
000000 00 a3 9b be ab 0c a7 3d 59 cc 49 bc 7d 72 84 3e
       -0.30397797 0.08156713 -0.012316787 0.25868598
000010 1f 2e 09 bf 0e b4 29 bf a1 b1 79 bd 16 ef 10 bf
       -0.53586 -0.66290367 -0.060960416 -0.56614816
000020 24 5c aa be a3 76 c8 be ab 3a 8b bc 4a 58 0d 3f
       -0.33273423 -0.39153013 -0.016995749 0.55212843
000030 01 bb 02 bf 7d e5 1e be 43 c1 c1 be 48 92 85 bd
       -0.51066595 -0.1551723 -0.3784276 -0.065220416
000040 7f 28 ad bd d5 55 aa be a2 12 08 bf 3b 77 12 bf
       -0.0845499 -0.3326861 -0.5315343 -0.5721318
000050 ec 9f 2c bc 2d 3f 0b bf 6d 2a 30 bf 13 f2 19 bf
       -0.010536175 -0.54393274 -0.68814737 -0.60135
000060 99 bb 58 be 60 8a 92 3d 43 8b 63 be ec 9a 23 be
       -0.21165313 0.07155299 -0.22221093 -0.15977067
000070 0f 85 c0 bd 33 44 84 be ab 71 90 be ba 57 4c be
       -0.09400379 -0.25833282 -0.28211722 -0.1995534
000080 63 e6 d9 bd d6 3c e3 be 18 94 6a be ce c7 0a be
       -0.10639646 -0.44382352 -0.22908056 -0.13552782
000090 76 9d a6 bc c0 3d e9 be bb a5 b5 be 45 6c b5 be
       -0.020338755 -0.45554924 -0.35478005 -0.35434166
0000a0 d2 14 ec be 37 17 21 bf db 60 75 bd d1 a7 c8 be
       -0.46109635 -0.6292605 -0.05990682 -0.39190534
0000b0 6c e1 3e bf 56 82 3f be b4 52 56 be ba 84 18 3c
       -0.74562716 -0.18702063 -0.20929986 0.009308988
0000c0 62 8f 49 bd db fa 09 be 1e 2a 07 3f 09 82 f7 bc
       -0.049209006 -0.134746 0.5279864 -0.030213373
0000d0 19 be 80 3e cb 3f 0e bf e1 c1 51 3e 80 ba 8b 3e
       0.25145033 -0.5556609 0.20484115 0.27290726
0000e0 b0 1c 5d bd fd 8c 82 be b1 fd 85 be a2 85 d5 3e
       -0.053982437 -0.2549819 -0.26170114 0.41703516
0000f0 02 28 09 3f cd 8b bf bd ab 81 6c 3e 14 d6 75 3e
       0.5357667 -0.09352837 0.2309634 0.24007446
000100 71 80 03 3e 31 10 c1 3e 92 c2 9b 3e f0 7e 55 3c
       0.12841965 0.37707666 0.30421883 0.013030753
000110 bd ac cd 3e 83 ed 5a 3e 04 43 f8 be 03 13 8c be
       0.4017085 0.21379666 -0.4848863 -0.27358255
000120 63 e0 a5 3e 93 17 16 3e e1 c2 0e 3f cc 67 63 3e
       0.32397756 0.1465743 0.5576611 0.22207564
000130 02 59 9a 3e d6 49 0c bd 29 c2 20 bf ff a3 5a 3e
       0.30146033 -0.034250103 -0.62796265 0.21351622
000140 58 99 30 bf 91 63 1d 3d a2 11 97 be e5 06 1f 3e
       -0.68983984 0.038425032 -0.2950564 0.15529974
000150 1f 32 2e 3d 80 52 f7 3e cf 9b bb 3e 0a 3f fa 3e
       0.042528268 0.4830513 0.3664231 0.4887622
000160 e4 c8 d3 3d 8a 1e ea 3e 81 80 fd 3e 0f dc 17 bf
       0.10341051 0.45726424 0.49512103 -0.5932016
000170 a8 4c 18 3e 5c 60 21 bf 74 aa f7 be b5 af 0c bf
       0.14872992 -0.6303766 -0.48372233 -0.5495561
000180 64 91 2d 3f 8b 75 02 bf 6b 9d 47 3e b1 d2 9a 3e
       0.67799973 -0.50960606 0.19493644 0.3023887
000190 76 9d 9e be b4 67 78 3e 9e 47 78 3e 6b 25 6f bc
       -0.30979508 0.2425831 0.2424607 -0.0145963235
0001a0 c7 48 a2 3e 7f ab 33 3e 7a d7 8c be 8a 58 71 bc
       0.3169615 0.1754589 -0.27508146 -0.014730582
0001b0 ad 03 e7 be 30 30 d0 be 4b 85 94 bc 49 6e 74 be
       -0.45119992 -0.40661764 -0.018129965 -0.23870195
0001c0 1d 4e 2f be 36 3b 3d 3e d4 42 24 3e 7b 75 03 bf
       -0.17119642 0.18479618 0.16041118 -0.51351136
0001d0 75 aa 00 3f 9e 07 fd be cc 4b 0c 3e 38 42 92 3e
       0.50260097 -0.49419874 0.13700789 0.28566146
0001e0 e1 76 e0 be d7 b1 17 bf 38 4f 20 3e bc b0 db 3d
       -0.43840697 -0.5925574 0.1565522 0.10727069
0001f0 ce e7 c4 bd a1 42 a3 3e 3b 12 fe bd 5b 60 0c 3e
       -0.09614526 0.3188677 -0.12405821 0.13708632
000200 3b a8 31 3f f3 74 cf bd d0 a2 ee 3e 6b cc 3c be
       0.69397324 -0.10129728 0.4660859 -0.18437354
000210 f6 c8 92 3e 27 c6 61 be c7 14 cc bd a2 d6 01 bf
       0.28668946 -0.22048245 -0.099649005 -0.5071813
000220 13 73 18 bf da 42 68 be 30 21 0d 3f e6 b2 ef 3e
       -0.5955059 -0.22681752 0.55128765 0.46816176
000230 f2 ca f8 3e ad 31 fb 3e bf 45 a4 3e 74 d8 73 be
       0.48592335 0.49061337 0.32084462 -0.23813039
000240 2d c9 5e be 72 eb 2f 3e 0b 29 d5 bd 8b 52 1b 3f
       -0.2175643 0.17179659 -0.10408219 0.60672826
000250 63 96 5f 3e e4 cc 3a 3e ee b5 8d bc de 83 c1 bd
       0.21834712 0.18242222 -0.017298665 -0.0944898
000260 78 1d fa be 33 dc 1c be 1e f0 14 be 0d 15 18 3e
       -0.48850608 -0.15318374 -0.14544722 0.1485178
000270 e3 d5 ba 3d 81 94 ca be 12 9f c5 3d 4f 2f 21 3e
       0.09122827 -0.39566424 0.09649481 0.15740703
000280 f2 c8 ef 3e 87 9c 31 be 11 0e 20 be a7 ed 20 bf
       0.46832997 -0.17344867 -0.15630366 -0.6286263
000290 9e 29 ab be a7 3b 47 3e 4f 45 3e be 49 8b 9f 3e
       -0.3343019 0.1945635 -0.18581127 0.31160954
0002a0 d6 03 32 3e 6e 69 54 be 2a 91 09 3f e9 f2 fd be
       0.17384276 -0.20743343 0.5373713 -0.49599388
0002b0 e4 80 90 3e 63 bf f8 be 59 32 70 be 6e b2 0e be
       0.28223336 -0.48583516 -0.23456706 -0.13935253
0002c0 c1 9e 0d 3f fc 62 ad bc 53 6e 1c bf ec 04 24 be
       0.55320364 -0.021165363 -0.6110584 -0.16017503
0002d0 9f cb 61 be 70 9c 42 3e 41 6b 05 bf c4 5c a3 3e
       -0.22050332 0.19004989 -0.5211678 0.31906712
0002e0 f2 3a e1 be fe d3 a1 3e 45 4f 3e be 8f 0e 2c 3e
       -0.43990284 0.3160705 -0.18584926 0.16802429
0002f0 1a 92 a7 be 7e 36 18 bf 2a 0b 37 bc 17 66 cb be
       -0.32728654 -0.5945815 -0.011172095 -0.39726326
000300 84 52 67 bf bc e6 15 be cf 9e 2b bf 7d 46 c7 be
       -0.90360284 -0.146388 -0.670392 -0.38920966
000310 ed aa 10 3d 90 17 1c bf df 46 38 bf f5 33 6f bd
       0.035319258 -0.60973454 -0.7198314 -0.05839916

agg_predictor.rnn.bias_hh_l0 f4 [200]
000000 4b a6 80 be 2f fe d3 3d 14 18 cf 3c b3 47 e3 3e
       -0.2512687 0.10351216 0.025280036 0.4439064
000010 b1 35 fe be 22 99 05 bf 93 02 da bc 2c 3a 0e bf
       -0.49650338 -0.5218679 -0.026612556 -0.55557513
000020 59 d7 c4 be d2 d8 94 be 35 ed d9 bd 89 eb 0d 3f
       -0.38445547 -0.2907167 -0.10640947 0.55437523
000030 9a a6 ee be 9a 44 6a 3c 2c ac aa be cb 79 86 be
       -0.46611482 0.014298582 -0.33334482 -0.26264796
000040 ed 9c 3c bd b3 33 92 be b9 cf de be f4 cb 16 bf
       -0.046048094 -0.28555068 -0.43517855 -0.5890496
000050 2f 8e 8a be b3 08 0f bf 1c b1 10 bf 24 db 14 bf
       -0.27061602 -0.5587265 -0.5652025 -0.5814688
000060 16 84 f3 bd 89 21 54 be b7 0e dc bd 6f d9 20 be
       -0.11890428 -0.20715918 -0.10744994 -0.15707944
000070 f3 27 fe bd e4 c6 0c be 56 bc 92 be 2a 30 b5 be
       -0.124099635 -0.13747746 -0.28659314 -0.3538831
000080 c9 28 43 be 82 40 d5 be 56 7b db be bc 5c e4 bd
       -0.19058527 -0.41650778 -0.42867535 -0.111505
000090 66 f4 5c be a7 5c c5 be 0a b6 09 bf 80 43 03 bf
       -0.21577606 -0.3854725 -0.53793395 -0.5127487
0000a0 3c ca e8 be da 78 13 bf c3 28 3c bd 1e 72 e0 be
       -0.45466793 -0.5760628 -0.04593731 -0.43837065
0000b0 13 e6 4d bf 20 da a8 be 5c 6c 8a be b9 6a 6c be
       -0.8042919 -0.32978916 -0.27035797 -0.23087586
0000c0 b7 19 09 3e 77 be 59 be 35 8d b4 3e 88 fe 42 be
       0.13388716 -0.21264063 0.35263982 -0.19042408
0000d0 1b 3c 3e 3e 6b b5 10 bf 84 ba 59 3e 7b 97 cd 3d
       0.18577616 -0.5652682 0.21262556 0.10038658
0000e0 79 1c ad 3c d4 cc ff bd 08 28 90 be 6c 70 22 3f
       0.02113174 -0.1249024 -0.2815554 0.6345279
0000f0 05 d7 22 3f 65 a5 5a be 90 de 07 3e 7b 79 f2 3d
       0.63609344 -0.21352156 0.13268495 0.11839577
000100 a5 c3 26 3e 2a fe 04 3f 3c 1a a4 3e a2 56 88 3e
       0.1628557 0.51950324 0.32051265 0.26628596
000110 cc 9d 9d 3e 72 0c f6 3d 4a f7 17 bf f8 71 87 be
       0.30784452 0.120140925 -0.5936171 -0.2645414
000120 55 fc 7a 3e 81 e7 87 3e 01 f4 0c 3f 8a fe ba 3e
       0.2451032 0.2654381 0.5505982 0.36522323
000130 f0 9b 24 3e 9a 86 4a 3e 7d 59 d1 be b4 a1 0e 3e
       0.1607511 0.19777909 -0.40888587 0.13928872
000140 50 e5 13 bf b7 30 ac bc 93 04 31 be 3a 8d 06 ba
       -0.5777178 -0.021019323 -0.17286901 -0.0005132739
000150 ff db da 3c 5c d1 ae 3e f1 b1 6e 3e 84 f1 0d 3f
       0.02671623 0.34144104 0.23310067 0.5544665
000160 70 ab 1e 3e 01 78 bf 3e 0e bd f0 3e e8 70 d5 be
       0.15495086 0.37396243 0.47019237 -0.41687703
000170 9f f0 a7 3e e7 1c 5f bf 7a ad 1a bf 42 57 ec be
       0.32800767 -0.87153476 -0.60420954 -0.46160322
000180 80 4c f6 3e 3c 39 35 bf 89 66 bb 3e 4a b3 cd 3d
       0.4810524 -0.7079046 0.36601666 0.10043962
000190 31 f1 88 be db ae d1 3e 47 01 8e 3e 9e dd 43 be
       -0.26746514 0.40953717 0.2773535 -0.19127509
0001a0 5d bb ca 3d 5f 03 2c 3e f3 1d 8c be 5e bd d3 3d
       0.09899018 0.16798161 -0.273666 0.10338853
0001b0 ea 95 e5 be e9 aa 60 be c6 6d 02 be 2b ea b4 be
       -0.44840938 -0.21940197 -0.12737188 -0.35334906
0001c0 7b 4c 9c bd d9 76 73 3e 94 49 c6 3e 9b c4 01 bf
       -0.07631775 0.23775806 0.3872801 -0.5069062
0001d0 61 eb 00 3f 4d b4 a4 be b0 27 af 3e 08 00 3c 3e
       0.5035916 -0.3216881 0.34209967 0.18359387
0001e0 69 3f 01 bf fb 4b c4 be 88 dd 14 3e 51 6a c4 3d
       -0.5048738 -0.38339218 0.14537632 0.09590591
0001f0 53 f6 10 bd 36 b7 83 3e 22 40 47 bd 72 f8 b6 3e
       -0.035391163 0.25725716 -0.048645146 0.35736424
000200 2a 00 32 3f 99 b6 fb 3d 66 c3 f5 3e c3 84 60 be
       0.695315 0.12290687 0.4800064 -0.21925645
000210 3f 83 a9 3e 26 82 20 be 06 65 9a bd 55 c8 cf be
       0.33107945 -0.15674648 -0.075388 -0.4058253
000220 3f c0 2d bf 1a cf 7f be 94 39 d9 3e 0c cb ef 3e
       -0.6787147 -0.24981347 0.4242674 0.468346
000230 52 5a e7 3e d1 43 05 3f f7 0c 9f 3e 68 c6 c2 be
       0.45186096 0.52056605 0.3106458 -0.38041997
000240 4d f9 b7 be 99 cd c7 3e 69 1d 9a be 23 c1 fc 3e
       -0.3593239 0.39024046 -0.30100563 0.49366102
000250 e6 33 0e 3e 0e 3b e2 3d 55 30 d9 3d 3d 3a 82 3c
       0.13886985 0.1104642 0.10604922 0.01589691
000260 02 29 1d bf 9d 55 40 bd 00 f6 18 be 44 29 2f 3e
       -0.613907 -0.046956647 -0.14937592 0.17105585
000270 62 35 a0 3d 83 8f dc be aa 52 a1 3c b3 f8 88 3e
       0.07822682 -0.4307824 0.019692738 0.26752242
000280 47 b4 a2 3e 52 b0 b6 bd 3a 11 8c be c7 28 17 bf
       0.31778166 -0.08920349 -0.27356893 -0.59046596
000290 38 bb f7 be 2a ab 0b 3e b2 70 b3 be c6 2f d4 3e
       -0.48385024 0.13639513 -0.35046917 0.41442698
0002a0 a3 5f 59 3e a3 4e 7c be 91 f5 a7 3e d8 b2 f1 be
       0.21227889 -0.24639373 0.3280454 -0.4720676
0002b0 55 d7 90 3d f4 ea 20 bf b2 cc a5 be 46 5b b6 bc
       0.07072321 -0.6285851 -0.32382733 -0.02226032
0002c0 04 1b e1 3e c9 17 85 bd f6 c3 2c bf 1f ee 8d be
       0.43965924 -0.06498677 -0.6748651 -0.27720734
0002d0 30 3c 87 be fb 72 46 3e af a3 14 bf a3 a8 35 3e
       -0.26413107 0.19379799 -0.5806226 0.17740111
0002e0 32 9e a8 be 22 1f ad 3e 39 90 d9 be a0 e4 66 3e
       -0.32933193 0.33812815 -0.42492846 0.22548151
0002f0 18 5f 01 be 3d 96 2f bf b0 23 6a 39 55 e4 07 bf
       -0.12633932 -0.6858862 0.00022329274 -0.5308278
000300 cb 3c 4a bf 44 96 e8 bd bd 46 2c bf ee 61 dc be
       -0.7899901 -0.11356786 -0.6729544 -0.43043464
000310 cd ce e2 bc 72 1a 1f bf 80 45 f2 be 2d 74 62 bd
       -0.0276865 -0.6214973 -0.4731865 -0.055286575

agg_predictor.rnn.weight_ih_l0_reverse f4 [200, 300]
000000 7e 00 27 3e 27 ed 53 bd 8d 37 c2 3e 9a 53 0b 3b
       0.16308782 -0.051739838 0.37933007 0.0021259547
000010 c8 e9 2e bf 80 d5 4b be a5 3f 5d 3e 35 59 ed be
       -0.6832547 -0.19905663 0.2160631 -0.46357122
000020 05 e3 1c 3f e2 0e f3 be ca f6 fb be 06 d4 a7 bf
       0.61283904 -0.47472292 -0.49211723 -1.311158
000030 38 0f 91 3e 71 15 ff be 76 4f aa 3d 59 6b 93 3e
       0.28331923 -0.49821046 0.08315937 0.28792837
000040 60 bf 6f be be fb 0c 3e a7 42 22 be 70 ca a8 3e
       -0.23412848 0.13767907 -0.15845738 0.32966948
000050 55 42 aa be 25 04 c8 bf 09 11 a2 be 95 63 ba 3e
       -0.33253732 -1.5626265 -0.31653622 0.364041
000060 dd bf 9a bf d7 dd 39 bf fc a3 d9 be fb 64 86 3d
       -1.2089802 -0.72604126 -0.42507923 0.06562229
000070 d9 ed 4c 3f 8a 41 2e bf 8b 9d e4 3e 8a 53 cb bd
       0.80050427 -0.68068755 0.44651446 -0.09928043
000080 55 e9 8a be a4 37 ae 3e 21 6e 83 3f cc af 15 3e
       -0.27131143 0.34026825 1.0267984 0.14617842
000090 a9 d0 1c 3f a0 32 58 bf 38 6a c6 3e 3f 37 27 3f
       0.6125589 -0.8445225 0.38752913 0.65318674
0000a0 cf 99 35 bf 15 a7 17 bf 29 67 5a bd 4f 2c 8b bf
       -0.7093782 -0.5923932 -0.053321037 -1.0872897
0000b0 f0 5f ae 3f 78 bf 59 3e 60 0f 1c bf 8f 90 5a 3e
       1.3623028 0.21264446 -0.6096096 0.21344207
0000c0 19 6c d3 3d dd d9 58 bf e4 01 90 bf 3e 3a 69 3e
       0.10323352 -0.84707433 -1.1250577 0.22776124
0000d0 95 c8 13 bf 8d 9d 57 bf ff 9e 74 3f f9 2f e2 bd
       -0.5772794 -0.8422478 0.9555511 -0.11044306
0000e0 b9 ad 2e 3e 7a ad 13 bf 2e 53 70 be 42 25 5e bf
       0.17058457 -0.5768658 -0.2346923 -0.867756
0000f0 aa 3e 93 bd 9c ac 6d bd 49 38 47 3f bb c1 97 bd
       -0.071896866 -0.05802594 0.7782026 -0.07409998
000100 eb ae 9d bf 37 99 11 3f 95 16 c9 3e c8 91 86 be
       -1.2319006 0.5687441 0.3927504 -0.26283097
000110 16 01 64 bf 1c 1a c2 bf d6 92 7f 3e aa 9c b1 be
       -0.89064157 -1.5164218 0.24958357 -0.34689838
000120 f9 7f 2a bf 1b a6 0a 3f 4f 4e 32 be c1 29 9d 3f
       -0.6660152 0.54159707 -0.17412685 1.2278367
000130 4c 37 0f 3f d2 8a 71 3e 4f ec c8 be 56 7a 99 bd
       0.5594375 0.23588112 -0.3924279 -0.07494037
000140 91 b2 33 3d 2e f4 09 be 8d ef 79 bf 63 29 8e 3f
       0.043871466 -0.13472053 -0.9763115 1.110638
000150 3c 96 d7 be 5f 9b 77 bf 12 c6 fd 3c a6 da 8e 3f
       -0.42106807 -0.9672145 0.030978236 1.1160476
000160 99 4d 70 3f f7 b2 8f 3f 90 a7 0d bf ee 71 1b bf
       0.93868405 1.1226491 -0.55333805 -0.6072072
000170 d6 ae be 3e 4a bd 80 3f d7 32 0e be 68 00 08 bf
       0.37242764 1.0057766 -0.13886581 -0.5312562
000180 c5 80 48 3e 10 da 24 bf bc 4d 03 bf 03 a8 0f bf
       0.19580372 -0.64395237 -0.5129049 -0.5611574
000190 56 a9 b5 be c8 34 7a be 3b 3c c3 3d 35 0f bf bf
       -0.35480756 -0.24434197 0.095329724 -1.4926516
0001a0 39 bb d6 3e 8c 57 c7 be f6 2c 9b 3f c6 a4 8b bd
       0.41939715 -0.3893398 1.2123096 -0.068185374
0001b0 be 43 82 3f a2 49 8a 3d a6 6a 3e be 89 b9 63 bf
       1.0176923 0.067523256 -0.1859537 -0.8895498
0001c0 a8 a0 60 bf c6 f0 d1 be ae 9c 0f 3e 60 3d 2f bd
       -0.8774514 -0.41004008 0.14024612 -0.04278314
0001d0 02 b6 a9 be 9f 8b 11 bf 94 58 eb be 64 1b ce bf
       -0.33146673 -0.5685367 -0.45966017 -1.6102109
0001e0 bc c0 22 be 75 4b fc 3e fd 7c 2d 3f a7 d0 7e 3f
       -0.15893835 0.4927632 0.6776884 0.9953713
0001f0 08 37 a0 bd 63 74 49 3d 1b 5d cb be 82 e0 6d 3e
       -0.078229964 0.04918326 -0.3971947 0.23230174
000200 13 01 31 3d 83 4f 1c 3f 07 a0 d9 be 78 db 80 be
       0.043213915 0.61058825 -0.42504904 -0.2516744
000210 fb 1c 2d bf ef 4f 7a be 0e aa b5 3f db a1 60 bf
       -0.67622346 -0.24444555 1.4192522 -0.8774697
000220 81 ee 2f be 0c f0 23 be 96 7b 6c bf 9b ca 3b 3f
       -0.17180826 -0.1600954 -0.9237608 0.73356026
000230 94 66 c2 3e 52 9e 50 3f c1 9d 60 3e 42 11 07 bf
       0.37968886 0.8149158 0.21935178 -0.5276071
000240 8f a9 79 bf cb c0 87 be a7 02 5c 3d 4c 60 15 3f
       -0.9752435 -0.26514277 0.053713467 0.5835006
000250 a2 bb 37 bd f0 d7 5e 3f 79 5d cb be d7 33 a0 3d
       -0.044856675 0.87048244 -0.3971975 0.07822388
000260 ed 06 ba 3e d8 b5 14 bf 92 fa 66 3d ee 63 c4 3e
       0.3633341 -0.5808997 0.056391306 0.3835749
000270 6d 43 50 bf ff dc 3e 3e cf 09 88 bf 3b 99 cf 3d
       -0.81352884 0.18638991 -1.0627993 0.10136648
000280 ae a9 48 3f 3f 76 60 bf 47 2b bc bf 89 11 50 3f
       0.7838391 -0.8768043 -1.4700707 0.81276757
000290 89 08 c9 3e 42 f6 26 be c3 db 8a 3e ab 7c 82 be
       0.39264324 -0.16304877 0.2712079 -0.2548574
0002a0 7d 8a 16 3f b2 e0 e9 3e 21 7d 3d bf a6 18 63 3f
       0.58805066 0.4567924 -0.74019057 0.88709486
0002b0 89 e7 a1 bd 93 dd ee be 47 6d 84 bf f2 3f 99 bf
       -0.0790549 -0.46653423 -1.0345849 -1.197264
0002c0 58 05 78 bf 56 76 07 3e ac 4c 15 bf bc 99 f2 be
       -0.96883154 0.13228735 -0.58320117 -0.47382915
0002d0 6d c7 7b be 65 00 75 3e 42 7b ab bf 62 ad 3b 3c
       -0.24587794 0.23925932 -1.339699 0.011454912
0002e0 74 06 22 be ed 31 12 3f 71 06 91 be bd f1 72 bf
       -0.15822774 0.5710743 -0.28325227 -0.94900113
0002f0 ec 5d f1 3d b6 c5 3e bf 57 d7 89 bd a5 31 28 3d
       0.11785492 -0.7452043 -0.06730526 0.04106297
000300 87 37 c2 be 64 a2 d1 3e c2 2d 92 3f ff a1 ca be
       -0.3793299 0.40944207 1.1420214 -0.39576718
000310 37 75 03 bf bb 56 a5 be 76 66 92 be 37 71 4d 3f
       -0.5135073 -0.32292733 -0.28593796 0.8025088
000320 91 54 d2 3e 2f 6f 5e bd b9 8d 47 3e 3d b8 7e bd
       0.41080144 -0.05430525 0.19487657 -0.062187422
000330 6b 8a 8e 3e ac 18 4e bf f6 00 87 3d 80 96 39 bf
       0.2783998 -0.80506396 0.0659198 -0.7249527
000340 32 8d 81 3f b2 83 1e be ab 31 16 3f 6f e5 9e bf
       1.0121214 -0.15479925 0.5866954 -1.2413768
000350 82 eb bb 3e f7 89 b6 3d eb 86 b9 bd 1e 5b e7 be
       0.36703116 0.089130335 -0.09058937 -0.45186704
000360 f3 ca 88 be e5 2c 60 bf 50 27 91 3f af c1 f0 3f
       -0.26717338 -0.87568504 1.1340122 1.8809108
000370 f7 da 6d 3f 8f 0a a9 3e 6d bd 70 bf 6d 21 69 3e
       0.9291224 0.33015868 -0.9403904 0.22766657
000380 8c 29 d4 3e 13 8f 08 3e d0 fa 40 3d 6c bb 17 3f
       0.41437948 0.13335828 0.047114193 0.5927036
000390 aa 0b 62 3f ff 8f f3 bd 27 31 31 3f 07 44 0b bf
       0.8829905 -0.118926995 0.69215626 -0.54400676
0003a0 96 37 81 3e 98 97 78 3f ea 0e 12 be 32 ec 32 3f
       0.2523772 0.97106314 -0.14263502 0.69891655
0003b0 04 ef bf be d7 33 aa 3e 14 e8 e8 bc 37 d6 bb be
       -0.37487042 0.33242676 -0.028430976 -0.3668687
0003c0 7d a3 14 3f b6 83 c0 3f d7 ca 28 bf 74 fc 8a 3e
       0.58061963 1.5040195 -0.6593451 0.2714573
0003d0 a3 e7 1c bf 35 93 20 3f cd 40 1d bf 11 42 91 bd
       -0.6129095 0.6272462 -0.61427003 -0.07092679
0003e0 07 f3 26 bf d8 72 08 bf 0b 4e 3e 3f 15 30 6b bf
       -0.6521458 -0.5330024 0.74337834 -0.9187024
0003f0 0b aa b0 3f 93 c6 0b 3f 2b 6b 2c 3f fd 92 94 bd
       1.3801893 0.54599875 0.67351025 -0.07254598

agg_predictor.rnn.weight_hh_l0_reverse f4 [200, 50]
000000 86 10 33 3f b7 81 4e 3f 5b 80 11 bf 06 ef 53 bd
       0.6994709 0.8066668 -0.5683648 -0.051741622
000010 63 e8 4e 3e 1c 96 2d be b7 9c 1a 3f 66 cd 99 bf
       0.20205836 -0.16951793 0.6039538 -1.2015808
000020 7c 4a 9f be fa a0 0c 3e 7e ce 0f 3f e0 d7 5f 3e
       -0.31111515 0.13733283 0.5617446 0.21859694
000030 2b a8 3c be 61 e6 cb 3e de ba 3e 3e 15 90 88 be
       -0.18423526 0.39824203 0.18625972 -0.26672426
000040 ec ae 8e 3d d8 ef 88 3e 10 fb 6e 3f d2 a6 a1 bd
       0.069669574 0.26745486 0.9335184 -0.078931466
000050 02 85 02 bf 90 65 dd 3e a7 48 8c be 3f 13 a9 3e
       -0.50984204 0.4324155 -0.2739918 0.33022496
000060 23 18 a6 be 71 5f 91 3f 6e a2 33 bf 85 e5 e0 3f
       -0.3244029 1.1357251 -0.70169723 1.7570044
000070 a3 bf 08 3f 1b 60 93 3f 2d 9e 6d bf d6 25 a8 bf
       0.53417414 1.1513704 -0.9281948 -1.3136547
000080 07 00 dd 3f af 32 50 3e 4c 42 f4 be 6c 35 ab bf
       1.7265633 0.20331834 -0.4770683 -1.3375678
000090 90 31 62 bf 7f 03 00 3f 91 3f aa 3f ae 45 28 be
       -0.88356876 0.50005335 1.3300649 -0.1643283
0000a0 d4 87 67 be ea 9d ec 3e 67 5a 15 3f 2e f6 54 bf
       -0.22610408 0.4621423 0.5834107 -0.8318814
0000b0 2f fa 2b 3f a9 b7 6d bf ea d7 1f 3f 4b 53 81 3f
       0.67178625 -0.9285837 0.62438834 1.0103544
0000c0 f2 cf ae bd a3 67 92 3e 24 48 af 3e 50 05 5b 3f
       -0.08535756 0.28594694 0.34234726 0.8555498
0000d0 6b 24 cc 3d d9 67 d3 3e 63 17 61 3d 0d b8 c4 3f
       0.09967884 0.41290167 0.054953944 1.5368668
0000e0 16 0a 03 be 86 c2 51 3f 80 b0 3d 3d e7 48 8c 3e
       -0.12796816 0.81937444 0.0463109 0.2739937
0000f0 d1 be 6f 3f 2f 78 0a bf e2 a1 c8 be ae 2c 1f bf
       0.9365054 -0.54089636 -0.39186007 -0.6217755
000100 d2 df 42 be 63 99 24 bf 97 92 84 be 50 52 31 be
       -0.19030693 -0.6429655 -0.2589309 -0.17316556
000110 18 65 17 3f 54 b3 05 be 95 7a c6 be 61 35 62 3f
       0.5913863 -0.1305669 -0.38765398 0.883627
000120 e9 65 bf 3f 4c d1 98 be 16 b1 18 bf de b3 0d bf
       1.4952976 -0.2984718 -0.5964521 -0.5535258
000130 7f e7 ad bd 32 05 05 3f eb bb 5b bf 59 83 03 3f
       -0.0849142 0.5196105 -0.85833615 0.51372296
000140 1e 86 00 3e 7f a9 a5 be ee 85 0a bf c9 7a b5 3e
       0.12551162 -0.32355878 -0.5411061 0.3544524
000150 71 7b fc 3e 88 89 0a 3f 4c cf 56 3e 74 8b b8 3e
       0.49312928 0.54116106 0.20977515 0.36043894
000160 4c bd 42 bf 92 0b bd 3e 2e b3 85 bf ee a6 ba bd
       -0.76070094 0.3692289 -1.0445306 -0.091138706
000170 75 3c 6c 3e 56 6d d7 3e 2c 96 ea be 92 41 6a 3f
       0.23069938 0.42075604 -0.45817697 0.915063
000180 df 3b 5d 3f e0 49 48 3e 54 dd 87 be fd 5f f5 3e
       0.8641948 0.19559431 -0.26536047 0.47924796
000190 cf 68 1d 3e 3b 71 b0 3e 20 b0 97 be ed b8 c9 be
       0.15372013 0.34461388 -0.2962656 -0.393989
0001a0 10 90 82 3e 56 4d d0 3e 9e 03 c8 bd b5 17 08 bf
       0.25500536 0.40684003 -0.09766315 -0.53161174
0001b0 19 bb 7c bf c8 b3 92 bb b7 5a ca be 91 fd 3c 3f
       -0.9872299 -0.004476998 -0.39522335 0.7382441
0001c0 35 f1 82 be db b1 d9 be bc 43 1a 3e 93 94 74 be
       -0.2557465 -0.42518505 0.15064901 -0.23884802
0001d0 8f 3f 2a 3d 3c 6b d8 be 07 35 13 be 76 f4 86 be
       0.04156452 -0.42269313 -0.14375697 -0.26358384
0001e0 8d 27 78 3e ac d6 66 bf 98 35 e1 3d d6 7d d4 be
       0.24233837 -0.90171313 0.1099655 -0.41502255
0001f0 9f 88 c9 3d bc c1 54 3e ce 5f b6 3e 70 68 15 bf
       0.098405115 0.20777029 0.35619968 -0.58362484
000200 24 a5 24 3d 04 e5 4f bf be 7b ab bf 1f 53 0b 3f
       0.040196553 -0.81208825 -1.3397138 0.5442371
000210 60 19 54 3f e7 8f d8 3e f0 e1 4c 3f e2 2d 04 bf
       0.8285122 0.4229729 0.80032253 -0.5163251
000220 68 a4 d3 be bc b5 37 bf 3b a9 b5 3d 20 1d 5d bf
       -0.4133637 -0.7176168 0.08870169 -0.86372566
000230 84 32 43 bc 2d 36 08 3f f6 77 79 bf 92 78 95 be
       -0.011913899 0.53207666 -0.9744867 -0.2919355
000240 86 2d 3d 3f 0c bf 5b bf 13 19 6c be 70 f3 bf 3e
       0.7389759 -0.8583839 -0.2305644 0.37490416
000250 e0 4b c9 3b bd 6d 7a bf e8 c7 a9 bd 36 dc 64 3e
       0.006143078 -0.978237 -0.08290082 0.22349629
000260 69 8c 08 be b0 b7 05 3f c0 5d 63 3f 81 3f b0 3e
       -0.13334812 0.5223341 0.88814926 0.3442345
000270 eb aa 84 be 9c 9c b0 bd 54 b7 92 3f 0a 2a 93 3f
       -0.2591165 -0.08623621 1.1462197 1.1497204
000280 78 62 63 3e 29 47 6c be 92 5a 24 3e c1 09 41 bf
       0.22205532 -0.2307402 0.16050175 -0.7540551
000290 5b 9c 8f be ce 3e 55 bd 36 31 a7 3d bb 71 31 3f
       -0.28048977 -0.05206185 0.08163683 0.69314164
0002a0 88 9f 82 3e 48 da ac 3d cf e5 f6 3e 07 32 da be
       0.25512338 0.08440071 0.48222205 -0.42616293
0002b0 09 b4 e2 3e b6 b7 98 bd 17 95 68 be 2f e0 85 3f
       0.4427798 -0.07456915 -0.22713123 1.045904
0002c0 a1 aa d0 be 95 9a dc 3e 62 70 5d bf 79 9a c1 3e
       -0.4075518 0.43086687 -0.8649961 0.37813166
0002d0 9d c9 7a 3f 92 53 c6 3e 81 e0 ae bf e5 6c 41 bf
       0.9796389 0.38735634 -1.3662263 -0.75556785
0002e0 29 95 6e 3e 19 0d 01 bf 55 d1 8d 3f 6e b3 38 3e
       0.23299088 -0.5041061 1.1079508 0.18037197
0002f0 2c 0b 0e 3f 84 87 20 3f 2a 8d 12 bf 66 a3 09 3f
       0.55485797 0.6270678 -0.5724665 0.5376495
000300 6b e6 11 3b 20 4c cd 3e 37 30 81 be ac e1 db be
       0.0022262584 0.4009714 -0.25232098 -0.4294561
000310 e5 75 a7 3f 6b 5c df be 28 37 ba 3e e0 80 a0 3e
       1.3082854 -0.43625197 0.36370206 0.31348324
000320 de 6d 08 3d 44 c0 53 3e 6e f6 55 be 47 99 08 be
       0.033307903 0.20678812 -0.20894787 -0.1333972
000330 44 0a 10 3f 36 72 76 3e 1c 54 d8 3e 71 84 91 3e
       0.56265664 0.24067006 0.4225167 0.28421357
000340 0b c7 50 3f 12 71 88 be 6e 26 6a 3f 1e fd aa be
       0.81553715 -0.26648766 0.9146489 -0.33396238
000350 2c 86 c3 be 32 5f 2c 3f f9 f8 70 3e 4d 6a 0e bf
       -0.38188303 0.67332757 0.23532476 -0.5563095
000360 7f a1 cb be 42 ed 62 bf 6c 99 f3 bd 6d 44 61 bc
       -0.3977165 -0.88643277 -0.11894497 -0.013749224
000370 aa e8 60 3a 9d ee 80 be 03 17 3d 3f ce 4d 91 3e
       0.00085795915 -0.25182047 0.7386324 0.28379673
000380 38 e5 7c bf e5 05 f2 bf de fb 17 3f 75 2c e4 3c
       -0.9878726 -1.8908049 0.59368694 0.02785323
000390 4a 18 9b be ad c3 22 be 05 84 2b 3e cb a0 2f 3f
       -0.3029197 -0.15894957 0.1674958 0.68604726
0003a0 05 8c b7 bd 5f aa 0f bf 7f 0f a3 bd 2f 5c 91 3c
       -0.089622535 -0.5611934 -0.0796194 0.017744152
0003b0 a4 f1 aa 3d 9c 9b 6d 3f 84 db e8 3e c8 3e 6f bf
       0.083468705 0.92815566 0.45479977 -0.9345517
0003c0 26 46 20 be 09 42 30 be 6b d7 25 3f 4b 09 c6 3e
       -0.1565176 -0.1721269 0.64781827 0.38678965
0003d0 94 1f f4 3d 16 c9 8f 3f ef 8a 93 3d 06 b6 eb 3d
       0.119200855 1.1233242 0.07204234 0.115093276
0003e0 11 62 9b 3e d5 2f b3 be 58 3a 62 bd e8 4f 89 3f
       0.30348256 -0.3499743 -0.055231422 1.072751
0003f0 ed 22 4f 3f 5d 66 29 be e6 f3 09 bf 1d 5c 9b 3e
       0.8091267 -0.16542955 -0.53887784 0.30343714

agg_predictor.rnn.bias_ih_l0_reverse f4 [200]
000000 43 6d e3 be 41 3a 9a be 26 75 5b 3e ad a3 93 be
       -0.44419298 -0.3012257 0.21431407 -0.28835812
000010 56 f7 da 3d a8 ff 63 3e 19 67 b2 be d4 bf c7 be
       0.10691707 0.22265494 -0.34844282 -0.3901354
000020 74 a0 16 3e ec d7 a0 3e 33 b1 d7 be 21 b0 df be
       0.14709646 0.31414735 -0.4212738 -0.43689063
000030 5a d1 13 bf 9a c3 c5 bc 54 65 c0 be da 77 e8 be
       -0.5774132 -0.024141122 -0.37577307 -0.4540394
000040 2e 09 2a bf 21 06 62 be 24 81 37 bf 66 b5 c6 be
       -0.6642026 -0.2207265 -0.7168143 -0.3881027
000050 cc ad 5e bd 31 66 e5 bd 34 1d 9d be 6e 57 5d bf
       -0.054364964 -0.11201132 -0.30686343 -0.8646153
000060 6b 19 d7 3c 77 89 08 bf a7 57 ae 3e 25 f9 32 bf
       0.026257237 -0.53334755 0.34051248 -0.69911414
000070 26 cb 75 bf 93 e7 21 bf e1 5e 57 bd 83 78 c7 3a
       -0.96013105 -0.6324398 -0.052580718 0.001521841
000080 17 53 08 bf 9e 0b 74 bf c5 82 c9 bd 98 f8 8b bf
       -0.53251785 -0.95330226 -0.098393954 -1.093524
000090 2b ee dd be 3b 29 3e be 2b 8d b0 be cd e8 25 bf
       -0.4334577 -0.18570416 -0.34482703 -0.6480835
0000a0 5b 2d 10 bd 99 dd 38 be 22 0b 1a be 62 0e 36 bf
       -0.035199504 -0.18053283 -0.1504331 -0.71115696
0000b0 d4 53 0c bf e5 74 12 bf d5 ef 2c bf b5 21 ad be
       -0.5481541 -0.57209617 -0.67553455 -0.3381478
0000c0 d6 e0 2c 3f f1 11 ff bd 1a 52 46 3e 0d 1d a8 3d
       0.6753057 -0.12454594 0.19367257 0.08208666
0000d0 fe ce ca be a8 b9 42 3f b0 92 08 bf 4b 98 1b 3b
       -0.39611048 0.7606454 -0.5334883 0.0023741897
0000e0 be 8f 20 3e 6d 6f d3 bd 23 ec 1b bd 7f 8e c5 3e
       0.15679833 -0.10323987 -0.038066994 0.38585278
0000f0 ea f0 0d 3f c4 3f 00 bf 14 c2 f7 be 0f a5 0b bf
       0.5544573 -0.500973 -0.48390257 -0.54548734
000100 0f a0 87 bd 40 2d a9 3d eb db 82 3c fb 5a 47 3f
       -0.06622326 0.08260584 0.015974006 0.778732
000110 1c 58 07 3f 8b 1d a2 3d 7c 52 97 3d 1f d3 97 bd
       0.5286882 0.07915791 0.073887795 -0.07413315
000120 3d 14 f3 3e 42 d4 53 bf 38 12 c3 3e 6b ac 0d bd
       0.47476378 -0.82745755 0.38099837 -0.03458826
000130 b8 e0 c9 be fc 42 d7 3e 1b fb d9 bd 60 47 fc be
       -0.3942926 0.42043293 -0.10643598 -0.49273205
000140 d5 7c 13 be 3f c1 36 bf 4c 82 db bd 9d ea ad 3e
       -0.14403088 -0.7138862 -0.107182115 0.33968058
000150 82 2b 1d 3e fd a9 8e be d6 47 28 3e ea e5 f9 3d
       0.15348628 -0.27864066 0.16433653 0.12202056
000160 fd 09 7b 3e 9b ff 3f bf 01 bf dc be f5 d4 72 bc
       0.24515529 -0.749994 -0.43114474 -0.014821281
000170 93 06 d1 bd b5 1b 7b be c5 b5 96 3e ae dd b4 be
       -0.10206332 -0.24522288 0.29435554 -0.35325378
000180 da 24 57 3e 45 4d bc be 28 fe 98 3e 9d b6 28 3d
       0.21010152 -0.36777702 0.29881406 0.04118978
000190 92 12 86 3d ce 1c 42 be 4b f3 13 3e a6 7b ae 3e
       0.06546511 -0.189563 0.14448278 0.3407871
0001a0 ef 82 cd bd 04 95 4d bd af 7b bd 3e ea a3 d0 3e
       -0.10034739 -0.05019094 0.37008426 0.40750057
0001b0 b8 d6 1d bf 26 e8 40 3e d6 c1 85 3e a0 99 b2 be
       -0.6165576 0.18838558 0.26124448 -0.34882832
0001c0 b9 37 c4 3e 0f 05 ce 3d 54 6c 96 3e b8 7c 76 bd
       0.38323763 0.100595586 0.29379523 -0.060177535
0001d0 a8 6b 32 3e 88 c5 42 bf 65 5d b2 be 07 ff 05 3d
       0.1742388 -0.7608266 -0.3483688 0.032713916
0001e0 73 6f 48 3e 26 44 b7 be 52 34 07 3e 19 37 8a be
       0.19573765 -0.3579418 0.13203552 -0.2699516
0001f0 08 92 7d 3e 69 3e 14 bf c8 0d 51 3f d1 fd 0e 3e
       0.24762738 -0.5790773 0.81661654 0.13964011
000200 61 aa 97 3e a6 b0 5e bd 38 e8 8c 3d 83 72 e2 bd
       0.29622176 -0.054367684 0.0688023 -0.110569976
000210 0e cc f4 bc 9c a2 be be 4b 02 d7 bd a0 0d 2e be
       -0.029882457 -0.37233436 -0.10498484 -0.16997385
000220 f9 0d d4 be a9 a2 11 be 67 78 d7 3c 92 9c a9 3e
       -0.4141691 -0.14222206 0.02630253 0.33127266
000230 d1 4d 18 3e 4b 27 8d 3e a0 4b 8e be 47 da c3 bd
       0.14873435 0.2756904 -0.27792072 -0.095631175
000240 c2 a2 f7 3e 95 a1 73 3e 0b c5 bb 3e 28 3a 3b be
       0.48366362 0.23792107 0.3667377 -0.18283904
000250 58 8c 33 3e 4c f3 59 be 1f 39 3b 3e 21 59 4f bd
       0.17534006 -0.21284217 0.18283509 -0.05062211
000260 fa 3d d3 be 65 50 3a 3d ea ff 5b bd 18 44 69 3d
       -0.41258222 0.045486826 -0.053710856 0.056949705
000270 b1 d5 96 3e b2 7c 30 3e 95 1b 93 be 36 83 02 3e
       0.2945991 0.17235067 -0.2873198 0.12745366
000280 06 f8 a3 be 58 47 a9 3d 08 d8 96 be 00 c8 b0 bd
       -0.32025164 0.08265561 -0.29461694 -0.08631897
000290 2a 27 8a bd 07 0d 99 be ed d8 30 bf ff bd 94 3e
       -0.06745751 -0.29892752 -0.69081 0.29051206
0002a0 2a e5 14 bf 3f da ff be dc 53 7d 3c d1 3f c5 be
       -0.58162177 -0.49971196 0.015461888 -0.3852525
0002b0 64 0d af bd 78 bc 2e bf f8 a5 27 bd f0 6c 94 bd
       -0.08547476 -0.6825633 -0.040929765 -0.07247341
0002c0 a7 d8 f2 3d e8 95 55 bd 6e 03 72 3e 7f 20 98 bd
       0.118577294 -0.052144915 0.23634121 -0.07428073
0002d0 77 b5 8e be 7f 24 b0 bd 6c 0f a5 be 97 01 59 3c
       -0.27872822 -0.08600711 -0.32238328 0.013245008
0002e0 80 a9 24 bf 78 27 49 bf af ed 48 bd eb 3f d2 3d
       -0.64321136 -0.7857585 -0.049054798 0.10266098
0002f0 2f 7a a1 3c f7 0b 18 bf 1e b2 94 be 14 49 45 be
       0.019711582 -0.59393257 -0.29042143 -0.19266158
000300 ab 7e dd bd e2 6c 98 be 30 e8 a6 be 64 29 05 3e
       -0.108151756 -0.2977057 -0.3259902 0.1300407
000310 cc 98 d3 be 98 46 bb be 57 ce 30 bf b9 69 df 3e
       -0.41327512 -0.36577296 -0.6906485 0.43635347

agg_predictor.rnn.bias_hh_l0_reverse f4 [200]
000000 a6 3b 07 bf 82 f6 62 be f8 b8 96 3e ab 18 e6 be
       -0.5282539 -0.22164348 0.29437995 -0.44940695
000010 7f ce 92 3e cc 9e da 3d cd 5b c9 be 9f 74 93 be
       0.2867317 0.10674819 -0.3932785 -0.28799912
000020 0d bf 4a 3e dc 21 03 3f e6 46 de be 57 a9 13 bf
       0.19799443 0.5122354 -0.43413466 -0.5768027
000030 5d 51 fe be 36 57 13 be 9c 57 b0 be 04 49 c6 be
       -0.4967145 -0.14388737 -0.3444184 -0.38727582
000040 0a 8a 56 bf 2a 1d ca be 5f 89 3a bf fe 91 84 be
       -0.8380438 -0.39475375 -0.7286586 -0.25892633
000050 b5 5d 19 be e6 80 37 be c9 a9 92 be 0b 3f 2a bf
       -0.14977153 -0.17920265 -0.2864516 -0.66502446
000060 ba ce 7d 3e b3 7f cb be f9 19 82 3e 99 48 32 bf
       0.24785891 -0.39745864 0.2541044 -0.69642025
000070 3a ea 44 bf 4c e8 e9 be da 87 17 be 77 bd 70 be
       -0.769199 -0.4568504 -0.14797917 -0.23509775
000080 0f 53 d2 be c1 51 76 bf d7 41 cb bd e5 39 79 bf
       -0.41078994 -0.96218497 -0.09924667 -0.97353965
000090 72 d5 b3 be ca 7d 31 be 46 82 ad be 23 ec 3c bf
       -0.35123783 -0.17333141 -0.33888453 -0.73797816
0000a0 69 c8 ad 3d f0 a4 96 be 1e cf 07 be 00 14 12 bf
       0.08485491 -0.29422712 -0.13262603 -0.5706177
0000b0 c2 bd 03 bf c4 8d 25 bf 5d 26 62 bf b1 f2 b0 be
       -0.5146142 -0.6466944 -0.8833979 -0.3456016
0000c0 a9 16 10 3f a8 52 0e be 22 c8 7a 3e 32 6b dc bd
       0.56284577 -0.13898718 0.24490407 -0.107626334
0000d0 58 b7 1a bf 76 50 2b 3f d9 c4 30 bf 11 cf 54 3e
       -0.6043601 0.6691965 -0.69050366 0.20782115
0000e0 ac 96 ac 3e ba 1a 42 bd 3b 01 93 3d 11 6c a5 3e
       0.33708704 -0.04738877 0.07177969 0.3230901
0000f0 75 0c ba 3e 71 10 05 bf 0b 09 2a bf b3 23 d4 be
       0.3633763 -0.5197821 -0.6642005 -0.41433486
000100 5e a8 57 be 6e 0f 0a 3d f9 27 20 bd 60 eb 25 3f
       -0.2106032 0.03370612 -0.03910062 0.6481228
000110 d7 fb c8 3e 50 78 66 3b 93 98 e2 bd d8 d6 cd bd
       0.3925464 0.0035166927 -0.110642575 -0.10050744
000120 f7 9f 05 3f ae 8c 55 bf 52 4d 95 3e 02 94 7f be
       0.5219721 -0.83417785 0.29160553 -0.24958804
000130 62 d9 98 be a4 16 e6 3e 01 bc 0c bd 8e 75 f7 be
       -0.2985335 0.44939148 -0.034358982 -0.48331875
000140 59 7e 8d be 23 c3 0d bf 11 e3 3b be 1d 60 f9 3e
       -0.27635458 -0.5537588 -0.18348338 0.4870614
000150 fb 26 0d bd 0d 83 18 be 2c 6d 2f 3e f6 d3 ae 3d
       -0.034461003 -0.14893742 0.1713149 0.08536522
000160 a5 d9 b2 3d 29 46 66 bf 36 2d 5d be 15 ec 30 bc
       0.08732919 -0.89950806 -0.21599278 -0.010798474
000170 b6 d6 1d be 0d cd cd 3b 5d 14 01 3e 59 91 73 be
       -0.15413937 0.0062805475 0.12605424 -0.23785914
000180 cc a4 6e 3e e7 db 16 bf 62 67 b6 3e 14 9c ca 3d
       0.23305053 -0.58929294 0.3562575 0.09893051
000190 52 86 2d 3d d7 55 bf bd 04 01 69 3e 18 65 7d 3e
       0.042364426 -0.093425445 0.22754294 0.24745595
0001a0 d5 38 71 be 0f 87 c8 3c 38 f5 cc 3e ee 73 ac 3e
       -0.23556836 0.024478463 0.40030837 0.33682197
0001b0 91 02 0c bf a9 1a b3 3e f8 2f ae 3e 91 28 25 be
       -0.54691416 0.34981278 0.34020972 -0.16128756
0001c0 f0 00 03 3f 13 84 18 3e 53 30 51 3e e9 ad a4 3c
       0.51173306 0.14894132 0.2042859 0.020102458
0001d0 c0 e2 40 3e 7a 2e 11 bf 71 00 c4 bd 76 15 c1 3c
       0.18836498 -0.5671154 -0.09570397 0.023569804
0001e0 a1 30 91 3c 80 06 d6 be 3a 4d 1b 3e b7 7b 8e be
       0.017723383 -0.41801834 0.15166178 -0.27828762
0001f0 9c 1c 8a 3e 2a 79 17 bf 08 ba 3e 3f 43 28 08 3e
       0.26974952 -0.59169257 0.7450261 0.13296609
000200 25 3b 83 3e 05 61 fa 3d 2c 62 79 3d 36 f0 9a be
       0.2563106 0.12225536 0.06088464 -0.3026139
000210 64 8c fe bc cb ca f5 be 9d 6d 3d 3c cf 66 4c be
       -0.031072803 -0.4800628 0.011561778 -0.19961093
000220 6f 6f c2 be 0a c0 55 3d 0f fd 24 3d af 82 87 3e
       -0.37975642 0.052185096 0.040280398 0.2646689
000230 ab 7f d0 3d 38 6f 54 3e 77 bf 88 be 6c f3 b4 3d
       0.10180601 0.20745552 -0.26708576 0.088354915
000240 0a 75 95 3e 55 2c 92 3e a0 1a 87 3e fc 76 07 be
       0.29190856 0.28549448 0.263875 -0.13228983
000250 fa 32 d3 3d 81 e3 cb be 7a 0d 86 3d 6f b1 30 bd
       0.103124574 -0.3982201 0.06545539 -0.043137964
000260 c2 45 65 be cc 52 12 3e 89 5e 72 be af 4a 55 be
       -0.22389892 0.14289397 -0.23668875 -0.20829271
000270 c2 c6 b5 3e 22 d5 26 bc c6 6c 83 be 4c 5b 5a 3e
       0.35503203 -0.010182651 -0.25668925 0.2132389
000280 7e ca 69 be 13 2c 02 3e 87 8b b4 be 36 ad 2d 3c
       -0.22831151 0.12712125 -0.352627 0.010600379
000290 09 4e 5c be f4 9d 65 be 41 e4 4f bf 47 b3 f3 3d
       -0.21514143 -0.22423536 -0.8120766 0.11899429
0002a0 dc 9e 2b bf 79 32 95 be 10 70 23 be 80 02 2f be
       -0.67039275 -0.2914007 -0.15960717 -0.17090797
0002b0 ed 18 42 be 1e a9 11 bf 49 27 bb 3d 7b eb 21 be
       -0.18954821 -0.5689868 0.091383524 -0.15812485
0002c0 8d 02 ff 3d 0f 61 d7 3d bf 3a fc 3d d1 69 9a 3c
       0.124516584 0.10516559 0.123158924 0.018849285
0002d0 09 fd 85 be 77 a6 4d be 6d a2 93 be dd f9 61 3e
       -0.26169613 -0.20083033 -0.2883486 0.22067972
0002e0 b9 5d f4 be f7 b3 2d bf 94 dd 14 3e 24 e4 93 3d
       -0.47727755 -0.6785273 0.1453765 0.07221249
0002f0 d3 fb 3f 3d ae 61 25 bf 21 40 dc be ca ea 44 be
       0.046871018 -0.6460217 -0.43017676 -0.1923019
000300 0b 86 13 be 94 69 9a be d7 35 53 be 96 e3 8e bd
       -0.14406602 -0.30158675 -0.20626007 -0.06977002
000310 ad 98 c5 be 87 55 b8 be 68 cf 2f bf a1 44 0d 3f
       -0.38593045 -0.36002752 -0.6867585 0.55182844
