saved_models/agg_model.pth (torch_old, 288362 bytes, 9 tensors)

agg_predictor.rnn.weight_ih_l0 f4 [400, 50]
0.08716531 0.16090603 -0.089473285 -0.08915348 -0.48205084 0.4247218 0.15164971 0.5622851
0.0936648 0.563005 -0.05007427 -0.023401529 0.14656995 -0.13033071 0.19626723 -0.62763965
0.22516409 0.19399121 -0.12225706 -0.1265066 -0.14734544 -0.28329188 -0.24699247 -0.15932192
0.32117137 0.054065064 -0.4541678 -0.5360632 -0.37799668 0.22021845 0.012237599 0.27841592
0.50311667 -0.028771112 -0.08937508 0.89430135 0.5205725 -0.200548 -0.51689464 0.19315861
-0.2101456 -0.103441216 -0.072018445 0.17409903 -0.29306182 0.044411432 -0.2790083 0.12771909
-0.5129133 -0.45178023 -0.19354302 0.15797323 -0.12548566 -0.16471462 -0.119840525 -0.09045805
0.27817523 0.19418143 0.19789144 0.055018563 0.01702901 0.07608942 -0.067108504 0.5028263
0.04970521 -0.013660773 0.016952762 -0.100253105 0.3369671 -0.16113856 -0.00434266 -0.006081604
-0.07749437 -0.02638386 -0.40001646 0.030017179 0.03171703 0.15715468 -0.06626146 0.2725322
-0.053001232 -0.15947358 -0.02011413 -0.2282993 0.18687427 0.2245577 0.24820487 -0.088362835
-0.02407718 0.1376436 -0.20390645 -0.1071305 -0.09002324 0.35787624 -0.124858685 -0.07131822
0.28495625 -0.18157548 -0.16498731 -0.18529756 -0.055930562 0.20759352 -0.37055334 -0.2848288
-0.18426248 0.06305523 -0.002553871 0.11771445 -0.33078033 -0.019709948 0.059844792 0.16165514
-0.21912117 -0.30059084 -0.038952027 -0.41853568 0.40840447 -0.31230232 -0.02693377 -0.21855024
-0.16480395 0.21658157 -0.17444685 -0.11281073 -0.27187306 0.0813275 -0.25454497 -0.3710171
-0.3314877 0.1755174 0.07402163 -0.32098135 -0.17965034 -0.08209116 0.29046842 0.27511325
0.28281 -0.25309074 -0.19405484 0.39113212 -0.029555446 0.11766248 -0.25479603 0.33305168
-0.39335564 -0.10525262 -0.3095463 0.011897455 -0.359653 -0.26846424 -0.08084898 0.04692887
0.021905245 -0.30217865 -0.3875462 -0.1077632 0.057136785 0.44418216 -0.03465742 0.44049728
0.09801401 -0.00804661 -0.02691213 0.18197459 -0.008562019 -0.33640742 0.16734284 -0.10698456
0.34523752 -0.1769444 -0.24974032 -0.05376282 -0.04316951 0.25444958 0.0900853 0.14174747
-0.087405406 -0.27154818 0.06822849 0.38187996 -0.06548508 0.020558996 0.3353644 0.034640376
0.12537801 0.29600516 0.16843207 -0.07856611 -0.21818012 0.33681917 0.043650623 -0.07656592
0.07729785 0.13827841 0.16886275 -0.5340643 0.04281328 0.016687356 -0.18559024 -0.1832885
-0.39803413 -0.2774562 0.02615801 -0.26422045 0.17852782 -0.33393037 0.10905791 0.03517679
-0.3727719 0.37392065 0.026347151 0.45663404 -0.27245083 0.03578705 -0.19918437 0.23940621
0.4001659 -0.40147522 0.29418072 -0.38504001 -0.47724104 0.5415316 -0.25051254 -0.46357346
0.22441809 -0.018219449 0.1002691 -0.017892102 0.4245176 -0.1107595 -0.21192758 -0.027080815
-0.6545313 0.28332704 0.18267807 -0.43026602 0.014503003 0.15778938 0.3446998 0.024743702
0.27520424 0.19647734 0.056718286 0.33002052 0.20126395 -0.19678272 0.16856715 0.227344
0.012981898 0.5574311 0.026371833 0.30316496 0.020816427 0.41294554 -0.343933 -0.040682707
00000000: ba83 b23d 8dc4 243e c53d b7bd 1a96 b6bd
00000010: 5ecf f6be 2375 d93e 104a 1b3e ebf1 0f3f
00000020: 55d3 bf3d 1821 103f ae1a 4dbd 90b4 bfbc
00000030: 6f16 163e 6a75 05be 47fa 483e feac 20bf
00000040: 6a91 663e a2a5 463e e961 fabd f28a 01be
00000050: b9e1 16be a20b 91be 98eb 7cbe 4925 23be
00000060: 9370 a43e 5473 5d3d af88 e8be 703b 09bf
00000070: c888 c1be f280 613e 3680 483c 888c 8e3e
00000080: 41cc 003f 65b1 ebbc 480a b7bd eff0 643f
00000090: 3d44 053f 745c 4dbe 3553 04bf 5fcb 453e
000000a0: 6830 57be fdd8 d3bd 687e 93bd 0447 323e
000000b0: 330c 96be c3e8 353d 2dda 8ebe cbc8 023e
000000c0: 494e 03bf bd4f e7be 2430 46be bcc3 213e
000000d0: 507f 00be f3aa 28be f36e f5bd 1242 b9bd
000000e0: fc6c 8e3e 7fd7 463e 0ea4 4a3e 255b 613d
000000f0: 6c80 8b3c c5d4 9b3d 2f70 89bd 39b9 003f
00000100: b197 4b3d 6fd1 5fbc 85e0 8a3c 8051 cdbd
00000110: f486 ac3e 8201 25be df4c 8ebb 3148 c7bb
00000120: 5eb5 9ebd f722 d8bc f5ce ccbe 96e6 f53c
00000130: b7e9 013d 28ed 203e 17b4 87bd 5789 8b3e
00000140: d217 59bd 0b4d 23be 63c6 a4bc 4bc7 69be
00000150: f85b 3f3e 74f2 653e 6b29 7e3e 93f7 b4bd
00000160: 823d c5bc 72f2 0c3e dacc 50be 3c67 dbbd
00000170: 1b5e b8bd 8e3b b73e e9b5 ffbd 490f 92bd
00000180: c9e5 913e ecee 39be 6ff2 28be a5be 3dbe
00000190: 7217 65bd 6593 543e 2bb9 bdbe 15d5 91be
000001a0: 4eaf 3cbe 1a23 813d d85e 27bb 4614 f13d
000001b0: 0a5c a9be c276 a1bc d01f 753d ed88 253e
000001c0: 4d61 60be 0be7 99be 298c 1fbd 4f4a d6be
000001d0: 641a d13e 17e6 9fbe 36a4 dcbc a2cb 5fbe
000001e0: 5ec2 28be 8fc7 5d3e 32a2 32be 5009 e7bd
000001f0: f232 8bbe 088f a63d b853 82be f4f5 bdbe
00000200: c1b8 a9be d5ba 333e a798 973d ab57 a4be
00000210: 42f6 37be 691f a8bd 47b8 943e a5db 8c3e
00000220: 79cc 903e 1c95 81be 50b6 46be 7842 c83e
00000230: 431e f2bc 07f9 f03d a074 82be c085 aa3e
00000240: e965 c9be b08e d7bd da7c 9ebe 8bed 423c
00000250: 7024 b8be 2574 89be 2694 a5bd 7d38 403d
00000260: a172 b33c 29b7 9abe 756c c6be f4b2 dcbd
00000270: 4308 6a3d d86b e33e f0f4 0dbd dc88 e13e
00000280: 92bb c83d eed5 03bc d476 dcbc 8c57 3a3e
00000290: b647 0cbc 983d acbe ec5b 2b3e b91a dbbd
000002a0: f9c2 b03e ea30 35be edbb 7fbe 6736 5cbd
000002b0: 83d2 30bd 3747 823e a47e b83d 4026 113e
000002c0: 9b01 b3bd 5d08 8bbe 61bb 8b3d c585 c33e
000002d0: 0b1d 86bd 576b a83c e2b4 ab3e 11e3 0d3d
000002e0: 1863 003e fd8d 973e 7579 2c3e 45e7 a0bd
000002f0: 9c6a 5fbe 9073 ac3e ffca 323d 98ce 9cbd
00000300: 564e 9e3d db98 0d3e 5bea 2c3e 70b8 08bf
00000310: fa5c 2f3d ecb3 883c 5e0b 3ebe fbaf 3bbe
00000320: 21cb cbbe bd0e 8ebe 5349 d63c e747 87be
00000330: ffcf 363e ecf8 aabe c159 df3d 8a15 103d
00000340: f5db bebe 8772 bf3e fbd5 d73c f0cb e93e
00000350: ad7e 8bbe 7195 123d fdf6 4bbe e726 753e
00000360: 8be2 cc3e 298e cdbe db9e 963e f723 c5be
00000370: f058 f4be d1a1 0a3f 2e43 80be 8059 edbe
00000380: dbcd 653e f440 95bc e359 cd3d 7592 92bc
00000390: 5f5a d93e e0d5 e2bd 8b03 59be 96d8 ddbc
000003a0: 5d8f 27bf 3e10 913e f60f 3b3e d44b dcbe
000003b0: 019e 6d3c 8a93 213e 7e7c b03e 4eb3 ca3c
000003c0: 92e7 8c3e 5b31 493e 6f51 683d 73f8 a83e
000003d0: 2318 4e3e 6981 49be de9c 2c3e decc 683e
000003e0: 07b2 543c ceb3 0e3f be09 d83c 7038 9b3e
000003f0: 3687 aa3c 996d d33e fc17 b0be e9a2 26bd

agg_predictor.rnn.weight_hh_l0 f4 [400, 100]
0.21670726 -0.043112118 0.10585398 0.34433916 0.33193055 0.30898482 -0.022861615 -0.034454327
-0.25292817 -0.26677644 -0.43095315 -0.5807179 -0.09303277 -0.20235707 0.4357549 -0.11938944
-0.34038526 0.40671003 -0.10327656 -0.316072 -0.307169 -0.08450637 0.17759933 -0.077584825
0.3651444 0.04345479 0.14059079 -0.10466109 0.7443835 0.2577818 -0.34649163 0.3875267
-0.30953175 0.7765356 -0.34417397 0.6989209 -0.3441503 0.12869114 -0.1116322 -0.15894061
0.28179246 -0.23965485 -0.44117066 -0.36195794 0.18277334 0.1860331 -0.06044574 0.04176104
0.26384598 -0.26006156 -0.091109954 0.24500035 0.03135801 -0.72719806 -0.050691646 0.2829435
-0.5006294 -0.18347922 -0.06903616 0.12084668 0.24824698 0.4512991 -0.07580519 -0.2605645
-1.1305759 -0.0011301371 0.19502528 -0.4937097 0.11076398 0.23597623 -0.37622684 0.27502665
-0.03354483 0.07166442 -0.051042486 -0.0004942382 -0.23633088 -0.7551795 -0.53873503 0.71209073
-0.050690446 0.19518177 -0.38156995 -0.60509855 0.4587805 -0.4704203 -0.124253355 0.5953145
-0.21278186 -0.30791527 -0.07084952 0.15009418 0.16828668 -0.25405258 -0.26323855 -0.3366931
0.4251356 -0.10131033 0.3317212 0.24062373 -0.34706026 0.20368856 -0.02692419 -0.14210133
0.004476363 0.30499378 0.11448699 -0.1244603 -0.017095184 -0.028306764 -0.19768596 0.1535378
-0.11227849 -0.016706098 0.0015017829 0.1379534 0.27808392 0.13992262 -0.052880142 0.103641845
-0.14404823 -0.17246704 0.022580046 -0.008405659 -0.34608272 0.07137545 0.044593118 0.006303822
0.44980446 -0.17763871 0.21332736 0.15470263 -0.380321 -0.060042057 0.13385604 0.25353464
-0.22995308 -0.14162782 0.040091515 -0.07074637 -0.12206663 0.079259925 -0.5284406 -0.109452814
-0.16249333 -0.25873512 0.0015812997 -0.007824204 -0.14625229 0.0007836276 0.12942316 -0.00026981338
-0.31084085 0.3519166 0.13158649 -0.1365895 -0.4160476 0.014441488 -0.039265383 -0.012349977
-0.03822553 -0.18923831 0.21133883 0.11968118 -0.46117428 -0.09875036 -0.10132158 -0.12624818
0.110366724 -0.06466273 -0.029761504 0.034700904 -0.15280306 0.70820254 -0.04252694 0.13195746
-0.15112142 -0.041992143 -0.012269033 0.3697823 -0.037335802 -0.14604342 -0.015980192 0.16936594
0.0011983421 0.2206999 0.23064195 -0.10576904 0.083822645 -0.15670775 0.17660154 -0.10598432
0.29210117 -0.0015526915 0.032892145 -0.16828595 0.16674434 -0.44609267 -0.13637398 -0.03408759
-0.53095996 0.3805445 -0.3448345 -0.53837025 0.0925915 0.12602258 0.07991618 -0.072582394
0.106845915 0.30092618 -0.0168751 0.7661315 0.115664475 -0.035422377 -0.07779338 0.11516065
0.6993242 -0.013771676 0.32514453 0.2935554 0.11172895 -0.30310255 -0.29519296 0.18290757
-0.50415087 -0.13003805 -0.18623437 -0.46811184 -0.048776872 0.008556826 0.55179083 -0.04709529
-0.08345527 -0.2075161 -0.023728497 0.19709033 -0.26630354 -0.19973196 -0.24964213 0.13371405
0.0069028903 0.15024732 -0.30514598 0.12876321 -0.09122855 0.0022403703 -0.17823526 0.03715268
-0.22411425 0.06540941 -0.08077969 -0.028748097 -0.30696175 -0.113560684 -0.046657477 -0.0769415
00000000: 82e8 5d3e 5596 30bd f9c9 d83d 394d b03e
00000010: cdf2 a93e 4233 9e3e 4848 bbbc fb1f 0dbd
00000020: cd7f 81be ec96 88be e4a5 dcbe eea9 14bf
00000030: f787 bebd b136 4fbe 441b df3e 7382 f4bd
00000040: fa46 aebe 4c3c d03e a982 d3bd 30d4 a1be
00000050: 4145 9dbe ad11 adbd 99dc 353e cbe4 9ebd
00000060: 35f4 ba3e a6fd 313d 08f7 0f3e 8e58 d6bd
00000070: eb8f 3e3f fafb 833e 5a67 b1be e669 c63e
00000080: f27a 9ebe 09cb 463f 9237 b0be 7bec 323f
00000090: 7834 b0be 9cc7 033e 6c9f e4bd 54c1 22be
000000a0: 1a47 903e 1568 75be 1fe1 e1be 8d52 b9be
000000b0: ef28 3b3e 767f 3e3e f495 77bd a00d 2b3d
000000c0: d216 873e ca26 85be db97 babd 5fe1 7a3e
000000d0: 4271 003d a729 3abf 0ba2 4fbd f8dd 903e
000000e0: 4029 00bf fae1 3bbe d562 8dbd 777e f73d
000000f0: 7534 7e3e ad10 e73e c03f 9bbd b668 85be
00000100: b6b6 90bf 1c21 94ba b5b4 473e 85c7 fcbe
00000110: 3ad8 e23d c1a3 713e cea0 c0be 4bd0 8c3e
00000120: 4e66 09bd ccc4 923d ed11 51bd c48f 01ba
00000130: b900 72be 7253 41bf 8aea 09bf 944b 363f
00000140: c9a0 4fbd bbdd 473e 235d c3be bde7 1abf
00000150: 47e5 ea3e eeda f0be 8b78 febd 8866 183f
00000160: 7de3 59be 12a7 9dbe 8e19 91bd 4ab2 193e
00000170: 5853 2c3e 2e13 82be 34c7 86be 0a63 acbe
00000180: 60ab d93e ca7b cfbd 5cd7 a93e 1166 763e
00000190: e2b1 b1be bc93 503e 1e90 dcbc 0383 11be
000001a0: 74ae 923b 2528 9c3e 2878 ea3d 0be5 febd
000001b0: 330b 8cbc 96e3 e7bc 306e 4abe 0339 1d3e
000001c0: 44f2 e5bd 3adb 88bc 79d7 c43a a843 0d3e
000001d0: 0461 8e3e e047 0f3e d998 58bd 2d42 d43d
000001e0: 6181 13be 339b 30be caf9 b83c e4b7 09bc
000001f0: c131 b1be 4b2d 923d 46a7 363d 4b90 ce3b
00000200: c54c e63e ece6 35be 7d72 5a3e 5e6a 1e3e
00000210: 6fb9 c2be a9ee 75bd 8f11 093e 4bcf 813e
00000220: d278 6bbe e206 11be 0037 243d 79e3 90bd
00000230: 12fe f9bd 0753 a23d e247 07bf cc28 e0bd
00000240: a764 26be ee78 84be 9d43 cf3a 1731 00bc
00000250: 29c3 15be 5c6c 4d3a 8187 043e bd75 8db9
00000260: 8826 9fbe 6a2e b43e 9cbe 063e 1ede 0bbe
00000270: 3104 d5be fe9b 6c3c bdd4 20bd 8f57 4abc
00000280: 6092 1cbd b0c7 41be 3569 583e 681b f53d
00000290: 091f ecbe a13d cabd b081 cfbd 3447 01be
000002a0: f307 e23d e56d 84bd 66ce f3bc 8922 0e3d
000002b0: 6878 1cbe c34c 353f bb30 2ebd db1f 073e
000002c0: 93bf 1abe f4ff 2bbd 0e04 49bc 1b54 bd3e
000002d0: 6ded 18bd 688c 15be e4e8 82bc 446e 2d3e
000002e0: b011 9d3a 28ff 613e 672d 6c3e 709d d8bd
000002f0: 35ab ab3d ff77 20be 09d7 343e 4f0e d9bd
00000300: 498e 953e ae83 cbba eab9 063d 2753 2cbe
00000310: 07bf 2a3e 4266 e4be 9fa5 0bbe 6e9f 0bbd
00000320: feec 07bf bbd6 c23e 268e b0be a2d2 09bf
00000330: 9da0 bd3d 100c 013e 18ab a33d 14a6 94bd
00000340: 08d2 da3d ff12 9a3e a63d 8abc 3221 443f
00000350: 7fe1 ec3d 0e17 11bd 2352 9fbd 59d9 eb3d
00000360: e906 333f 99a2 61bc 5879 a63e e54c 963e
00000370: 26d2 e43d 4230 9bbe 8823 97be 1f4c 3b3e
00000380: 0810 01bf b228 05be 39b4 3ebe 5bac efbe
00000390: 42ca 47bd ee31 0c3c 2a42 0d3f fee6 40bd
000003a0: 99ea aabd 1a7f 54be 4462 c2bc 0cd2 493e
000003b0: f058 88be 8986 4cbe 30a2 7fbe 56ec 083e
000003c0: a431 e23b 6fda 193e 183c 9cbe 81da 033e
000003d0: 09d6 babd 2dd3 123b 4e83 36be 692d 183d
000003e0: 357e 65be 5ef5 853d d26f a5bd 2181 ebbc
000003f0: 172a 9dbe 8192 e8bd e91b 3fbd 8193 9dbd

agg_predictor.rnn.bias_ih_l0 f4 [400]
-0.13443568 -0.23376033 -0.2221507 -0.16069978 -0.13956879 -0.09798637 -0.2595958 -0.34534776
-0.047764193 -0.25624397 -0.4466355 0.015985027 -0.1919853 -0.2184324 -0.061533973 -0.19214073
-0.15246804 -0.027968345 -0.3118123 -0.16114841 0.11015924 -0.06812935 -0.13175544 -0.012457187
-0.39218396 -0.23438938 -0.1886045 -0.101372905 -0.01813681 -0.16959451 -0.31295612 -0.21397562
-0.4023419 -0.21979935 -0.27622074 -0.2765449 -0.304343 -0.08778777 -0.43225864 -0.27330586
-0.19298719 -0.21504053 0.12489866 -0.12421763 -0.19043091 -0.023527913 -0.30413058 -0.11873367
-0.030819131 -0.079957984 -0.15203479 -0.37996334 -0.15665315 -0.19263338 -0.19432399 -0.1482138
-0.40689275 0.004202391 -0.15666746 -0.104778044 -0.084858105 -0.12129323 -0.2126345 -0.39388126
-0.13420843 -0.23989582 -0.21601647 -0.25200757 -0.38074133 0.0018270591 -0.3716179 -0.37597933
-0.22847074 0.028799655 -0.31246263 -0.13748063 -0.11591536 -0.010093481 -0.06427371 -0.34945032
-0.38621852 -0.2290914 -0.22633566 -0.21286216 -0.33369878 -0.66385096 -0.19467424 -0.1102682
-0.15915148 -0.3497613 -0.2749908 -0.3044764 -0.1422558 -0.19470657 -0.12220356 -0.0345827
-0.10038605 -0.39147937 -0.31861246 -0.054844 0.3222632 -0.046985175 0.10733403 -0.2068528
0.29011935 0.0696802 0.08418596 0.00022696758 0.13700235 -0.33970332 0.013036834 -0.24203767
-0.15218194 0.0009382005 0.053081147 -0.06977791 -0.059639953 -0.16400813 -0.008864397 -0.030939436
-0.11632966 -0.14497036 -0.116441205 -0.100038804 -0.15018457 -0.033444747 -0.011643117 -0.13142939
-0.22461724 -0.44379574 0.18169664 -0.098547965 -0.3443374 0.033952374 -0.0489187 -0.023319697
-0.27121025 0.18957418 0.018881572 -0.13968362 0.045090646 -0.06252733 0.11943776 0.16098504
0.03997395 -0.16589868 -0.13556021 0.2147563 0.10727862 -0.10104452 0.18498865 0.0028482424
-0.06827498 -0.30304775 0.111477405 0.0041506235 -0.37188792 0.21352705 0.06234842 -0.004264772
-0.05771142 -0.075394996 0.01151654 -0.1638932 -0.06818448 -0.18862459 -0.007990031 -0.11243722
-0.025995616 0.115971 -0.26161665 0.46932375 -0.1269456 -0.3532022 -0.07228371 0.19196568
-0.10972877 -0.037166968 -0.23397802 -0.036409345 0.120576166 -0.17825618 -0.10980608 0.09148693
-0.034997802 -0.19270404 -0.0614066 -0.14170541 -0.16069068 -0.15983486 -0.02882999 -0.18299207
0.11513026 0.11447895 -0.09534019 -0.10240783 0.08864804 0.0033610566 -0.32178256 0.008024952
-0.016005196 -0.058252797 -0.044215053 -0.18236414 0.10813705 0.14805952 -0.07340517 0.06759735
0.038730424 0.22651093 -0.25873867 0.024857465 -0.028369717 0.12417753 -0.044330675 0.084620185
0.17558745 0.03191085 0.14303577 0.12517779 -0.22995648 0.14136349 -0.09928111 0.021907642
-0.053768255 0.15813798 -0.08357908 -0.15376791 0.11928253 -0.015164042 -7.277087e-05 0.050448176
0.056509055 0.084029466 -0.06536045 -0.13576667 0.07821367 -0.16381599 -0.001570412 0.027883204
-0.10108603 0.009644008 -0.028469741 0.05801699 -0.11598196 0.07233387 0.06477912 0.032849405
-0.04674304 0.017754968 -0.027970333 -0.10418431 -0.039696477 -0.20923497 0.063738614 -0.05502125
00000000: 82a9 09be de5e 6fbe 797b 63be 7c8e 24be
00000010: 1feb 0ebe 14ad c8bd bee9 84be 6cd1 b0be
00000020: 63a4 43bd 6932 83be 69ad e4be 08f3 823c
00000030: cb97 44be beac 5fbe 0c0b 7cbd 8ac0 44be
00000040: 9520 1cbe df1d e5bc dda5 9fbe 1704 25be
00000050: 2b9b e13d 6787 8bbd e6ea 06be 3b19 4cbc
00000060: 56cc c8be c503 70be 8a21 41be 999c cfbd
00000070: a693 94bc 2faa 2dbe c93b a0be 6d1c 5bbe
00000080: c2ff cdbe 1513 61be ce6c 8dbe 4b97 8dbe
00000090: d8d2 9bbe 13ca b3bd 0151 ddbe bfee 8bbe
000000a0: 6f9e 45be 9633 5cbe deca ff3d d065 febd
000000b0: 5200 43be 9cbd c0bc 01b7 9bbe a32a f3bd
000000c0: 6778 fcbc 03c1 a3bd 02af 1bbe 8e8a c2be
000000d0: af69 20be af41 45be defc 46be 5cc5 17be
000000e0: 3f54 d0be 36b4 893b 6f6d 20be df95 d6bd
000000f0: 16ca adbd 9668 f8bd dcbc 59be ceaa c9be
00000100: ef6d 09be 40a7 75be 6c33 5dbe 2307 81be
00000110: 87f0 c2be ee79 ef3a b444 bebe 5d80 c0be
00000120: 3cf4 69be 41ed eb3c 1afb 9fbe b9c7 0cbe
00000130: 0865 edbd 215f 25bc efa1 83bd 27eb b2be
00000140: 6fbe c5be f096 6abe 89c4 67be 8af8 59be
00000150: 91da aabe 23f2 29bf af58 47be 4bd4 e1bd
00000160: 9bf8 22be ea13 b3be 98cb 8cbe 55e4 9bbe
00000170: 81ab 11be 2961 47be dc45 fabd 97a6 0dbd
00000180: 3497 cdbd fc6f c8be 2c21 a3be 1aa4 60bd
00000190: afff a43e 8773 40bd f2d1 db3d 38d1 53be
000001a0: 868a 943e 7eb4 8e3d b069 ac3d 25fe 6d39
000001b0: 584a 0c3e 98ed adbe 7298 553c b9d8 77be
000001c0: 95d5 1bbe 92f1 753a 9e6b 593d b9e7 8ebd
000001d0: 0649 74bd bff1 27be fa3b 11bc b374 fdbc
000001e0: 3f3e eebd 1c73 14be ba78 eebd 25e1 ccbd
000001f0: fcc9 19be 5cfd 08bd c6c2 3ebc 6d95 06be
00000200: 1002 66be 3239 e3be af0e 3a3e 84d3 c9bd
00000210: fe4c b0be a511 0b3d fa5e 48bd f308 bfbc
00000220: 12dc 8abe bc1f 423e 87ad 9a3c 3909 0fbe
00000230: f8b0 383d 540e 80bd c99b f43d 43d9 243e
00000240: b9bb 233d 58e1 29be 4cd0 0abe 13e9 5b3e
00000250: e5b4 db3d 6ef0 cebd aa6d 3d3e 94a9 3a3b
00000260: c1d3 8bbd 1329 9bbe 444e e43d f401 883b
00000270: 1868 bebe d6a6 5a3e 0f61 7f3d 80bf 8bbb
00000280: cf62 6cbd b168 9abd dfaf 3c3c 9ed3 27be
00000290: 4ea4 8bbd ce26 41be 9ee8 02bc 7c45 e6bd
000002a0: c2f4 d4bc 3482 ed3d 9ef2 85be 344b f03e
000002b0: 07fe 01be ebd6 b4be 7b09 94bd a792 443e
000002c0: 7ab9 e0bd 643c 18bd ef97 6fbe f721 15bd
000002d0: a3f0 f63d ca88 36be 03e2 e0bd 805d bb3d
000002e0: db59 0fbd 3554 45be 7d85 7bbd 391b 11be
000002f0: 198c 24be c0ab 23be df2c ecbc 4662 3bbe
00000300: 6ac9 eb3d f173 ea3d b841 c3bd 32bb d1bd
00000310: 1b8d b53d 2c45 5c3b afc0 a4be 177b 033c
00000320: 541d 83bc 7c9a 6ebd d81a 35bd aabd 3abe
00000330: f576 dd3d ea9c 173e 7355 96bd 7b70 8a3d
00000340: cba3 1e3d 7bf2 673e 6579 84be e2a1 cb3c
00000350: 9c67 e8bc ca50 fe3d 1594 35bd 594d ad3d
00000360: 32cd 333e f4b4 023d f877 123e 9b2e 003e
00000370: b679 6bbe 97c1 103e e553 cbbd a877 b33c
00000380: 1a3c 5cbd ecee 213e 822b abbd 5675 1dbe
00000390: 664a f43d 9a72 78bc 909c 98b8 bfa2 4e3d
000003a0: 0a76 673d a417 ac3d b3db 85bd 6b06 0bbe
000003b0: 7d2e a03d 61bf 27be 48d6 cdba 516b e43c
000003c0: 3106 cfbd e701 1e3c 6039 e9bc 39a3 6d3d
000003d0: f387 edbd c823 943d eaaa 843d 198d 063d
000003e0: a175 3fbd de72 913c 0a22 e5bc 955e d5bd
000003f0: c698 22bd b141 56be 6489 823d f65d 61bd

agg_predictor.rnn.bias_hh_l0 f4 [400]
-0.26078978 -0.085960664 -0.17445898 -0.14870714 -0.3136795 -0.17150833 -0.2492277 -0.22208871
-0.124265864 -0.34839568 -0.48111776 -0.13645922 -0.13982943 -0.14517054 -0.06750732 -0.17223562
-0.13856544 -0.08875131 -0.2863862 -0.09780463 0.074667506 -0.1667149 -0.2582997 -0.08708491
-0.2788896 -0.07313719 -0.2018217 -0.04581736 0.014410232 -0.051120996 -0.3518431 -0.11487651
-0.37607032 -0.036516126 -0.33878312 -0.38051978 -0.4104051 -0.06545972 -0.47906533 -0.24711113
-0.07388022 -0.17429475 0.06785144 0.03923165 -0.283487 -0.15852757 -0.15976104 -0.057021305
-0.030788524 -0.15440002 -0.17729892 -0.36657733 -0.17867222 -0.2534117 -0.21290493 -0.22141446
-0.47310263 -0.046384394 -0.2045389 -0.26387647 -0.109943084 -0.26515827 -0.13124478 -0.2867734
-0.10586807 -0.2550643 -0.18646267 -0.19247785 -0.40091375 -0.030677728 -0.36452016 -0.28470227
-0.22658104 -0.016709829 -0.30297083 -0.07821264 -0.21562845 0.08556977 -0.13934024 -0.40780106
-0.27162164 -0.20088804 -0.31225684 -0.1383413 -0.2806809 -0.560013 -0.20544197 -0.17715962
-0.19799624 -0.22968306 -0.29199958 -0.3474283 -0.07302085 -0.14300285 -0.14141072 -0.040653143
-0.17075793 -0.45212844 -0.23240277 0.00795451 0.14840338 -0.1475798 0.023191463 -0.11798891
0.32338798 0.076076165 0.18781148 -0.08038367 -0.011731817 -0.4161548 -0.05939876 -0.22916426
-0.13452137 0.0069849375 0.1377419 -0.0678131 -0.18842433 0.016152948 -0.098200426 -0.07760039
-0.20847243 0.019221889 -0.21330172 -0.058117185 -0.34049445 -0.0019218309 -0.015852313 -0.15022229
-0.23327981 -0.46047923 0.09088023 -0.13676956 -0.41379252 0.11028222 -0.05915921 0.024472
-0.2768715 0.19873162 -0.004486855 -0.1570975 0.08549539 -0.16708216 0.25627053 0.1456569
-0.027672434 -0.13136515 -0.16241743 0.27641946 0.10129732 -0.010014754 0.17265481 0.027713023
-0.14064755 -0.20242074 0.029220518 -0.06059326 -0.46342993 0.22082202 0.027598746 -0.13540801
-0.18225923 -0.015698805 0.061723754 -0.1824211 -0.14707106 -0.25678435 0.0014270378 -0.0781882
-0.022212954 0.12903434 -0.27846953 0.32982633 -0.21827424 -0.29277208 -0.08566354 0.23949988
0.0571789 -0.10144945 -0.31902108 -0.18283488 0.14784095 -0.13507085 -0.10268447 0.021284709
-0.1315273 -0.26208243 -0.17236811 -0.12786852 -0.22456148 -0.1843046 0.028612586 -0.22556905
0.06607031 0.10767341 0.0012705805 -0.14421865 0.031434957 -0.03661539 -0.21214896 0.12254883
-0.18100516 0.09205462 -0.07920983 -0.049328696 0.03298897 0.118035756 -0.023409206 -0.08606537
0.12882614 0.2594166 -0.1769285 0.03414895 -0.086766906 0.02343137 0.006665889 0.110730164
0.18617931 0.03615637 0.065609366 0.15551849 -0.28152117 0.04598919 -0.08319433 0.06712154
-0.010400663 0.09819479 -0.23108622 -0.14119251 0.16791645 -0.1366282 -0.08297715 -0.04686301
0.070628926 0.012580163 -0.08606186 -0.098493785 -0.055904716 -0.081790075 0.040116426 -0.15305173
-0.10603744 0.03778158 -0.052132953 0.0931712 -0.080209866 0.051842712 0.11413105 -0.10702997
0.08933464 0.034198496 0.06400357 -0.12488192 -0.19156177 -0.26502314 0.12042812 -0.13444826
00000000: 3d86 85be 250c b0bd 60a5 32be af46 18be
00000010: 999a a0be e19f 2fbe 8c35 7fbe 396b 63be
00000020: 1a7f febd eb60 b2be 1155 f6be f7bb 0bbe
00000030: 722f 0fbe 96a7 14be 4741 8abd 895e 30be
00000040: 19e4 0dbe 3fc3 b5bd 36a1 92be cb4d c8bd
00000050: 47eb 983d 50b7 2abe dc3f 84be 9359 b2bd
00000060: 9eca 8ebe f3c8 95bd 59aa 4ebe fcaa 3bbd
00000070: e518 6c3c 4064 51bd c724 b4be 6044 ebbd
00000080: 4a8c c0be ef91 15bd fb74 adbe 7dd3 c2be
00000090: 9e20 d2be bf0f 86bd 0d48 f5be b30a 7dbe
000000a0: 834e 97bd 537a 32be b2f5 8a3d 5eb1 203d
000000b0: 3525 91be 0d55 22be 6698 23be 2c8f 69bd
000000c0: 3738 fcbc 0a1b 1ebe d98d 35be 06b0 bbbe
000000d0: daf5 36be 2ebf 81be c003 5abe 79ba 62be
000000e0: 823a f2be 90fd 3dbd a572 51be d11a 87be
000000f0: d729 e1bd d3c2 87be 0865 06be f7d3 92be
00000100: 5cd1 d8bd ca97 82be 12f0 3ebe ea18 45be
00000110: 9144 cdbe dc4f fbbc 63a2 babe 7fc4 91be
00000120: dc04 68be 0de3 88bc fe1e 9bbe f32d a0bd
00000130: b4cd 5cbe 343f af3d 35af 0ebe 4dcb d0be
00000140: fe11 8bbe 98b5 4dbe 21e0 9fbe 57a9 0dbe
00000150: 68b5 8fbe 035d 0fbf 615f 52be 5569 35be
00000160: 87bf 4abe 0932 6bbe f880 95be 1fe2 b1be
00000170: f58b 95bd 576f 12be f9cd 10be e983 26bd
00000180: 2bdb 2ebe 617d e7be fefa 6dbe a253 023c
00000190: 0ef7 173e 291f 17be 06fc bd3c 2ba4 f1bd
000001a0: 1c93 a53e d2cd 9b3d a751 403e 32a0 a4bd
000001b0: cf36 40bc 3e12 d5be 1d4c 73bd 09aa 6abe
000001c0: f8bf 09be e7e1 e43b 360c 0d3e 98e1 8abd
000001d0: 4ff2 40be 3053 843c 4e1d c9bd f4ec 9ebd
000001e0: cc79 55be 3977 9d3c c46b 5abe 490c 6ebd
000001f0: 4a55 aebe f2e5 fbba b6dc 81bc dfd3 19be
00000200: e7e0 6ebe efc3 ebbe 6a1f ba3d 520d 0cbe
00000210: 9ddc d3be a5db e13d ee50 72bd 8179 c83c
00000220: 1ac2 8dbe 4d80 4b3e 7806 93bb 2bde 20be
00000230: 3518 af3d 9617 2bbe e435 833e 1527 153e
00000240: 4db1 e2bc 9684 06be c150 26be da86 8d3e
00000250: f874 cf3d ec14 24bc 6ccc 303e 6c06 e33c
00000260: e905 10be 6247 4fbe de5f ef3c a330 78bd
00000270: b046 edbe 2b1f 623e c416 e23c 66a8 0abe
00000280: 2aa2 3abe c89a 80bc 0cd2 7c3d 99cc 3abe
00000290: cc99 16be 3d79 83be 710b bb3a 2321 a0bd
000002a0: f1f7 b5bc 9421 043e 8f93 8ebe ffde a83e
000002b0: 4883 5fbe 39e6 95be 5e70 afbd 753f 753e
000002c0: 6c34 6a3d bbc4 cfbd bb56 a3be 1139 3bbe
000002d0: 9e63 173e 0350 0abe 3c4c d2bd 455d ae3c
000002e0: 18af 06be ab2f 86be 4481 30be f7ef 02be
000002f0: 72f3 65be 58ba 3cbe f164 ea3c 93fb 66be
00000300: df4f 873d e083 dc3d 9b89 a63a 0eae 13be
00000310: f1c1 003d 05fa 15bd 943d 59be e2fa fa3d
00000320: 6b59 39be 2287 bc3d c338 a2bd e30c 4abd
00000330: 711f 073d bbbc f13d aac4 bfbc 0a43 b0bd
00000340: 00eb 033e 41d2 843e bf2c 35be c5df 0b3d
00000350: d9b2 b1bd 25f3 bf3c 886d da3b 7fc6 e23d
00000360: caa5 3e3e b418 143d 345e 863d 3d40 1f3e
00000370: 8b23 90be 295f 3c3d ca61 aabd 0577 893d
00000380: 8b67 2abc 5a1a c93d dea1 6cbe c594 10be
00000390: 4af2 2b3e 43e8 0bbe edef a9bd 6df3 3fbd
000003a0: e6a5 903d 071d 4e3c 3341 b0bd 1cb7 c9bd
000003b0: 58fc 64bd 8e81 a7bd 1f51 243d 98b9 1cbe
000003c0: 282a d9bd dcc0 1a3d 5d89 55bd 8bd0 be3d
000003d0: 1245 a4bd 0659 543d 8abd e93d 8732 dbbd
000003e0: 14f5 b63d b913 0c3d 4e14 833d 18c2 ffbd
000003f0: c528 44be 1db1 87be 05a3 f63d ceac 09be

agg_predictor.attn.weight f4 [1, 100]
0.2343801 -0.07311014 0.16870531 0.17405719 0.28357324 0.22990018 0.18315022 0.20436212
-0.14170931 -0.18106286 -0.1887739 0.470761 -0.16232498 -0.014504112 0.28774604 -0.28429043
0.14482711 -0.123532124 -0.25684193 -0.06057268 0.17231289 -0.44126332 -0.12561822 -0.15847476
-0.1834831 -0.6997753 0.05707347 0.220205 -0.23333272 -0.3161545 0.04878864 0.18069379
-0.21152908 -0.122720204 0.19664066 0.07409752 0.09557011 0.18031703 0.1297072 0.07824277
0.315183 -0.057403844 -0.4871194 -0.2504156 0.07020199 0.1080302 -0.01459211 0.28863928
0.26398745 -0.036435127 -0.27190384 0.231425 0.26977307 0.18880817 -0.19139431 -0.03656042
-0.18709551 -0.34869552 -0.2693132 0.14404263 0.0772973 -0.123217754 -0.1851604 -0.058156565
-0.15211034 0.14726341 0.08641263 -0.27249464 0.3137687 0.32082108 0.15555097 0.33417347
0.22260672 0.3461729 0.043732833 -0.16968526 0.26520464 -0.46859315 -0.2538928 0.07382681
0.27088916 -0.09885298 0.19523132 -0.023614932 -0.35654166 0.29992837 -0.09841717 -0.19948743
-0.021832574 -0.4026439 -0.58798707 -0.649891 -0.41918853 -0.39958173 -0.043698326 0.19072825
0.18693165 -0.3767926 0.31333125 0.36107403
00000000: 5601 703e c5ba 95bd 16c1 2c3e 0c3c 323e
00000010: 8330 913e f46a 6b3e bb8b 3b3e 4e44 513e
00000020: 3f1c 11be 8b68 39be f24d 41be 9607 f13e
00000030: 8538 26be a8a2 6dbc 7353 933e 848e 91be
00000040: 8f4d 143e 69fe fcbd c980 83be 0f1b 78bd
00000050: ca72 303e 44ed e1be 10a2 00be 3547 22be
00000060: fee2 3bbe 7924 33bf dfc5 693d 6b7d 613e
00000070: c6ee 6ebe 01df a1be 99d6 473d cb07 393e
00000080: 149b 58be bb54 fbbd 2b5c 493e 71c0 973d
00000090: 43ba c33d 07a5 383e f7d1 043e bf3d a03d
000000a0: ab5f a13e 4b20 6bbd b767 f9be 7936 80be
000000b0: 10c6 8f3d f03e dd3d bf13 6fbc 87c8 933e
000000c0: 5d29 873e 003d 15bd fb36 8bbe adfa 6c3e
000000d0: b21f 8a3e ee56 413e dffc 43be 61c0 15bd
000000e0: f795 3fbe 3888 b2be 6be3 89be e97f 133e
000000f0: 0c4e 9e3d 9759 fcbd b09a 3dbe 9435 6ebd
00000100: d0c2 1bbe 38cc 163e 1bf9 b03d 6b84 8bbe
00000110: 4ba6 a03e a942 a43e c148 1f3e c918 ab3e
00000120: 04f3 633e 933d b13e 3321 333d f9c1 2dbe
00000130: e7c8 873e 71eb efbe 3dfe 81be 8332 973d
00000140: fcb1 8a3e 6e73 cabd b8ea 473e 1a74 c1bc
00000150: a18c b6be 3690 993e f18e c9bd 6f46 4cbe
00000160: 3ada b2bc 5727 cebe 5286 16bf 425f 26bf
00000170: e19f d6be fa95 ccbe 04fd 32bd 444e 433e
00000180: 036b 3f3e f6ea c0be f46c a03e b2de b83e

agg_predictor.agg_out.0.weight f4 [100, 100]
-0.3209489 0.14729336 -0.1600987 -0.02293867 0.018492907 0.05111656 0.0038286245 0.056130532
0.10641427 0.1790399 -0.11854753 0.081647664 -0.05912188 -0.050779015 -0.033526823 -0.02477789
-0.06680386 -0.004355784 0.009973153 0.073242985 -0.0001838883 0.077845216 -0.17208502 0.019469323
-0.15589224 -0.10823122 -0.33175382 -0.09688262 0.09507706 0.17912512 0.08114561 0.11913664
-0.056846157 -0.05582517 0.08855857 -0.18015283 -0.17015502 -0.20406921 -0.25603107 0.038681082
-0.008111467 -0.06180209 -0.026819972 0.060840715 -0.1076357 -0.14139923 -0.062671766 -0.1306878
0.0562267 0.011078518 0.007044658 -0.011751537 -0.26746696 0.0526775 0.11779495 -0.11040969
0.026687888 -0.07042466 0.0614205 -0.052263033 0.14986618 0.2989961 0.22922651 -0.22099827
0.12883207 0.018270142 -0.075407445 -0.012296551 -0.06757758 -0.14554277 -0.19017223 -0.08084144
0.059935745 -0.06271001 -0.12803382 0.1373418 -0.19350815 -0.17470717 -0.16544029 0.098526336
0.16132548 -0.19003353 0.1371117 0.19514489 -0.16260909 -0.30661914 0.18991104 0.016107414
0.04106526 -0.10884881 0.1910558 -0.35194653 0.4615561 -0.0055392645 0.1336999 -0.02219484
-0.13375539 -0.07197691 -0.16941804 -0.12895931 0.21726279 -0.07036423 0.21701828 0.008872047
-0.020777252 -0.009248222 0.14503871 -0.084717065 -0.124598324 -0.11190568 -0.19343062 0.06648682
0.103751995 -0.11510709 0.046131928 -0.124615796 -0.05405352 0.2031691 -0.019955691 0.062061507
-0.012106554 -0.14604434 -0.16657726 -0.18413073 -0.23542838 0.09680193 0.042051196 0.1454838
-0.2099896 -0.020656575 0.012088981 -0.02313233 -0.08925301 0.0389756 -0.08978327 -0.09513728
0.31335962 0.27153516 0.0907859 0.040130716 0.023144852 0.16644971 -0.009822118 -0.074246585
-0.20575027 0.0844612 -0.0021771768 0.07384441 0.14785847 -0.1864773 -0.10719295 0.20486295
0.12901619 -0.16202068 -0.090902746 -0.021290364 0.3088396 -0.065927684 -0.13379504 0.02295155
-0.0037247143 -0.25813183 0.008323952 0.08920618 -0.041417673 -0.12563132 0.08387359 -0.017546814
-0.18703543 0.047439825 0.29764107 0.16231701 -0.00966192 0.040407754 0.1270459 -0.035298422
-0.091472164 -0.09558418 0.15992182 0.16502005 -0.03509345 -0.00824057 -0.16080284 -0.028557818
0.15028456 -0.041882113 0.24412756 -0.17593914 -0.016087338 0.045765985 0.037160136 0.1271479
-0.32715425 -0.12447201 0.13014954 -0.008146004 -0.044880755 -0.059747465 0.036247186 0.17369522
-0.05273227 -0.067997396 -0.018990364 0.0110800415 -0.056443807 -0.01784698 -0.1449844 -0.24024826
0.08876292 -0.051036153 -0.27941647 0.1551021 -0.022060907 0.0851148 -0.0704977 0.16691759
0.08442755 -0.026679246 0.033867028 0.040131364 0.07665424 0.025703982 -0.12232166 0.12797286
-0.19961202 -0.23959146 -0.11823981 -0.15534385 0.027582806 -0.06857577 0.09281195 -0.11718273
0.016639536 0.03573968 -0.21012707 0.24739459 0.14412634 -0.20635307 0.06392727 0.15939482
-0.14025834 -0.058995027 -0.13286345 0.10594596 -0.012038365 0.14201804 0.10513659 -0.18871014
-0.04425848 0.19736238 0.153354 -0.13339014 0.05276454 0.11770236 0.11947186 0.10350606
00000000: 6a53 a4be 12d4 163e eaf0 23be e1e9 bbbc
00000010: 707e 973c 995f 513d a9e9 7a3b 21e9 653d
00000020: baef d93d 3c56 373e 0cc9 f2bd e436 a73d
00000030: c929 72bd a8fd 4fbd 6c53 09bd 00fb cabc
00000040: 76d0 88bd f7ba 8ebb 6f66 233c 6b00 963d
00000050: 24d2 40b9 506d 9f3d 0e37 30be 217e 9f3c
00000060: 37a2 1fbe 54a8 ddbd a3db a9be 656a c6bd
00000070: c3b7 c23d 936c 373e ab2f a63d e9fd f33d
00000080: 84d7 68bd efa8 64bd 325e b53d fc79 38be
00000090: 1e3d 2ebe 85f7 50be 8116 83be 0e70 1e3d
000000a0: f5e5 04bc 3024 7dbd 8fb5 dbbc 1d34 793d
000000b0: 1b70 dcbd f6ca 10be 0e5a 80bd 06d3 05be
000000c0: f84d 663d ac82 353c e0d6 e63b 8589 40bc
000000d0: 6ef1 88be 5dc4 573d 7b3e f13d 7a1e e2bd
000000e0: 8fa0 da3c ce3a 90bd 1094 7b3d c311 56bd
000000f0: 8576 193e 0416 993e 5bba 6a3e 5f4d 62be
00000100: 8eec 033e 44ab 953c 386f 9abd 7977 49bc
00000110: 1d66 8abd 2a09 15be 82bc 42be 3290 a5bd
00000120: 2f7f 753d 1b6e 80bd 4c1b 03be 54a3 0c3e
00000130: 0027 46be 70e6 32be 2e69 29be 2dc8 c93d
00000140: 8232 253e 2698 42be 0267 0c3e 10d4 473e
00000150: ff82 26be 2ffd 9cbe 0a78 423e b2f3 833c
00000160: 0c34 283d 20ec debd 22a4 433e 5632 b4be
00000170: 1551 ec3e b882 b5bb a0e8 083e f4d1 b5bc
00000180: 2cf7 08be a168 93bd ec7b 2dbe e90d 04be
00000190: 237a 5e3e 1f1b 90bd 0a3a 5e3e 105c 113c
000001a0: 0e35 aabc db85 17bc 0785 143e 2480 adbd
000001b0: 682d ffbd ce2e e5bd ad12 46be 3e2a 883d
000001c0: ed7b d43d 44bd ebbd d5f4 3c3d 9136 ffbd
000001d0: 3967 5dbd 900b 503e 1e7a a3bc 3534 7e3d
000001e0: 915a 46bc a68c 15be 3b93 2abe c48c 3cbe
000001f0: 2314 71be 1740 c63d e03d 2c3d b5f9 143e
00000200: 8407 57be fa37 a9bc dd10 463c 0380 bdbc
00000210: 48ca b6bd e1a4 1f3d 4be0 b7bd 56d7 c2bd
00000220: ac70 a03e a806 8b3e f5ed b93d 1b60 243d
00000230: 469a bd3c cb71 2a3e f3ec 20bc 980e 98bd
00000240: 33b0 52be fef9 ac3d f7ae 0ebb bd3b 973d
00000250: 3668 173e e8f3 3ebe fa87 dbbd 98c7 513e
00000260: d21c 043e c0e8 25be 382b babd 2169 aebc
00000270: 3920 9e3e 1805 87bd 9101 09be e404 bc3c
00000280: 561a 74bb db29 84be 2f61 083c bbb1 b63d
00000290: 94a5 29bd 7fa5 00be ebc5 ab3d 56be 8fbc
000002a0: 3786 3fbe 4350 423d 6964 983e 6e36 263e
000002b0: 084d 1ebc 9a82 253d 5218 023e 1495 10bd
000002c0: c255 bbbd a3c1 c3bd 8cc2 233e 04fb 283e
000002d0: 26be 0fbd 7503 07bc 80a9 24be 16f2 e9bc
000002e0: 32e4 193e 948c 2bbd 93fc 793e 6429 34be
000002f0: 98c9 83bc 1d75 3b3d 3a35 183d 0f33 023e
00000300: c380 a7be 2eeb febd ec45 053e d176 05bc
00000310: e2d4 37bd c2b9 74bd ee77 143d 29dd 313e
00000320: cbfd 57bd 3842 8bbd ae91 9bbc 1089 353c
00000330: 9f31 67bd d433 92bc ca76 14be a403 76be
00000340: 55c9 b53d 490b 51bd ad0f 8fbe 16d3 1e3e
00000350: 13b9 b4bc ab50 ae3d 1961 90bd 72ec 2a3e
00000360: 5ae8 ac3d 6f8e dabc 27b8 0a3d c960 243d
00000370: e6fc 9c3d 2891 d23c c783 fabd 510b 033e
00000380: 1867 4cbe 7757 75be b727 f2bd 7512 1fbe
00000390: 56f5 e13c 7471 8cbd 3114 be3d 80fd efbd
000003a0: a34f 883c c563 123d 8d2b 57be 0255 7d3e
000003b0: db95 133e 384e 53be 4dec 823d 6538 233e
000003c0: e29f 0fbe c5a4 71bd 5b0d 08be 32fa d83d
000003d0: 903c 45bc 2d6d 113e da51 d73d 3b3d 41be
000003e0: 6148 35bd 5d19 4a3e d508 1d3e 6d97 08be
000003f0: a11f 583d ef0d f13d aaad f43d fcfa d33d

agg_predictor.agg_out.0.bias f4 [100]
0.107411616 -0.18419033 0.22173756 0.20170018 0.05924369 -0.05917388 0.008252488 0.12178224
-0.11870161 -0.052399278 0.2250227 -0.22757743 0.12130718 0.02871886 -0.22400631 -0.027888838
0.108292215 0.17377444 -0.19487089 0.20469855 0.08209148 -0.14248317 -0.18269484 0.17291641
0.11356047 -0.14751098 -0.07857909 -0.053064503 0.23945989 0.04661105 0.08457668 -0.026865061
0.13143761 0.10885697 -0.11436297 -0.21888536 -0.021353254 0.20764865 -0.22540274 0.0076425085
-0.07779955 0.06213243 0.21812738 -0.16540259 0.18716857 0.050355118 0.124882616 -0.0217069
0.12737064 0.07211317 -0.17367877 0.12460611 -0.20335281 -0.20022081 -0.11080599 -0.14851186
-0.06850438 -0.19287224 0.08346032 0.09165306 0.016878726 0.1573883 -0.20598115 -0.049261868
-0.21718627 -0.14265525 -0.038285367 0.13579498 -0.09857672 -0.10047275 0.24999379 0.07169962
0.14586689 -0.11123196 0.1873213 0.15389614 -0.08037619 0.025794098 0.20037875 -0.14273603
-0.13447098 -0.05064043 -0.097220026 -0.019876122 0.15390787 -0.021680484 0.106356576 -0.18811508
0.17892377 -0.24065866 0.14583711 -0.18479514 0.010546921 0.1430941 -0.040231995 0.055704217
0.23413883 0.058101308 0.11135359 0.05242899
00000000: 9ffa db3d 649c 3cbe 2c0f 633e 7e8a 4e3e
00000010: 83a9 723d 4f60 72bd 7235 073c f868 f93d
00000020: d419 f3bd a0a0 56bd 5a6c 663e 0f0a 69be
00000030: e66f f83d d143 eb3c e961 65be 2277 e4bc
00000040: 4fc8 dd3d edf1 313e 3c8c 47be 7f9c 513e
00000050: 941f a83d 1ce7 11be 5b14 3bbe 0011 313e
00000060: 6492 e83d 1e0d 17be 13ee a0bd 2a5a 59bd
00000070: f934 753e 3aeb 3e3d 8a36 ad3d 1e14 dcbc
00000080: 9597 063e 67f0 de3d 2237 eabd 7c23 60be
00000090: 05ed aebc d9a1 543e facf 66be 026e fa3b
000000a0: 5f55 9fbd 937e 7e3d c95c 5f3e 4c5f 29be
000000b0: 1ea9 3f3e 2b41 4e3d 75c2 ff3d abd2 b1bc
000000c0: 736d 023e 12b0 933d d9d8 31be 7d31 ff3d
000000d0: b83b 50be af06 4dbe 40ee e2bd 7e13 18be
000000e0: 064c 8cbd 4d80 45be 3fed aa3d 99b4 bb3d
000000f0: 4145 8a3c 662a 213e b9ec 52be d0c6 49bd
00000100: 1466 5ebe 3814 12be 1ed1 1cbd d70d 0b3e
00000110: 97e2 c9bd a8c4 cdbd 5ffe 7f3e 40d7 923d
00000120: 215e 153e 95cd e3bd 28d1 3f3e f396 1d3e
00000130: 469c a4bd 254e d33c 1630 4d3e 6529 12be
00000140: c3b2 09be 576c 4fbd 4b1b c7bd 40d3 a2bc
00000150: 069a 1d3e 459b b1bc 7ad1 d93d 3da1 40be
00000160: cb37 373e 396f 76be 5356 153e f03a 3dbe
00000170: fecc 2c3c 4287 123e 4eca 24bd 1b2a 643d
00000180: 17c2 6f3e a3fb 6d3d 5a0d e43d c8bf 563d

agg_predictor.agg_out.2.weight f4 [6, 100]
0.036899585 -0.13116777 0.16161731 0.07761286 0.039342456 -0.09331245 0.014189215 0.11112461
-0.07462644 -0.115342766 0.20051438 -0.12794746 0.15462022 0.0764522 -0.19110335 -0.034667797
0.27287516 0.07935588 -0.05043258 0.15601222 0.025573086 0.007525618 -0.17213319 0.16316506
-0.0005441791 -0.1392656 -0.13061377 -0.058936156 0.15783945 0.016523816 0.029083963 -0.039138973
0.07186249 0.13344173 -0.13634786 -0.09107746 0.048984785 0.09078691 -0.13467383 -0.007667758
-0.019144177 0.08059791 0.15514843 -0.13837118 0.13878094 0.034230664 0.11405551 -0.028565764
0.13805558 0.093272895 -0.07780895 0.09063452 -0.14284255 -0.13782169 -0.106205106 -0.03162789
-0.0014093423 -0.1254891 0.014428741 0.076770954 0.054036956 0.14676 -0.100195594 -0.03803907
-0.044982597 -0.14130314 0.00086643465 0.116120584 -0.03291166 -0.1647983 0.17442526 0.085658975
0.16589472 -0.08215337 0.119318314 0.11112159 -0.032201294 -0.032532107 0.21419767 -0.10538008
-0.04590242 -0.21898389 -0.032280803 -0.006527801 0.1797414 -0.09275655 0.10929364 -0.17299947
0.108874306 -0.06944234 0.066123575 -0.1660986 0.03138632 0.06501961 -0.0014655424 0.021349516
0.18052614 0.07461293 0.12897006 0.06617053 -0.065878764 -0.019583413 -0.08957823 -0.023738824
-0.08396995 -0.28109497 -0.00732991 0.023234194 -0.03994432 0.039079122 0.077229865 0.15230584
-0.00016768777 0.13677697 -0.053417783 0.021141382 -0.1691203 -0.1395271 0.01732755 -0.026480695
-0.14864925 0.043230433 -0.035783313 -0.16030173 -0.031185135 0.08393346 -0.05978576 -0.055963237
0.10372183 0.12729841 -0.0548487 0.046004668 0.11086918 0.08711695 0.045182295 0.100810245
0.0708816 -0.098226696 0.13460636 0.025808023 0.15141599 -0.08037809 0.09983012 0.12722409
-0.06118162 0.06728365 -0.05173322 0.00080271275 0.099760115 0.047593553 -0.058789533 0.007855518
0.07105339 -0.08950319 -0.02148628 0.09339617 0.063787736 -0.024307199 -0.061383244 -0.113233574
0.04279885 0.0058409865 0.07804854 0.002499091 -0.110057876 0.059141893 -0.044146284 0.072559066
0.03620046 0.13082032 0.05669152 -0.16409881 -0.008371444 0.1696522 -0.010672195 0.11385332
-0.046739433 -0.05471225 -0.19892123 -0.07863737 0.089286484 0.16145487 0.11653134 0.0056455936
-0.13872801 -0.0153092155 -0.0566938 0.02807116 -0.058225054 -0.015472925 -0.07958222 0.20975186
0.013472259 0.04318407 0.03126853 -0.031070443 -0.093828395 -0.02073739 -0.06710463 0.08061254
-0.09912572 0.06985427 0.0830029 0.107527725 -0.0017215875 -0.018978152 0.04673741 0.11563436
0.06532654 0.11497901 -0.03346624 -0.11549582 -0.12271175 -0.07125066 -0.12450958 0.11856581
-0.11983324 -0.05179878 -0.084460765 0.1358113 0.091726 0.013599489 -0.06775101 -0.08540618
0.014578531 0.16220735 0.09690683 -0.06513215 0.10483841 0.008646102 0.1570588 -0.014291511
0.11868982 -0.10710811 0.14864181 -0.083916165 0.046589784 0.010322317 -0.06476376 -0.020711215
-0.1180698 0.06645659 0.06850433 0.047419973 0.07755057 0.014153779 -0.13801016 0.073908366
0.01723522 0.0670981 -0.077524744 0.026782721 0.08959956 -0.027964974 -0.08076275 0.12191205
00000000: 0524 173d d850 06be 027f 253e 7ef3 9e3d
00000010: 8e25 213d 991a bfbd e279 683c 4d95 e33d
00000020: bfd5 98bd d438 ecbd a453 4d3e a904 03be
00000030: c354 1e3e f992 9c3d 99b0 43be d2ff 0dbd
00000040: 4bb6 8b3e 5685 a23d 6592 4ebd abc1 1f3e
00000050: a67e d13c 7699 f63b af43 30be be14 273e
00000060: 3ea7 0eba a49b 0ebe 9ebf 05be 0a67 71bd
00000070: aaa0 213e f45c 873c 7e41 ee3c 3050 20bd
00000080: a42c 933d f3a4 083e c69e 0bbe d286 babd
00000090: 45a4 483d 7dee b93d f0e7 09be d141 fbbb
000000a0: 40d4 9cbc 8410 a53d 3bdf 1e3e 2db1 0dbe
000000b0: 971c 0e3e 7435 0c3d ef95 e93d c002 eabc
000000c0: 715e 0d3e dc05 bf3d 4c5a 9fbd 979e b93d
000000d0: 5145 12be 2121 0dbe 1082 d9bd 3f8c 01bd
000000e0: aeb9 b8ba 3780 00be 8766 6c3c 173a 9d3d
000000f0: db55 5d3d 4148 163e 5933 cdbd dbce 1bbd
00000100: ac3f 38bd c5b1 10be 7221 633a a1d0 ed3d
00000110: 60ce 06bd e3c0 28be 899c 323e f96d af3d
00000120: 4ee0 293e 0740 a8bd 295d f43d b793 e33d
00000130: 81e5 03bd 6340 05bd a256 5b3e 83d1 d7bd
00000140: 2d04 3cbd 503d 60be e038 04bd 2ae7 d5bb
00000150: 210e 383e 25f7 bdbd 58d5 df3d c626 31be
00000160: 7ef9 de3d c937 8ebd cc6b 873d c015 2abe
00000170: f18e 003d 0029 853d 7117 c0ba 2ee5 ae3c
00000180: d8db 383e aace 983d ba10 043e 6a84 873d
00000190: 72eb 86bd 656d a0bc cb74 b7bd ec77 c2bc
000001a0: 70f8 abbd aeeb 8fbe be2f f0bb a355 be3c
000001b0: a89c 23bd 6e11 203d b12a 9e3d 10f6 1b3e
000001c0: 58d5 2fb9 430f 0c3e 9bcc 5abd b130 ad3c
000001d0: df2d 2dbe 31e0 0ebe 82f2 8d3c 0bee d8bc
000001e0: 8237 18be 6512 313d 8691 12bd 2326 24be
000001f0: f877 ffbc 4ee5 ab3d eae1 74bd b539 65bd
00000200: 1c6c d43d 845a 023e 08a9 60bd 646f 3c3d
00000210: 610f e33d 5f6a b23d 1211 393d 9a75 ce3d
00000220: 5f2a 913d 142b c9bd 40d6 093e 596b d33c
00000230: cb0c 1b3e 459d a4bd bc73 cc3d 0847 023e
00000240: 9499 7abd 03cc 893d 37e6 53bd 246d 523a
00000250: 084f cc3d 75f1 423d 4bcd 70bd 6eb4 003c
00000260: 7184 913d 734d b7bd ff03 b0bc 7e46 bf3d
00000270: 25a3 823d e41f c7bc ff6c 7bbd 01e7 e7bd
00000280: d94d 2f3d bf65 bf3b ead7 9f3d cac7 233b
00000290: 0666 e1bd c53e 723d bcd2 34bd d999 943d
000002a0: ef46 143d c3f5 053e 5e35 683d 8509 28be
000002b0: 6228 09bc 4eb9 2d3e 6eda 2ebc ee2b e93d
000002c0: d971 3fbd f419 60bd 02b2 4bbe a10c a1bd
000002d0: d5db b63d 6d54 253e fca7 ee3d acfe b83b
000002e0: b70e 0ebe 81d3 7abc c237 68bd 7df5 e53c
000002f0: 657d 6ebd 2782 7dbc 01fc a2bd 31c9 563e
00000300: c0ba 5c3c c8e1 303d 6e13 003d 7187 febc
00000310: 1a29 c0bd 75e1 a9bc 276e 89bd 3018 a53d
00000320: 6d02 cbbd c10f 8f3d 6dfd a93d 7f37 dc3d
00000330: e4a6 e1ba 1278 9bbc ba6f 3f3d b5d1 ec3d
00000340: ecc9 853d 1d7a eb3d e513 09bd 1389 ecbd
00000350: 4c50 fbbd deeb 91bd e1fe febd a2d2 f23d
00000360: 216b f5bd f52a 54bd c4f9 acbd 1e12 0b3e
00000370: d7da bb3d 64d0 5e3c 0bc1 8abd 6fe9 aebd
00000380: cada 6e3c af19 263e 1777 c63d 0164 85bd
00000390: 85b5 d63d 61a8 0d3c 06d4 203e f126 6abc
000003a0: a613 f33d 7f5b dbbd 8f35 183e 3ddc abbd
000003b0: eed4 3e3d ef1e 293c dda2 84bd 91aa a9bc
000003c0: 94ce f1bd 651a 883d 004c 8c3d 723b 423d
000003d0: d5d2 9e3d 40e5 673c 8952 0dbe 455d 973d
000003e0: e030 8d3c bb6a 893d 4bc5 9ebd 7067 db3c
000003f0: f97f b73d cd16 e5bc f166 a5bd 06ad f93d

agg_predictor.agg_out.2.bias f4 [6]
0.16963203 -0.031769473 0.0034998055 -0.062049028 -0.27728716 -0.20372252
00000000: 05b4 2d3e b520 02bd fe5c 653b 1f27 7ebd
00000010: 95f8 8dbe a39c 50be
