saved_models/agg_predictor.pth (torch_old, 208543 bytes, 13 tensors)

rnn.weight_ih_l0 f4 [200, 50]
-0.26050153 -0.07184507 -0.16503195 -0.029571649 -0.18688096 0.11842682 -0.15999544 0.16360177
-0.30364272 -0.2265904 0.44729474 0.39703432 0.114717126 -0.057350356 -0.26083094 0.03259032
-0.10091244 0.42564076 0.22688653 0.15870138 -0.008404066 0.1961268 -0.289919 0.35160255
-0.09885814 0.16077472 0.07733747 -0.068558134 -0.28788492 -0.2483432 -0.072736524 -0.39153215
-0.085437275 0.14470519 0.16581099 0.21846037 -0.20340332 0.02928108 0.26304632 0.14642699
0.39409125 0.38106745 0.098797426 -0.21677697 0.0063726534 -0.34969363 -0.21095768 -0.514391
0.32794356 0.28289777 -0.28499565 0.047142457 -0.29084462 0.06303497 -0.05964028 -0.13764547
0.37323675 0.26080364 0.11109103 -0.13012911 0.10042082 0.13216804 0.025439506 -0.13515684
-0.18314852 0.29659647 -0.33421034 0.045356255 0.33179557 0.24878582 0.055123996 -0.06940473
-0.3776069 -0.18695483 -0.60249734 0.108606614 0.04825239 0.36786342 -0.046905525 0.4043354
-0.24050486 -0.6161495 -0.17522699 0.04593947 -0.050188478 -0.07586927 0.088364765 -0.28233436
0.42245296 0.26199028 0.22614437 0.24514636 -0.51818305 -0.27226368 0.01471955 -0.25043643
-0.037117697 -0.18958642 0.29262215 0.21766019 -0.49277782 0.028429115 -0.34589988 -0.26324978
-0.14239055 -0.2613121 -0.09873612 -0.05981452 0.024913924 0.3913251 0.2975312 0.28965336
-0.0054804124 -0.08528134 -0.18661377 -0.24124883 0.1275445 -0.07783406 -0.1173655 0.44527438
-0.38195994 -0.21759772 -0.28884366 -0.07574422 -0.053238835 0.3687175 0.15117808 -0.039099295
0.06717402 0.33251873 -0.31822422 -0.29168668 0.09151306 0.3188733 -0.118569866 0.44598675
-0.008037488 -0.038122673 0.07921226 -0.007960472 0.49284282 0.004585774 -0.13567549 -0.33028117
0.044819314 0.32816938 0.3124955 -0.077596694 0.07043275 0.22336912 -0.30209315 -0.13086581
-1.0592366 0.1170261 -0.5243494 0.6638286 0.038204886 0.04423689 -0.14426549 0.40400144
0.7031654 0.42206296 -0.15164924 -0.10912856 -0.12740397 -0.022224734 -0.48903763 0.7043663
0.030668765 0.40212312 -0.71749014 0.18079615 -0.42421538 0.4012358 -0.10166552 0.027050992
0.2009651 0.20246643 0.13622116 0.2269081 -0.19560982 -0.027119212 0.29190436 0.3525886
0.328455 0.5023493 -0.015488852 -0.20132965 0.03150028 -0.28869787 0.29096332 0.23150924
-0.63126904 -0.19133665 0.4796714 -0.13877168 0.23268594 -0.07877387 0.32219777 0.121381484
0.10620681 -0.025893783 -0.209568 0.10535397 0.097727954 -0.27719715 -0.26802507 -0.025500631
-0.44996426 0.45994323 0.14101975 0.21265396 0.06690066 0.12964244 -0.16922683 0.051439837
0.4235927 -0.11369895 0.1512568 -0.29791665 -0.15506127 -0.26123962 -0.44722375 0.37077093
0.058469694 -0.16482872 -0.3231794 -0.09407049 -0.027583977 -0.08852942 0.11630517 -0.39189863
0.033078354 -0.16657698 0.13396506 -0.044957057 -0.23509142 -0.10962521 -0.4399918 0.10815657
0.0008707405 0.38368213 -0.22986796 0.11081989 0.2753866 -0.21129167 -0.168917 0.26874763
-0.28283396 -0.15074559 -0.547908 0.4441708 0.10713745 -0.23247357 0.3695078 -0.47668758
00000000: 7560 85be 8223 93bd 23fe 28be 3e40 f2bc
00000010: b95d 3fbe c389 f23d d8d5 23be 3987 273e
00000020: 0f77 9bbe 5007 68be d103 e53e 1548 cb3e
00000030: d0f0 ea3d 35e8 6abd a28b 85be 6d7d 053d
00000040: 2eab cebd 96ed d93e f154 683e 9d82 223e
00000050: 35b1 09bc 77d5 483e 4370 94be 4005 b43e
00000060: 2376 cabd 21a2 243e 1c63 9e3d 3568 8cbd
00000070: a765 93be ae4d 7ebe e3f6 94bd e776 c8be
00000080: bdf9 aebd 992d 143e 5bca 293e 13b4 5f3e
00000090: f648 50be e0de ef3c 02ae 863e f5f0 153e
000000a0: 54c6 c93e 461b c33e 4e56 ca3d c8fa 5dbe
000000b0: b1d1 d03b 0b0b b3be 4a05 58be 21af 03bf
000000c0: 38e8 a73e fad7 903e f3ea 91be 7318 413d
000000d0: 96e9 94be 7a18 813d 5e49 74bd eff2 0cbe
000000e0: e318 bf3e 0e88 853e b283 e33d 9140 05be
000000f0: 6ea9 cd3d 0f57 073e 8366 d03c 8e66 0abe
00000100: 498b 3bbe 7edb 973e 9e1d abbe 7bc7 393d
00000110: 1ce1 a93e b6c1 7e3e b3c9 613d 1124 8ebd
00000120: b155 c1be 1671 3fbe 443d 1abf 256d de3d
00000130: 4ca4 453d 9858 bc3e 0220 40bd 0d05 cf3e
00000140: e846 76be f9bb 1dbf b46e 33be 072b 3c3d
00000150: 6f92 4dbd 5961 9bbd 96f8 b43d 218e 90be
00000160: c14b d83e 9723 863e 6492 673e a607 7b3e
00000170: a5a7 04bf 2566 8bbe 442a 713c 3439 80be
00000180: ba08 18bd f122 42be 92d2 953e 50e2 5e3e
00000190: 604d fcbe 2de4 e83c ca19 b1be adc8 86be
000001a0: d4ce 11be b3ca 85be 2a36 cabd 1200 75bd
000001b0: 4918 cc3c c35b c83e 0256 983e 724d 943e
000001c0: 0895 b3bb fca7 aebd ae17 3fbe ef09 77be
000001d0: 079b 023e 7767 9fbd 535d f0bd 01fb e33e
000001e0: 4190 c3be f0d1 5ebe 51e3 93be c91f 9bbd
000001f0: f710 5abd 8ac8 bc3e 6dce 1a3e 9526 20bd
00000200: 8892 893d e53f aa3e 49ee a2be f557 95be
00000210: 336b bb3d 5c43 a33e c2d4 f2bd 6058 e43e
00000220: abaf 03bc 8526 1cbd 0a3a a23d a46c 02bc
00000230: e555 fc3e 4344 963b 84ee 0abe 9d1a a9be
00000240: 7594 373d d105 a83e 69ff 9f3e 04eb 9ebd
00000250: 0c3f 903d e0ba 643e f4ab 9abe b001 06be
00000260: 1195 87bf 61ab ef3d c33b 06bf acf0 293f
00000270: ba7c 1c3d be31 353d 55ba 13be 47d9 ce3e
00000280: a602 343f a318 d83e f049 1bbe cb7e dfbd
00000290: 3076 02be a510 b6bc 2463 fabe 5a51 343f
000002a0: 103d fb3c 15e3 cd3e 6fad 37bf a022 393e
000002b0: c232 d9be c76e cd3e 0336 d0bd 0b9a dd3c
000002c0: ccc9 4d3e 5c53 4f3e 8f7d 0b3e 995a 683e
000002d0: f14d 48be 1c29 debc 7d74 953e 7e86 b43e
000002e0: 412b a83e f799 003f f4c4 7dbc 5c29 4ebe
000002f0: 7006 013d 35d0 93be 25f9 943e c210 6d3e
00000300: d99a 21bf c1ed 43be 7d97 f53e 2a1a 0ebe
00000310: 3945 6e3e 3254 a1bd 1bf7 a43e db96 f83d
00000320: f582 d93d 331f d4bc fe98 56be d2c3 d73d
00000330: 9825 c83d c9ec 8dbe 953a 89be b3e6 d0bc
00000340: b761 e6be ae7d eb3e 7b67 103e f6c1 593e
00000350: 3703 893d fdc0 043e cc49 2dbe 94b2 523d
00000360: 24e1 d83e ffda e8bd 10e3 1a3e 8888 98be
00000370: 62c8 1ebe 33c1 85be 83fa e4be b0d5 bd3e
00000380: eb7d 6f3d dcc8 28be c577 a5be 07a8 c0bd
00000390: cbf7 e1bc ea4e b5bd 6831 ee3d f0a6 c8be
000003a0: 2b7d 073d 2893 2abe 232e 093e e424 38bd
000003b0: cebb 70be 2f83 e0bd 9b46 e1be 3181 dd3d
000003c0: 6842 643a fc71 c43e 8262 6bbe 8af5 e23d
000003d0: 79ff 8c3e d85c 58be 94f8 2cbe 4a99 893e
000003e0: 9dcf 90be 0d5d 1abe b343 0cbf 5b6a e33e
000003f0: e16a db3d 8d0d 6ebe 2030 bd3e 6510 f4be

rnn.weight_hh_l0 f4 [200, 50]
0.11745129 0.15509363 0.031509142 -0.0064032814 -0.03187182 0.32998797 -0.0063921423 -0.12921661
-0.039061517 -0.1282783 0.3163417 -0.16562976 -0.034039747 -0.1336513 -0.3438353 0.037445948
0.037785683 0.1266511 0.16037542 0.11405966 0.119783215 -0.05708782 0.12946266 0.06366295
0.06411377 0.0017052067 -0.034430288 -0.10006637 0.10064139 -0.36983508 0.00010370067 0.17413935
-0.50590557 -0.10272524 -0.07601505 0.21281381 0.008889817 0.15390623 -0.031385124 -0.019157186
-0.18323115 -0.2755831 -0.15592365 0.10430736 -0.012755635 -0.18785667 0.001245681 0.13567099
0.19574073 0.12682596 0.08180364 0.10048878 -0.042175353 0.18417536 -0.13839212 -0.40992543
-0.19163056 -0.16704232 0.0975782 -0.024335511 0.20091984 0.06764441 0.021554047 0.08708641
0.5514512 -0.26440468 0.2698445 0.022125555 0.1000734 0.16903585 -0.02873181 0.17382474
0.17666288 -0.06472762 0.08527075 -0.5127291 0.3725404 -0.39794904 -0.52348226 0.20482346
0.13280381 -0.014505602 -0.48980108 0.422264 -0.18027852 -0.5935376 -0.3257014 0.29239202
0.29046816 -0.32152015 -0.27256504 0.25015783 0.20149216 -0.019621799 -0.3177695 0.38235837
-0.3319113 -0.1001906 -0.16857311 0.24802972 0.11996026 -0.06440677 0.2124675 -0.1746611
-0.17009197 -0.045300573 0.14647177 -0.030036073 0.2653629 -0.024600286 0.17472613 -0.025018424
0.013989409 0.10852685 0.0372984 -0.130647 -0.1208153 -0.058388982 -0.36276692 0.14462759
0.006004022 -0.037352007 0.21585575 -0.21814598 0.18835302 -0.1955268 -0.0007343303 -0.34861505
-0.12653781 -0.14625266 0.05789541 -0.29147342 -0.3269432 0.07377461 -0.14700162 -0.13005261
-0.27623898 0.036839005 -0.020401705 0.008214398 0.27719852 0.32629135 -0.05988131 -0.17571543
-0.18658249 -0.03073948 -0.04969586 0.016245913 -0.03683739 0.2328959 0.21820317 0.04392192
-0.076581046 -0.17900638 -0.3241157 0.086242355 -0.14007336 -0.1439881 0.00090145576 -0.034270454
0.35274518 -0.0005173038 -0.015929587 0.06366146 0.0111807035 -0.53542596 0.16038334 0.18325125
0.554826 0.23663606 -0.1974377 0.35475343 0.36658224 0.5424611 0.2531829 -0.15832812
0.25310403 -0.49058908 -0.4246211 -0.42611036 -0.048177343 -0.32591143 -0.23750572 0.2617154
-0.49873343 0.03556084 -0.36298433 0.06718897 -0.17063436 0.07944199 0.16093075 -0.30509457
-0.4358968 -0.18670483 -0.29046926 -0.21315342 -0.3884897 0.55754215 -0.41774786 0.17289183
-0.06330119 0.37348497 -0.2258713 -0.05427982 0.31245828 0.079905406 -0.041663926 -0.06248622
-0.2729891 -0.37507832 0.15619653 0.14119995 0.041225947 -0.0666965 -0.61718804 0.39233106
-0.519366 -0.029035008 -0.17440139 0.13128474 0.08707599 0.110214226 -0.13929501 0.43967345
-0.04918776 0.4264818 -0.13914597 -0.0063694385 0.31835 -0.46064824 0.0445481 0.11404495
0.24965046 -0.041002367 0.042663325 0.47813776 0.23462322 -0.03063678 0.014445974 0.33270693
-0.055125207 0.08068747 -0.17744696 0.040527403 0.05666062 -0.4681965 0.21653923 0.38164398
0.20876259 -0.14161777 0.2857641 0.22563161 0.3506058 0.25468156 -0.3387207 0.0012798067
00000000: 4d8a f03d ddd0 1e3e bb0f 013d 9ed2 d1bb
00000010: 078c 02bd 2ff4 a83e 2d75 d1bb 5c51 04be
00000020: f8fe 1fbd 635b 03be 8af7 a13e d99a 29be
00000030: 436d 0bbd e3db 08be 2e0b b0be ec60 193d
00000040: 29c5 1a3d d3b0 013e 7439 243e 1c98 e93d
00000050: e750 f53d ebd4 69bd dc91 043e b961 823d
00000060: 154e 833d 3e81 df3a c606 0dbd 99ef ccbd
00000070: 131d ce3d 065b bdbe e079 d938 9651 323e
00000080: 0783 01bf 9c61 d2bd c7ad 9bbd ddeb 593e
00000090: 98a6 113c 9899 1d3e b08d 00bd 88ef 9cbc
000000a0: f2a0 3bbe 3a19 8dbe 73aa 1fbe 199f d53d
000000b0: 03fd 50bc 805d 40be 1e46 a33a 56ed 0a3e
000000c0: 4270 483e aade 013e ab88 a73d 10cd cd3d
000000d0: 10c0 2cbd 7798 3c3e aab6 0dbe bfe1 d1be
000000e0: cd3a 44be 240d 2bbe 14d7 c73d 445b c7bc
000000f0: eebd 4d3e 2789 8a3d 1d92 b03c 5c5a b23d
00000100: e82b 0d3f 0d60 87be 0f29 8a3e a740 b53c
00000110: 48f3 cc3d bc17 2d3e f95e ebbc 1dff 313e
00000120: 1de7 343e ea8f 84bd 6ea2 ae3d 3742 03bf
00000130: 9ebd be3e fabf cbbe ef02 06bf 3ebd 513e
00000140: b9fd 073e e8a8 6dbc 35c7 fabe fd32 d83e
00000150: ef9a 38be 15f2 17bf 55c2 a6be 68b4 953e
00000160: 3eb8 943e 4a9e a4be a58d 8bbe b014 803e
00000170: f653 4e3e e5bd a0bc afb2 a2be 7ac4 c33e
00000180: 47f0 a9be bb30 cdbd 6e9e 2cbe 81fb 7d3e
00000190: baad f53d b2e7 83bd 1591 593e 5cda 32be
000001a0: 972c 2ebe 188d 39bd b2fc 153e 360e f6bc
000001b0: a5dd 873e 8a86 c9bc 68eb 323e 70f3 ccbc
000001c0: d633 653c 5343 de3d 35c6 183d 54c8 05be
000001d0: 036e f7bd 4929 6fbd 96bc b9be 4119 143e
000001e0: 63bd c43b 6bfe 18bd 4a09 5d3e a961 5fbe
000001f0: 9ddf 403e 2d38 48be 1280 40ba ac7d b2be
00000200: 2193 01be 42c3 15be bd23 6d3d 013c 95be
00000210: 1965 a7be 2517 973d 9887 16be 832c 05be
00000220: 326f 8dbe 7fe4 163d 7a21 a7bc af95 063c
00000230: f7ec 8d3e a90f a73e 1b46 75bd bfee 33be
00000240: 7b0f 3fbe 5dd1 fbbc e38d 4bbd 2616 853c
00000250: cee2 16bd 437c 6e3e a770 5f3e 79e7 333d
00000260: 86d6 9cbd 734d 37be 7ef2 a5be d59f b03d
00000270: 646f 0fbe 9e71 13be ac4f 6c3a 2d5f 0cbd
00000280: 049b b43e ac9b 07ba c47e 82bc f160 823d
00000290: 452f 373c ad11 09bf 883b 243e 37a6 3b3e
000002a0: 1409 0e3f b950 723e 1c2d 4abe 3ea2 b53e
000002b0: abb0 bb3e bbde 0a3f 30a1 813e c420 22be
000002c0: da96 813e 7e2e fbbe f067 d9be 232b dabe
000002d0: 9b55 45bd dddd a6be b334 73be 90ff 853e
000002e0: fd59 ffbe 3ea8 113d 15d9 b9be 5f9a 893d
000002f0: c6ba 2ebe 7bb2 a23d 08cb 243e 5b35 9cbe
00000300: de2d dfbe 8d2f 3fbe 63b8 94be e444 5abe
00000310: 1fe8 c6be 15bb 0e3f 0ce3 d5be 8e0a 313e
00000320: 0ea4 81bd 6c39 bf3e ce4a 67be 8454 5ebd
00000330: 88fa 9f3e 72a5 a33d cba7 2abd 8df1 7fbd
00000340: 3ac5 8bbe 440a c0be fcf1 1f3e b896 103e
00000350: 8adc 283d 2d98 88bd 0900 1ebf 9edf c83e
00000360: 2cf5 04bf d3da edbc 4796 32be 826f 063e
00000370: e654 b23d ffb7 e13d 5aa3 0ebe e11c e13e
00000380: 1b79 49bd d35b da3e 487c 0ebe b9b6 d0bb
00000390: c5fe a23e 16da ebbe 1278 363d 6690 e93d
000003a0: 5fa4 7f3e 19f2 27bd bdbf 2e3d 79ce f43e
000003b0: 1241 703e fcf9 fabc ceae 6c3c 9058 aa3e
000003c0: f8ca 61bd 793f a53d a8b4 35be 1000 263d
000003d0: f714 683d 74b7 efbe 76bc 5d3e d766 c33e
000003e0: dcc5 553e 4004 11be ac4f 923e f90b 673e
000003f0: 9a82 b33e 9f65 823e cd6c adbe 30bf a73a

rnn.bias_ih_l0 f4 [200]
-0.027074339 -0.056536503 -0.16330682 -0.035372842 -0.17180516 0.04482137 -0.033587508 -0.09908441
-0.21632403 -0.06176247 -0.037172332 -0.3208356 -0.26026055 0.033182275 0.12939209 -0.0947425
-0.18821386 -0.31326655 -0.0907525 -0.23077583 0.066250846 -0.34625027 -0.11937117 0.015989004
0.015863564 0.003733702 0.04042792 -0.23543577 0.08956208 0.08128121 -0.0582596 -0.082507566
-0.15015148 0.0396869 -0.08514363 0.03563665 0.13245493 0.031368095 -0.18187186 -0.46873164
-0.5010264 0.12582505 -0.25647768 -0.30409104 0.008188566 0.10041106 -0.057882905 -0.16881044
-0.07285535 0.017800476 0.06781284 -0.10993483 -0.0076818215 0.059960756 0.18400629 0.3431025
-0.23673736 -0.16667591 -0.021081356 0.021653378 -0.029249929 -0.17224546 -0.10845132 0.47705233
0.20488012 -0.055371016 0.27668718 -0.27503064 -0.07824144 -0.15388721 -0.050876386 -0.1530044
0.13351278 -0.21183576 -0.09280137 0.044885095 -0.029368432 0.07882236 -0.009921897 -0.071737096
-0.09895868 -0.048263542 -0.32916436 0.16398193 0.0392517 0.01690302 0.28819004 0.1711575
-0.7335049 -0.28694025 -0.26542503 -0.1783023 -0.122920826 0.05232154 0.114452675 -0.05681994
-0.055121075 -0.045839112 -0.25131744 0.01815106 -0.1165393 -0.15881982 -0.1599155 -0.114715286
0.10080178 0.01052581 0.114221565 0.0054731765 -0.19246101 -0.033395097 0.14951737 -0.026544202
0.15918587 0.0066005746 -0.15614197 0.24236074 -0.08099027 -0.060147826 0.117933795 -0.10181861
-0.017470963 -0.0063352813 -0.18709157 -0.011356254 0.037750173 0.1588326 -0.121698126 -0.07305586
0.22958064 0.05140397 0.004859197 -0.07443126 0.18109661 -0.1779654 0.10563702 0.001964617
0.091405764 -0.1567843 -0.121033266 0.15147622 -0.1844955 0.0491698 -0.14596207 0.03744078
-0.04117601 -0.07806469 0.053046454 -0.1447827 0.16727458 -0.21612269 -0.26580754 -0.26174703
-0.23226951 0.13917951 0.051989473 0.070635796 -0.19745259 0.014924578 -0.26663545 0.050407253
-0.09535089 -0.26000383 -0.16354603 0.0074384576 -0.10832769 0.00777305 0.3098998 -0.29288918
-0.10034941 -0.27018055 -0.021629598 -0.31941605 -0.040678017 -0.03896499 -0.086605854 0.06502713
0.026692418 -0.22241728 -0.11046752 -0.17591527 -0.15048073 -0.068895206 -0.40312105 -0.035749264
-0.039662767 0.2665818 0.037439667 0.07411107 -0.38263038 -0.520841 -0.39603743 0.05279666
-0.2620652 -0.117863625 -0.12314075 0.11242663 -0.24698079 -0.3026671 -0.03364718 -0.15947075
00000000: 01cb ddbc d292 67bd e739 27be 1de3 10bd
00000010: b1ed 2fbe 9d96 373d 0e93 09bd c4ec cabd
00000020: 0c84 5dbe a5fa 7cbd 0442 18bd 9044 a4be
00000030: df40 85be 23ea 073d 5c7f 043e 5b08 c2bd
00000040: 22bb 40be 7964 a0be 72dc b9bd 8050 6cbe
00000050: 86ae 873d b747 b1be df78 f4bd 5ffb 823c
00000060: 4ef4 813c 20b1 743b bf97 253d 1316 71be
00000070: 536c b73d c376 a63d 9ea1 6ebd baf9 a8bd
00000080: 4fc1 19be bb8e 223d c95f aebd bcf7 113d
00000090: 44a2 073e d57b 003d 9e3c 3abe 98fd efbe
000000a0: 4443 00bf 48d8 003e 0b51 83be d2b1 9bbe
000000b0: 5629 063c 50a4 cd3d a016 6dbd a5dc 2cbe
000000c0: 3035 95bd 4ed2 913c 75e1 8a3d 8325 e1bd
000000d0: cab7 fbbb 6999 753d 256c 3c3e 22ab af3e
000000e0: 476b 72be 17ad 2abe cfb2 acbc 6d62 b13c
000000f0: 8c9d efbc 1d61 30be ba1b debd 3440 f43e
00000100: 18cc 513e b8cc 62bd f1a9 8d3e d1d0 8cbe
00000110: 0c3d a0bd 9c94 1dbe c263 50bd 2fad 1cbe
00000120: 93b7 083e 79eb 58be a50e bebd 6fd9 373d
00000130: 1196 f0bc 9e6d a13d 748f 22bc e6ea 92bd
00000140: d9aa cabd feaf 45bd 3b88 a8be e1ea 273e
00000150: 64c6 203d 3478 8a3c a58d 933e e943 2f3e
00000160: fac6 3bbf d5e9 92be cae5 87be e194 36be
00000170: eabd fbbd 1c4f 563d 2a66 ea3d 07bc 68bd
00000180: a3c6 61bd cbc1 3bbd aeac 80be 88b1 943c
00000190: 28ac eebd aaa1 22be e4c0 23be d9ef eabd
000001a0: 2a71 ce3d 7274 2c3c ffec e93d 5558 b33b
000001b0: 8014 45be 4cc9 08bd 151b 193e 3a73 d9bc
000001c0: 9f01 233e a249 d83b aee3 1fbe 6a2d 783e
000001d0: 3ade a5bd 915d 76bd 4687 f13d 4786 d0bd
000001e0: 441f 8fbc 3198 cfbb ef94 3fbe 950f 3abc
000001f0: ed9f 1a3d 03a5 223e de3c f9bd 509e 95bd
00000200: 3017 6b3e f88c 523d e639 9f3b 6b6f 98bd
00000210: 6471 393e 903c 36be 3958 d83d cec0 003b
00000220: f232 bb3d 108c 20be 4ae0 f7bd 951c 1b3e
00000230: 63ec 3cbe 4666 493d 1577 15be 815b 193d
00000240: 2da8 28bd 61e0 9fbd 3d47 593d eb41 14be
00000250: 074a 2b3e 444f 5dbe ed17 88be b503 86be
00000260: 0fd8 6dbe 1385 0e3e eaf2 543d 80a9 903d
00000270: 0331 4abe 3886 743c 7184 88be d677 4e3d
00000280: 5447 c3bd 391f 85be 9c78 27be 4ebe f33b
00000290: e8da ddbd 12b5 fe3b 30ab 9e3e 92f5 95be
000002a0: fe83 cdbd 1b55 8abe 8e30 b1bc 808a a3be
000002b0: fe9d 26bd c199 1fbd 695e b1bd f22c 853d
000002c0: 0faa da3c 5bc1 63be cc3c e2bd 2223 34be
000002d0: 9f17 1abe ee18 8dbd e265 cebe d26d 12bd
000002e0: 6d75 22bd 697d 883e 565a 193d 8bc7 973d
000002f0: 21e8 c3be d655 05bf 6bc5 cabe 5041 583d
00000300: 692d 86be 7c62 f1bd 3831 fcbd ef3f e63d
00000310: 88e8 7cbe 2ff7 9abe a0d1 09bd 4d4c 23be

rnn.bias_hh_l0 f4 [200]
-0.10581123 -0.09845978 -0.13857223 -0.16687606 -0.159604 -0.025937287 -0.21413666 -0.18208838
-0.18425791 0.035518605 -0.11622302 -0.20522608 -0.052131057 0.2636479 -0.08569739 -0.15425882
-0.07756869 -0.2568507 -0.16064869 -0.08490688 -0.092339076 -0.48777473 -0.12061198 0.009169098
-0.18392126 0.041020278 -0.07991054 -0.09253786 0.060419936 -0.13446623 -0.24063581 -0.30106696
-0.23728748 0.022578474 -0.011356247 0.049991388 0.202019 0.13899186 -0.1960517 -0.46570447
-0.37413108 0.09832274 -0.29486746 -0.24022749 -0.15221684 0.06431824 -0.23206055 0.025991388
-0.053360708 -0.032091215 0.04676985 -0.21091166 -0.059034843 -0.110470206 0.22835879 0.2840903
-0.048672345 -0.23580138 -0.07886019 0.14718018 -0.049952593 -0.24918132 -0.1985009 0.2516216
0.18973209 -0.16346003 0.16655713 -0.3324541 -0.17107299 -0.076353826 0.08659883 -0.39415497
-0.11287482 -0.10273041 -0.16739464 0.09935397 0.06676627 -0.06988439 0.007103147 0.023849325
-0.1877328 -0.03330266 -0.32344472 0.11225498 -0.07378483 0.21503596 0.26287404 0.148939
-0.5608238 -0.47793317 -0.3234948 -0.2654283 -0.13811745 -0.11352671 0.17538829 0.020543523
-0.07001037 -0.14045195 -0.06348978 -0.19143857 0.0329365 -0.22264652 -0.0899377 0.05461025
-0.03434819 0.1524563 -0.07020979 0.05990507 -0.00097636954 -0.040063616 -0.009107025 0.025731524
0.1752332 -0.08239632 -0.15561976 0.0014567319 0.039917745 -0.03665369 -0.047568344 -0.049606122
-0.08934548 -0.119528644 -0.086338274 0.12697084 0.019775797 0.11136288 -0.08080726 -0.09591806
0.10820772 -0.03192293 -0.124051966 -0.014605974 0.054981288 -0.17776945 -0.0033271196 0.01660943
-0.03458916 -0.16188154 0.060219735 -0.06517854 -0.2212485 0.025051542 0.04409003 -0.010089249
0.12076911 -0.0988894 -0.11451742 0.016484506 -0.099481754 -0.12659124 -0.15505742 -0.2556705
-0.060196035 0.08147321 0.025741927 0.28676394 -0.28127888 -0.16647355 -0.30004126 -0.04096851
-0.2241305 -0.21880054 -0.090966724 -0.0023594252 0.022227878 0.05196748 0.35978916 -0.2429856
-0.21746774 -0.20170411 0.0036450294 -0.40360722 -0.17981425 -0.20635192 -0.23014583 0.24372542
-0.017752767 -0.27410737 -0.07718023 -0.022201113 -0.2561513 -0.029864568 -0.38325444 -0.023723617
0.07377805 0.2694694 0.026776375 0.013070694 -0.31370312 -0.4498337 -0.34409872 -0.078098
-0.28290248 -0.27069432 0.06123601 0.05263538 -0.28329316 -0.22850667 0.09191511 0.009488868
00000000: 8fb3 d8bd 48a5 c9bd e1e5 0dbe 8fe1 2abe
00000010: 3b6f 23be 6f7a d4bc a446 5bbe 6075 3abe
00000020: 1bae 3cbe f57b 113d 5606 eebd c926 52be
00000030: 6087 55bd dcfc 863e 1d82 afbd 06f6 1dbe
00000040: 55dc 9ebd ef81 83be 1781 24be a9e3 adbd
00000050: 451c bdbd 9cbd f9be 6a03 f7bd fc39 163c
00000060: db55 3cbe e104 283d 23a8 a3bd 7d84 bdbd
00000070: e57a 773d 84b1 09be 3c69 76be 7325 9abe
00000080: 7dfb 72be 7ef6 b83c 8d0f 3abc c5c3 4c3d
00000090: 12de 4e3e e253 0e3e c7c1 48be d170 eebe
000000a0: 1c8e bfbe 6f5d c93d def8 96be 32fe 75be
000000b0: bbde 1bbe 48b9 833d 48a1 6dbe e4eb d43c
000000c0: c290 5abd 1472 03bd be91 3f3d 3af9 57be
000000d0: 85ce 71bd 343e e2bd e3d6 693e 4974 913e
000000e0: a75c 47bd eb75 71be 7481 a1bd 67b6 163e
000000f0: 179b 4cbd 6329 7fbe d243 4bbe 8cd4 803e
00000100: 2149 423e 1162 27be f48d 2a3e 6c37 aabe
00000110: c22d 2fbe 655f 9cbd ba5a b13d aece c9be
00000120: ea2a e7bd 5264 d2bd 8069 2bbe 187a cb3d
00000130: c1bc 883d 8c1f 8fbd 84c1 e83b a95f c33c
00000140: 073d 40be 5f68 08bd 8c9a a5be f0e5 e53d
00000150: 801c 97bd 6332 5c3e 6d97 863e 7783 183e
00000160: 2692 0fbf a8b3 f4be 1ca1 a5be 38e6 87be
00000170: a96e 0dbe b180 e8bd fd98 333e e44a a83c
00000180: 9961 8fbd a3d2 0fbe ee06 82bd 7908 44be
00000190: 6ce8 063d 73fd 63be 4231 b8bd ffae 5f3d
000001a0: b0b0 0cbd 811d 1c3e 26ca 8fbd 055f 753d
000001b0: 0df3 7fba bf19 24bd a235 15bc ebca d23c
000001c0: 5570 333e 67bf a8bd c95a 1fbe d0ef be3a
000001d0: ca80 233d 2e22 16bd 06d7 42bd ca2f 4bbd
000001e0: c3fa b6bd 6fcb f4bd 1fd2 b0bd a504 023e
000001f0: da00 a23c 3912 e43d 477e a5bd b070 c4bd
00000200: 029c dd3d 9ec1 02bd f50e febd e54d 6fbc
00000210: 0f34 613d 3209 36be ce0b 5abb 8010 883c
00000220: 5dad 0dbd 46c4 25be f8a8 763d 547c 85bd
00000230: f78e 62be e438 cd3c bf97 343d 614d 25bc
00000240: cc55 f73d 8786 cabd 1c88 eabd 840a 873c
00000250: 17bd cbbd 22a1 01be 5fc7 1ebe 3ee7 82be
00000260: 1e90 76bd 6ddb a63d bce0 d23c b9d2 923e
00000270: c903 90be 0b78 2abe 029f 99be 99ce 27bd
00000280: 7782 65be 400d 60be c34c babd 96a0 1abb
00000290: 3d17 b63c dadb 543d 4936 b83e 38d1 78be
000002a0: ddaf 5ebe 868b 4ebe 72e1 6e3b 9ba5 cebe
000002b0: 3a21 38be eb4d 53be 59ab 6bbe 2893 793e
000002c0: 406e 91bc cd57 8cbe ab10 9ebd 1cdf b5bc
000002d0: 4326 83be 8aa6 f4bc ed39 c4be 0858 c2bc
000002e0: f218 973d e5f7 893e 215a db3c 7726 563c
000002f0: b29d a0be 9a50 e6be b52d b0be d8f1 9fbd
00000300: 98d8 90be 7298 8abe 9cd2 7a3d 3298 573d
00000310: cd0b 91be a7fd 69be fd3d bc3d 3277 1b3c

rnn.weight_ih_l0_reverse f4 [200, 50]
-0.13744436 0.014906409 0.2698732 0.28121427 0.114924684 0.0829737 0.15681411 0.026386991
-0.021825494 0.77566224 -0.22457066 0.07972484 0.29806733 0.056047026 -0.05449307 -0.18015808
-0.2380001 0.016568847 0.4262457 -0.061769303 0.0042200387 0.26166955 -0.21340223 0.18502598
0.24741437 0.15461692 0.22638944 0.18841523 0.053141918 -0.009629842 -0.24877505 0.22436428
0.0079055885 0.20640822 -0.124232635 0.40879023 -0.28765225 -0.17538382 -0.17387259 -0.14062977
0.4115149 0.5578535 0.079276554 -0.18288518 0.08568326 -0.24855593 0.06134329 -0.22209284
0.42313746 -0.18462752 -0.42919138 0.4040491 -0.51537865 -0.1948389 -0.10596395 -0.5631216
0.034424156 0.54599696 0.024205936 -0.059697393 0.31385177 0.107847326 -0.11652657 -0.3487925
-0.17803104 0.2987185 0.11393166 0.12414201 -0.004597262 0.41251868 -0.49755815 -0.13768883
-0.61217105 0.03795763 0.21468243 -0.09361448 0.10762934 0.15687275 -0.26239574 -0.05239297
-0.05708082 -0.504342 0.1591747 -0.44471204 -0.07431252 0.13949959 0.25497785 0.17925581
0.5280589 0.2569463 -0.28680712 -0.062464423 -0.63320255 0.41205117 0.022349337 -0.22786376
0.16681607 -0.43554935 -0.12937118 0.030572379 0.30085668 -0.09016345 -0.26988363 0.47606847
0.060891654 -0.13804352 0.27954164 0.1321788 0.21109582 0.3499301 0.39231688 0.512389
0.13349682 0.12928683 0.10089091 0.21344906 -0.2083802 -0.0861051 0.60087615 0.2371322
-0.6028178 -0.11728855 -0.37033233 -0.31514966 0.6204791 0.32033753 -0.13479528 0.13201277
-0.15210196 0.2093278 -0.38694715 -0.47719678 -0.4493951 0.3381695 -0.7034647 0.038233586
-0.04291914 0.11503403 0.15540516 -0.1273508 0.2997639 -0.09368551 -0.4571571 0.23426457
0.17527577 0.07496867 -0.041583374 -0.4590753 0.1070872 -0.066986896 0.32118192 0.10487754
-0.20282307 0.07744467 0.0458598 0.23373422 -0.018550016 0.038386453 0.10965972 -0.04931878
-0.29673758 -0.19480827 0.09159736 -0.04459235 0.054579217 0.3650855 0.01566861 0.02858608
0.1767503 -0.052501097 -0.14214998 0.3037648 -0.28030235 0.33214787 0.20161131 -0.18016967
-0.3202022 0.24063969 -0.25879252 -0.20668621 -0.057555523 -0.13810998 -0.25778192 -0.05408754
-0.17303686 -0.43298334 -0.0140367 -0.27190912 0.26132882 -0.032391116 0.058503464 0.5412154
-0.093691215 0.49914005 -0.039993864 -0.0107239 -0.38824865 -0.45011604 0.06126153 -0.00991401
-0.86214834 -0.032871455 -0.051061936 0.47506228 -0.12639272 -0.56894755 -0.056635648 1.3379966
-0.19547848 -0.3826967 0.44762215 0.37329295 -0.42054686 0.24035914 -0.6227342 -0.108691856
-0.69137347 0.36704883 0.053233545 0.16698334 -0.39856464 -0.13688606 -0.14420454 0.12733436
-0.47559875 0.22200944 0.1278476 0.046097867 -0.02786861 0.13065167 -0.2514873 -0.117247835
0.04737952 0.07869904 0.30540502 -0.17420132 -0.07337076 0.4815062 -0.19987844 -0.11386234
0.35426477 -0.6332167 -0.31295288 -0.07479951 0.055288844 -0.21770234 0.05206088 -0.023465097
0.15739554 0.40205964 0.4531257 -0.6623387 0.46050164 0.8487622 -0.26230913 0.0588136
00000000: 37be 0cbe 033a 743c d22c 8a3e 51fb 8f3e
00000010: a25d eb3d 1dee a93d e193 203e 8829 d83c
00000020: 61cb b2bc cd91 463f daf5 65be c746 a33d
00000030: 489c 983e 9191 653d 2034 5fbd 5c7b 38be
00000040: 4cb6 73be 64bb 873c e03c da3e cf01 7dbd
00000050: 4048 8a3b 8df9 853e 1d86 5abe 7377 3d3e
00000060: 315a 7d3e e653 1e3e a2d2 673e ecef 403e
00000070: 57ab 593d 7cc6 1dbc e3be 7ebe c0bf 653e
00000080: 7186 013c ad5c 533e ae6d febd f44c d13e
00000090: 2847 93be d197 33be a80b 32be 4001 10be
000000a0: 15b2 d23e 7dcf 0e3f bf5b a23d 4146 3bbe
000000b0: b47a af3d 7285 7ebe 1a43 7b3d 4e6c 63be
000000c0: 79a5 d83e ff0e 3dbe f9be dbbe 86df ce3e
000000d0: dbef 03bf d983 47be a103 d9bd bd28 10bf
000000e0: 5800 0d3d 75c6 0b3f 874b c63c 4185 74bd
000000f0: 2eb1 a03e 0fdf dc3d 7ba5 eebd ee94 b2be
00000100: c54d 36be a2f1 983e 0155 e93d 2b3e fe3d
00000110: a1a4 96bb a635 d33e f1bf febe 4dfe 0cbe
00000120: 3eb7 1cbf 7679 1b3d b6d5 5b3e f3b8 bfbd
00000130: c56c dc3d 40a3 203e bc58 86be 039a 56bd
00000140: 94cd 69bd 8f1c 01bf b1fe 223e 4cb1 e3be
00000150: 2a31 98bd fbd8 0e3e 758c 823e d68e 373e
00000160: de2e 073f 778e 833e 62d8 92be b2da 7fbd
00000170: 9019 22bf 5ff8 d23e f515 b73c 1e55 69be
00000180: d5d1 2a3e 5300 dfbe e179 04be ed72 fa3c
00000190: e309 9a3e 9da7 b8bd 302e 8abe 3fbf f33e
000001a0: 8769 793d 485b 0dbe 1520 8f3e e159 073e
000001b0: 8129 583e 0a2a b33e c2dd c83e ed2b 033f
000001c0: 64b3 083e c463 043e e59f ce3d 6492 5a3e
000001d0: 9f61 55be df57 b0bd 05d3 193f c9d2 723e
000001e0: 4452 1abf fb34 f0bd 339c bdbe 4c5b a1be
000001f0: b8d7 1e3f 4803 a43e c607 0abe 5b2e 073e
00000200: 9ec0 1bbe 075a 563e f01d c6be 2353 f4be
00000210: 1d17 e6be 8d24 ad3e 4316 34bf d29a 1c3d
00000220: fbcb 2fbd f696 eb3d 8822 1f3e 4068 02be
00000230: a77a 993e 30de bfbd 7f10 eabe 0de3 6f3e
00000240: 7e7b 333e 2d89 993d 5453 2abd eb0b ebbe
00000250: 8950 db3d 6d30 89bd f571 a43e 09ca d63d
00000260: dab0 4fbe 509b 9e3d 7cd7 3b3d 0658 6f3e
00000270: 34f6 97bc 1d3b 1d3d 4695 e03d 7d02 4abd
00000280: fded 97be d27b 47be 6697 bb3d 78a6 36bd
00000290: 758e 5f3d 7dec ba3e 755b 803c 5b2d ea3c
000002a0: 08fe 343e 640b 57bd c48f 11be 0f87 9b3e
000002b0: ca83 8fbe 490f aa3e 3273 4e3e 667e 38be
000002c0: 8bf1 a3be 406a 763e 7480 84be 8da5 53be
000002d0: 57bf 6bbd b46c 0dbe fefb 83be e58a 5dbd
000002e0: 9330 31be feaf ddbe 30fa 65bc ac37 8bbe
000002f0: e4cc 853e 8cac 04bd 54a1 6f3d 188d 0a3f
00000300: 2ee1 bfbd 498f ff3e 9bd0 23bd 4cb3 2fbc
00000310: 87c8 c6be 9c75 e6be 5fed 7a3d 5f6e 22bc
00000320: c1b5 5cbf 38a4 06bd 5226 51bd 5d3b f33e
00000330: 186d 01be 8ca6 11bf c8fa 67bd 7943 ab3f
00000340: 832b 48be d2f0 c3be bb2e e53e 4120 bf3e
00000350: eb51 d7be b520 763e 826b 1fbf d699 debd
00000360: dafd 30bf d3ed bb3e 6b0b 5a3d aefd 2a3e
00000370: aa10 ccbe dc2b 0cbe 5baa 13be f063 023e
00000380: ae81 f3be 7156 633e 7bea 023e 1ed1 3c3d
00000390: b64c e4bc 8dc9 053e f2c2 80be a21f f0bd
000003a0: 0711 423d f62c a13d 0c5e 9c3e d561 32be
000003b0: 6943 96bd fb87 f63e efac 4cbe a930 e9bd
000003c0: 3162 b53e 7d1a 22bf 5c3b a0be 7c30 99bd
000003d0: 8e76 623d 5ded 5ebe ca3d 553d e039 c0bc
000003e0: 4c2c 213e c3da cd3e 1700 e83e 078f 29bf
000003f0: dfc6 eb3e 7b48 593f 624d 86be 88e6 703d

rnn.weight_hh_l0_reverse f4 [200, 50]
0.061018456 0.21344015 0.106324166 -0.14051764 0.050248634 0.11876276 0.09117074 0.10621794
-0.1412122 -0.07579037 0.0081045525 0.24675141 -0.16954412 -0.0021104855 0.051923353 0.07285846
-0.063695066 0.043649472 0.0239121 -0.1514327 -0.18185109 -0.063521214 -0.25396046 -0.11961952
0.15328233 0.108653925 -0.12649103 -0.1841688 -0.273025 0.11343159 0.07140774 -0.37192902
-0.008827712 0.24995974 0.04346151 0.043916095 0.17336315 0.13516633 0.029383132 0.061283916
-0.11671368 -0.023188423 -0.07986849 -0.10259182 -0.0766898 -0.011261996 0.17864212 -0.15546408
0.048926752 -0.15357359 -0.17439465 -0.08255337 0.31175467 -0.19117355 0.3512354 0.039347578
-0.085222974 -0.2677153 -0.06111913 -0.17718138 0.19455753 0.087193035 -0.1482615 0.062007375
0.037197907 -0.2718565 -0.5231254 -0.32863942 0.015693948 0.13916126 -0.061035164 0.037459273
0.085737765 0.015777795 0.1215987 -0.08926039 0.6962035 0.11825403 0.21658099 -0.2481814
-0.47042906 -0.07904187 0.1265236 -0.28022954 -0.73810786 -0.42717028 -0.45462444 -0.14904796
-0.18822744 -0.03337193 0.021884207 0.12971734 0.08726028 0.028752487 0.61366254 -0.40647173
-0.19454734 0.15287474 0.32248926 -0.010374317 -0.030538196 -0.002574938 0.055127222 -0.08941633
-0.18074092 -0.17964618 0.06345354 0.15619236 -0.121240534 0.05450192 -0.06035371 0.05811091
-0.06193182 -0.1220383 -0.14703715 0.19940992 -0.03906694 -0.1575617 0.004489537 -0.38204196
-0.042015124 0.036207046 -0.0066808374 -0.10637051 0.104861915 0.1904702 0.09898874 -0.11525666
-0.06628373 0.3556833 -0.26123586 -0.10533127 -0.16911618 0.32635793 -0.04155382 -0.18140216
0.20090309 0.13988839 0.06966627 0.025173953 -0.10076518 0.24619482 -0.002416414 -0.101963684
0.038141947 -0.026851512 0.03981533 -0.0063540945 0.021594472 -0.077245615 0.21977448 -0.02606392
-0.16499206 0.088273264 0.07286209 -0.13604927 0.15062185 0.38655365 0.054226015 0.113135085
0.008247794 0.0039941235 -0.044207748 0.009754698 0.23270324 -0.0095228935 -0.0012543517 0.0029359895
-0.33390176 -0.08857516 -0.1750047 8.265299e-05 -0.056524392 0.05357733 0.06924102 0.268147
0.10041618 0.033650935 -0.25765085 0.40991578 -0.03035035 -0.17844616 -0.019189762 -0.02035395
0.40714955 -0.32253417 0.060760494 0.043968122 0.10539104 0.0153998565 0.06724117 0.26187825
-0.010849228 -0.08897982 -0.15030384 -0.105586186 0.24578393 -0.06596793 -0.123543136 -0.09235782
-0.17914806 -0.19347718 0.14656211 -0.22559436 0.25190744 -0.1180535 0.12848987 -0.14310427
-0.13828209 -0.07612422 0.15825798 0.13944606 0.32274723 0.21856204 -0.08851502 -0.030678837
0.3196135 0.2948841 0.6536684 0.39000627 -0.13889924 -0.0724955 0.14248596 -0.13007478
0.19298866 -0.03576307 -0.017535761 -0.115899414 -0.3645982 -0.25525337 -0.2042611 0.03514869
0.071385354 -0.24561472 0.13771366 0.5202927 0.12576905 -0.18149072 0.3755524 -0.22888674
-0.16580406 -0.23879156 -0.05050519 0.3209762 0.061413806 0.22234303 0.20703107 0.043148875
0.09119683 -0.04881959 0.097563215 0.6255054 -0.04016451 -0.076753944 0.38659707 0.07964418
00000000: 7dee 793d 0e90 5a3e 7cc0 d93d dbe3 0fbe
00000010: 83d1 4d3d e439 f33d bab7 ba3d cb88 d93d
00000020: ee99 10be fb37 9bbd f5c8 043c 67ac 7c3e
00000030: f99c 2dbe 1250 0abb 95ad 543d d136 953d
00000040: 8f72 82bd cac9 323d 4fe3 c33c 2c11 1bbe
00000050: 2c37 3abe 6917 82bd 1b07 82be 14fb f4bd
00000060: 0bf6 1c3e f385 de3d dd86 01be bf96 3cbe
00000070: efc9 8bbe d24e e83d 393e 923d 7b6d bebe
00000080: 1ca2 10bc 72f5 7f3e b204 323d 5de1 333d
00000090: 1c86 313e 0b69 0a3e e5b4 f03c d804 7b3d
000000a0: 9507 efbd a6f5 bdbc 1792 a3bd a91b d2bd
000000b0: 8b0f 9dbd 3c84 38bc f6ed 363e fa31 1fbe
000000c0: 6b67 483d 6542 1dbe 8394 32be be11 a9bd
000000d0: 4f9e 9f3e 00c3 43be 20d5 b33e ed2a 213d
000000e0: 6289 aebd fb11 89be 0e58 7abd 096f 35be
000000f0: 173a 473e 4392 b23d ddd1 17be 72fb 7d3d
00000100: d55c 183d c630 8bbe 8ceb 05bf 6d43 a8be
00000110: 9890 803c 4a80 0e3e 0200 7abd e56e 193d
00000120: 4897 af3d 6f40 813c bd08 f93d 27ce b6bd
00000130: 643a 323f 2b2f f23d 68c7 5d3e 4423 7ebe
00000140: 14dc f0be b4e0 a1bd 678f 013e 3f7a 8fbe
00000150: a3f4 3cbf 10b6 dabe 89c4 e8be 07a0 18be
00000160: b2be 40be 01b1 08bd 8246 b33c 9fd4 043e
00000170: 85b5 b23d 568a eb3c fd18 1d3f 101d d0be
00000180: 6b37 47be 328b 1c3e 501d a53e 0af9 29bc
00000190: 3d2b fabc 4ac0 28bb 15cd 613d e91f b7bd
000001a0: 2614 39be 2bf5 37be eef3 813d e4f0 1f3e
000001b0: f54c f8bd 683d 5f3d 7435 77bd b505 6e3d
000001c0: 38ac 7dbd 37ef f9bd e890 16be 1d32 4c3e
000001d0: a804 20bd db57 21be f71c 933b 019b c3be
000001e0: 0d18 2cbd d74d 143d edea dabb c8d8 d9bd
000001f0: d8c1 d63d 9f0a 433e 9cba ca3d af0b ecbd
00000200: c4bf 87bd 1f1c b63e b5c0 85be ecb7 d7bd
00000210: cb2c 2dbe 6318 a73e 5734 2abd 7dc1 39be
00000220: 8ab9 4d3e e73e 0f3e 30ad 8e3d 9b39 ce3c
00000230: fa5d cebd 7f1a 7c3e b35c 1ebb 56d2 d0bd
00000240: bb3a 1c3d b4f7 dbbc 6615 233d 0236 d0bb
00000250: e4e6 b03c f332 9ebd 900c 613e 0184 d5bc
00000260: aef3 28be 9dc8 b43d b838 953d 8050 0bbe
00000270: 9d3c 1a3e 5cea c53e 191c 5e3d 5eb3 e73d
00000280: c121 073c 23e1 823b 2f13 35bd 2bd2 1f3c
00000290: c249 6e3e e905 1cbc 0f69 a4ba bb69 403b
000002a0: 2cf5 aabe e566 b5bd 6f34 33be fc55 ad38
000002b0: 1f86 67bd e773 5b3d 3cce 8d3d 904a 893e
000002c0: 00a7 cd3d 90d5 093d d0ea 83be 7be0 d13e
000002d0: 4ca1 f8bc 97ba 36be d933 9dbc 54bd a6bc
000002e0: e875 d03e 3323 a5be ffdf 783d eb17 343d
000002f0: 42d7 d73d ae4f 7c3c bdb5 893d e814 863e
00000300: f6c0 31bc 0d3b b6bd 40e9 19be 923d d8bd
00000310: c8ae 7b3e 321a 87bd 2f04 fdbd 1926 bdbd
00000320: 9772 37be e21e 46be 6114 163e 3502 67be
00000330: 03fa 803e 09c6 f1bd d992 033e ed89 12be
00000340: d299 0dbe 04e7 9bbd 610e 223e f3ca 0e3e
00000350: 203f a53e bace 5f3e 5d47 b5bd 2f52 fbbc
00000360: 61a4 a33e 0cfb 963e d056 273f e7ae c73e
00000370: 9a3b 0ebe 8578 94bd d7e7 113e 5332 05be
00000380: d29e 453e 4c7c 12bd 28a7 8fbc ac5c edbd
00000390: 9eac babe 92b0 82be d229 51be 13f8 0f3d
000003a0: 7c32 923d 6d82 7bbe cf04 0d3e e731 053f
000003b0: 9ac9 003e b4d8 39be 6748 c03e 4961 6abe
000003c0: 8ac8 29be c685 74be 88de 4ebd fe56 a43e
000003d0: 0b8d 7b3d e4ad 633e f4ff 533e e0bc 303d
000003e0: 67c5 ba3d 0df7 47bd 39cf c73d 1f21 203f
000003f0: 8b83 24bd 2c31 9dbd 0df0 c53e 7d1c a33d

rnn.bias_ih_l0_reverse f4 [200]
-0.198724 0.04925281 -0.3299975 0.026632944 -0.072089225 -0.19629121 -0.09414143 -0.17595468
0.019396344 -0.19193432 0.067788124 -0.20459205 -0.553892 0.02934641 -0.008856945 -0.13589673
-0.23496422 -0.42907354 -0.057277244 -0.38875583 0.031569112 0.017744627 -0.36064887 -0.030125072
-0.11436328 -0.13310817 -0.43089798 -0.08489099 -0.25251585 -0.22110151 -0.17700835 -0.21579392
-0.19829868 0.06216194 -0.21877693 0.019344762 0.29427806 -0.18403874 -0.11550018 -0.25214896
-0.1976487 -0.10280941 0.054552432 -0.12978895 -0.15937072 -0.16966984 -0.26634943 -0.2187418
-0.23338836 -0.29083124 -0.11440559 -0.06117663 -0.07590244 -0.01721049 -0.23876335 -0.33029717
-0.22309536 -0.03973245 0.14094658 -0.058499426 -0.04360743 -0.22161488 -0.42156452 -0.015408253
0.1289511 -0.16850317 -0.22351626 -0.17638509 0.06572817 -0.14979158 -0.029026432 0.045400336
-0.07697057 -0.042699173 0.1626112 0.030289313 -0.1940547 0.11415197 -0.081819735 -0.29221568
-0.3699502 -0.32767528 -0.2944028 -0.007018986 0.074381 -0.16272569 0.09756058 -0.068401694
0.049630594 -0.37480798 -0.08383439 0.047842205 -0.22566397 -0.17880087 -0.20831545 -0.41299075
-0.13920142 0.03645644 0.3326566 0.0213165 -0.05153737 -0.15492462 -0.05641771 -0.112805195
0.090778925 -0.11355337 -0.12677893 -0.043593492 0.08211531 0.1867256 0.13611177 -0.0208164
-0.06425352 -0.25126135 -0.22349584 0.011654743 0.026423387 -0.2557387 0.016982134 -0.012771812
0.16870925 0.017705372 0.1333127 0.056041382 -0.16211873 0.022400226 -0.071193516 -0.17019102
0.19742554 -0.16634643 0.023027165 -0.06682762 0.023152508 -0.18934236 -0.27502596 -0.19143334
-0.069974385 0.049764827 -0.36990994 -0.16321814 0.24699046 0.12544069 0.014978682 -0.098780625
0.113326974 -0.0019050688 -0.12502743 0.069509886 0.086595245 -0.08267514 -0.22434114 -0.07920802
-0.23124449 -0.112456545 -0.16405447 -0.14625491 -0.0327955 -0.0786007 -0.113406755 0.048876517
0.00041095525 -0.25658545 -0.29633823 0.14557508 0.15954614 -0.27880794 -0.23739165 -0.091723785
0.04065307 -0.28225482 -0.024282549 -0.008733406 -0.29345337 -0.29059488 -0.12186641 -0.012087085
-0.3903454 -0.036187973 -0.43256086 -0.114574626 -0.12141693 -0.34872383 -0.2058194 -0.1343109
-0.036407724 -0.24359259 0.43246108 -0.08426915 -0.04416389 -0.20317343 -0.104763106 -0.025272103
0.02752229 -0.15900528 -0.2171478 -0.09813172 -0.07921779 -0.11761118 0.0028397655 -0.11245526
00000000: 4e7e 4bbe 51bd 493d 6ff5 a8be 552d da3c
00000010: 84a3 93bd 9000 49be 39cd c0bd 772d 34be
00000020: 15e5 9e3c 6e8a 44be 80d4 8a3d 9480 51be
00000030: decb 0dbf e267 f03c b81c 11bc 8328 0bbe
00000040: 769a 70be 87af dbbe 8b9b 6abd 010b c7be
00000050: 9d4e 013d 2e5d 913c f8a6 b8be dbc8 f6bc
00000060: 4c37 eabd 824d 08be a99e dcbe 54db adbd
00000070: c249 81be 6f68 62be ad41 35be 15f9 5cbe
00000080: cf0e 4bbe 859d 7e3d 0f07 60be e878 9e3c
00000090: 9dab 963e a774 3cbe 5c8b ecbd ab19 81be
000000a0: 6c64 4abe bd8d d2bd 5f72 5f3d 65e7 04be
000000b0: 1432 23be eebd 2dbe f45e 88be dafd 5fbe
000000c0: 5cfd 6ebe d5e7 94be 7a4d eabd 5994 7abd
000000d0: bd72 9bbd 03fd 8cbc 617e 74be b61c a9be
000000e0: 1c73 64be 7ebe 22bd 4d54 103e 189d 6fbd
000000f0: b49d 32bd 03ef 62be 4ed7 d7be e672 7cbc
00000100: c20b 043e 188c 2cbe 72e1 64be 4b9e 34be
00000110: 7e9c 863d f762 19be d7c8 edbc b4f5 393d
00000120: bfa2 9dbd 54e5 2ebd 8d83 263e 4b21 f83c
00000130: 46b6 46be 82c8 e93d 1b91 a7bd 4b9d 95be
00000140: 1d6a bdbe 0ec5 a7be f7bb 96be 86ff e5bb
00000150: 1155 983d 90a1 26be d7cd c73d 3016 8cbd
00000160: 7349 4b3d d5e6 bfbe 5db1 abbd 30f6 433d
00000170: 7514 67be 9317 37be a550 55be 8673 d3be
00000180: d18a 0ebe 5953 153d f751 aa3e f19f ae3c
00000190: d918 53bd 8fa4 1ebe 4216 67bd 6906 e7bd
000001a0: 4dea b93d ab8e e8bd 56d2 01be 178f 32bd
000001b0: 122c a83d ff34 3f3e e260 0b3e 2887 aabc
000001c0: 5997 83bd 54a5 80be 18dc 64be 89f3 3e3c
000001d0: dc75 d83c 2ff0 82be 1e1e 8b3c dd40 51bc
000001e0: 1ec2 2c3e db0a 913c 2083 083e a68b 653d
000001f0: 7402 26be ae80 b73c e8cd 91bd 8e46 2ebe
00000200: ec29 4a3e b856 2abe 77a3 bc3c ebdc 88bd
00000210: 54aa bd3c f7e2 41be 34d0 8cbe 1a07 44be
00000220: bb4e 8fbd 34d6 4b3d d664 bdbe a822 27be
00000230: 11eb 7c3e 8673 003e 2569 753c 7f4d cabd
00000240: f917 e83d 80b3 f9ba 3107 00be 335b 8e3d
00000250: d958 b13d 9551 a9bd afb9 65be d037 a2bd
00000260: 5bcb 6cbe 9e4f e6bd e5fd 27be d9c3 15be
00000270: 9354 06bd 67f9 a0bd cd41 e8bd be32 483d
00000280: 7b75 d739 2b5f 83be a5b9 97be a211 153e
00000290: 1060 233e eabf 8ebe cc16 73be aed9 bbbd
000002a0: d583 263d b483 90be 32ec c6bc 8f16 0fbc
000002b0: 853f 96be dac8 94be 1995 f9bd e908 46bc
000002c0: 5adb c7be d739 14bd 9e78 ddbe 1aa6 eabd
000002d0: 70a9 f8bd ee8b b2be 52c2 52be cc88 09be
000002e0: 4420 15bd 5670 79be 8a6b dd3e 4e95 acbd
000002f0: 32e5 34bd b20c 50be 0a8e d6bd 7107 cfbc
00000300: 6d76 e13c 48d2 22be fe5b 5ebe 49f9 c8bd
00000310: f03c a2bd 21de f0bd 5c1b 3a3b f14e e6bd

rnn.bias_hh_l0_reverse f4 [200]
-0.23009329 -0.05297563 -0.4125172 0.050112106 -0.06738159 -0.22511598 -0.044594046 -0.24841967
-0.15762785 -0.17936556 0.061009426 -0.1094782 -0.4730156 -0.23114157 -0.16542237 0.018506255
-0.16988884 -0.3446308 -0.059277624 -0.29347834 -0.11970675 -0.1178238 -0.448503 -0.09197245
-0.20831648 -0.13265778 -0.20302859 -0.17593034 -0.2966738 -0.09297772 -0.05091845 -0.4031989
-0.19261508 -0.0037760178 -0.17836873 -0.09632609 0.22368525 -0.20616917 0.058151487 -0.26184547
-0.24943185 -0.1217279 0.03347021 -0.1268053 -0.11680615 -0.30874187 -0.25012803 -0.17042649
-0.2932033 -0.20949338 -0.13920063 0.020624178 -0.32329527 0.049505424 -0.37917367 -0.21141432
-0.13672914 -0.14710179 0.12968045 -0.23716433 0.11445311 -0.11335614 -0.5385041 0.016310623
-0.07044105 -0.18820475 -0.12619053 -0.30819157 -0.05952898 -0.20138729 -0.11048669 -0.13430908
-0.030977473 0.054917686 0.16435012 0.053123716 -0.32774106 0.05660868 -0.3275599 -0.13833004
-0.45248556 -0.2746037 -0.03343052 0.045073744 0.03098148 -0.31321374 0.16699302 -0.10200887
0.044751205 -0.36856964 -0.26574218 0.16258234 -0.23670903 -0.33938134 -0.40640828 -0.22611022
-0.08390707 0.0646012 0.30316314 -0.09761208 0.061017454 -0.1110177 -0.088214956 0.01912472
0.16581939 -0.07137532 -0.104836054 -0.110005915 0.11431045 0.2506768 0.117430806 0.087379165
0.15328427 -0.08559511 -0.11030767 -0.04775555 -0.16867934 -0.22005138 0.025690055 -0.079227835
0.16801532 0.06959355 0.24098197 0.009990099 -0.28060988 -0.18961106 -0.14556195 0.03495191
0.05854115 -0.050246418 -0.077242866 -0.18702126 -0.0030344399 -0.24378377 -0.12285093 -0.036222827
-0.077652685 -0.063365854 -0.30141777 -0.23874539 0.046564057 0.18249549 0.10470021 -0.017844886
0.08209461 -0.22349785 -0.13718085 -0.023930931 0.08604111 -0.0027337433 -0.16285533 0.055251624
-0.32916185 -0.09793559 -0.24692161 -0.28298837 -0.030435273 -0.14073282 -0.031764127 -0.07072267
-0.1647632 -0.10179781 -0.276786 0.13792673 0.04467667 -0.16329853 -0.3142248 -0.037574112
-0.120120406 -0.39765197 0.03550186 -0.2736385 -0.2826596 -0.15185203 -0.14536679 -0.094110645
-0.3834365 -0.25339523 -0.3389724 -0.15017566 -0.16401096 -0.34527597 -0.23421636 -0.0042988
0.03758974 -0.16431712 0.2449 -0.097904176 0.06839421 -0.30243915 -0.16396868 -0.10438808
-0.14280161 -0.3251249 -0.2969757 -0.3196225 -0.09600594 -0.09848929 -0.0002694769 -0.23460397
00000000: 939d 6bbe f9fc 58bd 7435 d3be 5a42 4d3d
00000010: 5cff 89bd ce84 66be 3fa8 36bd ba61 7ebe
00000020: 3269 21be 9bab 37be 05e5 793d 1b36 e0bd
00000030: 1a2f f2be 60b0 6cbe 7b64 29be 6e9a 973c
00000040: 57f7 2dbe 7373 b0be 18cd 72bd cb42 96be
00000050: d028 f5bd 9b4d f1bd 2fa2 e5be 0d5c bcbd
00000060: ea50 55be 71d7 07be bae6 4fbe 1527 34be
00000070: a1e5 97be 1a6b bebd dd8f 50bd 1670 cebe
00000080: e33c 45be 1177 77bb 4ba6 36be 9d46 c5bd
00000090: bf0d 653e 031e 53be 4130 6e3d 9c10 86be
000000a0: 106b 7fbe 7a4c f9bd 0f18 093d 40d9 01be
000000b0: 1038 efbd 6a13 9ebe c810 80be 4884 2ebe
000000c0: be1e 96be 6f85 56be 9c8a 0ebe 09f4 a83c
000000d0: f586 a5be 33c6 4a3d 0d23 c2be ff7c 58be
000000e0: b902 0cbe daa1 16be f4ca 043e 35db 72be
000000f0: 6466 ea3d 4427 e8bd 68db 09bf db9d 853c
00000100: 6643 90bd bfb8 40be 1738 01be 49cb 9dbe
00000110: a9d4 73bd 7838 4ebe d946 e2bd 5288 09be
00000120: 78c4 fdbc 5ef1 603d 664b 283e 4198 593d
00000130: adcd a7be 81de 673d eeb5 a7be 64a6 0dbe
00000140: 30ac e7be db98 8cbe 71ee 08bd 3f9f 383d
00000150: dfcc fd3c 8d5d a0be 3800 2b3e 07ea d0bd
00000160: 0a4d 373d 29b5 bcbe 5c0f 88be fc7b 263e
00000170: da63 72be 64c3 adbe bf14 d0be 7089 67be
00000180: 78d7 abbd a24d 843d 3338 9b3e d8e8 c7bd
00000190: 70ed 793d 3f5d e3bd 0baa b4bd 72ab 9c3c
000001a0: 8fcc 293e 392d 92bd 49b4 d6bd c84a e1bd
000001b0: 991b ea3d b658 803e 907f f03d d9f3 b23d
000001c0: 8df6 1c3e 7d4c afbd fde8 e1bd 539b 43bd
000001d0: 47ba 2cbe 2655 61be f373 d23c 3442 a2bd
000001e0: 350c 2c3e 1087 8e3d fac3 763e 83ad 233c
000001f0: 19ac 8fbe 6729 42be 310e 15be bc29 0f3d
00000200: d8c8 6f3d 30cf 4dbd 8231 9ebd 8082 3fbe
00000210: 74dd 46bb 74a2 79be 4599 fbbd 635e 14bd
00000220: 5f08 9fbd f5c5 81bd 6e53 9abe ac79 74be
00000230: f4b9 3e3d 19e0 3a3e 106d d63d 702f 92bc
00000240: 3821 a83d 9fdc 64be 2379 0cbe cd0a c4bc
00000250: 5236 b03d 9a28 33bb 8cc3 26be 874f 623d
00000260: e787 a8be 7492 c8bd 05d9 7cbe dae3 90be
00000270: 6553 f9bc 441c 10be 1a1b 02bd 0cd7 90bd
00000280: afb7 28be 5f7b d0bd e5b6 8dbe aa3c 0d3e
00000290: e2fe 363d bb37 27be 13e2 a0be 50e7 19bd
000002a0: b001 f6bd 0a99 cbbe 666a 113d 581a 8cbe
000002b0: c2b8 90be 197f 1bbe 08db 14be 15bd c0bd
000002c0: ca51 c4be 05bd 81be ca8d adbe a6c7 19be
000002d0: 7df2 27be 03c8 b0be 6ad6 6fbe f3dc 8cbb
000002e0: b3f7 193d bf42 28be 11c7 7a3e fc81 c8bd
000002f0: 4312 8c3d 4ed9 9abe 68e7 27be 6bc9 d5bd
00000300: 963a 12be c576 a6be 330d 98be 8fa5 a3be
00000310: c39e c4bd c1b4 c9bd 9448 8db9 063c 70be

attn.weight f4 [1, 100]
0.021423068 -0.17010592 0.13380921 0.638879 -0.24551916 -0.27468315 -0.005162024 -0.19200404
0.29032308 0.33092237 -0.11015766 -0.04878761 -0.3513065 0.18334514 0.13259505 -0.24864893
0.11939763 -0.31494728 -0.114791416 0.08792666 -0.11055596 -0.16419755 0.17356096 -0.12289058
0.15265644 -0.26345384 0.14933075 -0.14508714 -0.18698665 -0.016908074 0.09532036 0.10453799
0.03508099 0.2961037 -0.27820846 -0.12842663 -0.3465536 0.25220838 -0.029587949 0.04458089
0.08773352 -0.00939095 0.012454269 -0.2113371 -0.076191895 0.14320031 0.06264826 -0.08668805
-0.12174303 0.22172317 0.079590075 0.3319592 0.13880926 -0.13316064 -0.40164876 0.2659002
0.23905793 -0.11589304 -0.12323173 -0.39551085 0.044493407 -0.224646 -0.009981991 0.34542853
0.27517456 -0.07512921 0.30777657 0.03342124 -0.6670653 -0.07498623 -0.3039403 -0.09910148
0.06224311 -0.0204372 0.3554696 -0.18450218 -0.06586816 0.10767634 -0.19163984 0.15524031
0.056549564 -0.024777798 -0.17200305 0.44589263 0.1084797 0.43203458 0.49503157 0.03787722
0.35615104 -0.20254597 -0.07691636 -0.28080717 -0.19219697 0.11542252 -0.026228344 0.15143655
0.17872912 -0.036100473 0.18575403 -0.12642552
00000000: 6e7f af3c 3f30 2ebe 4805 093e 938d 233f
00000010: 6069 7bbe 45a3 8cbe 3226 a9bb b59c 44be
00000020: 3aa5 943e a86e a93e 579a e1bd 84d5 47bd
00000030: 72de b3be d4be 3b3e ffc6 073e d39d 7ebe
00000040: bf86 f43d c540 a1be c317 ebbd e512 b43d
00000050: 2a6b e2bd 6723 28be f7b9 313e 0eae fbbd
00000060: f851 1c3e 6ce3 86be 29ea 183e b991 14be
00000070: 6e79 3fbe cd82 8abc 5237 c33d 0418 d63d
00000080: 16b1 0f3d e79a 973e 5771 8ebe 4582 03be
00000090: 796f b1be 7521 813e 6d62 f2bc 749a 363d
000000a0: a2ad b33d 80dc 19bc fe0c 4c3c c168 58be
000000b0: 7f0a 9cbd 1aa3 123e bb4d 803d 8189 b1bd
000000c0: 6954 f9bd 660b 633e 1f00 a33d 8ef6 a93e
000000d0: 0424 0e3e 435b 08be e8a4 cdbe 1224 883e
000000e0: 9acb 743e 5559 edbd eb60 fcbd 6680 cabe
000000f0: b83e 363d 9a09 66be 818b 23bc 02dc b03e
00000100: aee3 8c3e 58dd 99bd e494 9d3e b6e4 083d
00000110: cbc4 2abf 6192 99bd 109e 9bbe b7f5 cabd
00000120: a2f2 7e3d ea6b a7bc 1d00 b63e 24ee 3cbe
00000130: e3e5 86bd 6a85 dc3d 3c3d 44be 51f7 1e3e
00000140: 84a0 673d cffa cabc 9121 30be 0a4c e43e
00000150: 9b2a de3d a333 dd3e c774 fd3e 2525 1b3d
00000160: 6e59 b63e 3668 4fbe 5386 9dbd f5c5 8fbe
00000170: 48cf 44be a462 ec3d d3dc d6bc 2f12 1b3e
00000180: c404 373e 17de 13bd 4e36 3e3e b175 01be
