saved_models/agg_predictor.pth (torch_old, 852497 bytes, 21 tensors)

rnn.weight_ih_l0 f4 [200, 300]
-0.18540117 -0.12733345 0.085419774 0.0047795703 0.1640937 0.25857675 0.03549318 -0.03202032
0.02175449 -0.012795878 -0.25994468 0.3117344 -0.068922564 0.0043766005 -0.11748394 0.16273598
0.031378664 -0.14564519 0.19366787 0.16095662 0.28698283 0.10533758 0.06535173 -0.10106854
0.29865047 -0.27485937 0.056623343 -0.0042450135 0.12558606 0.05738528 0.0064635514 0.271486
0.19175251 -0.020287944 0.17472774 0.02081838 -0.1251382 -0.04449833 -0.086320534 0.120074086
-0.14230625 0.29914495 -0.044447064 0.09830557 -0.06053545 -0.19457662 0.17212899 0.12706734
-0.110730916 0.108169064 -0.106101684 -0.20666856 -0.08691673 0.036033157 -0.018317057 0.017528921
0.13884816 -0.0033321704 -0.20477515 0.12702453 0.27423498 -0.016907228 0.15303901 0.116837285
-0.05905152 -0.100698106 -0.1209234 0.18570042 -0.009323731 0.09780436 0.11112822 -0.20127083
0.085708976 0.12958404 0.03184645 0.096509226 0.022551645 -0.051702667 -0.09668761 -0.00467868
-0.046214264 -0.06227846 0.17455156 0.10699027 0.0055525056 0.06820503 0.28811973 0.14783692
0.30844364 0.055486284 0.15788248 -0.15137836 0.015500206 -0.024504801 0.0501852 0.10553133
0.05823493 0.15073112 0.08170566 -0.07715486 0.072735384 -0.07131125 0.17761016 -0.19041306
-0.030623166 0.020044101 0.14188085 -0.091409914 0.16150437 -0.061390642 -0.04216627 -0.048498854
-0.04287564 -0.023789003 -0.20695001 0.0417608 -0.11816805 -0.03949487 -0.06633547 -0.1213776
-0.006999398 -0.008999985 0.19512372 0.112244815 -0.046576288 -0.013073011 0.18924633 -0.09961482
0.19185466 -0.06503724 -0.08686626 -0.05544934 0.040855467 0.19502074 0.14086527 -0.16805355
-0.011095217 0.04196582 -0.18673211 0.003993545 -0.10550955 -0.088687025 0.08178749 -0.13470443
0.070030585 -0.089663215 0.040631674 0.04426277 0.10323161 -0.009655922 0.17027302 -0.043462276
0.13094233 -0.07335704 0.17664823 0.12621321 -0.21254829 -0.15947336 0.028155139 -0.22522363
-0.059401702 0.06473676 0.05353348 -0.2271528 -0.073320605 0.012858064 0.011912306 0.014980035
0.045658875 -0.11832446 0.019000066 -0.26715592 0.14762008 0.14628041 -0.083126396 -0.052189853
-0.026723053 -0.1209347 -0.20544884 -0.15125787 0.056621637 -0.18315424 0.05151307 0.007168597
0.0012204828 -0.07928487 -0.15163802 -0.058654312 -0.15028083 0.11620662 0.16494969 0.07925551
-0.22610255 -0.12531807 -0.070970446 0.056308802 -0.06710726 0.09204497 0.18151033 -0.1428035
-0.004904103 -0.014525405 -0.021399051 0.05928378 0.3212216 0.030152233 0.0009842475 0.038391486
0.0910601 0.06404145 -0.06123208 0.2809564 -0.07158619 -0.22365034 0.17310946 -0.09130908
-0.029832788 -0.036453992 0.0837415 -0.03199894 -0.20556402 0.06403098 0.12758234 0.058829412
-0.0767608 0.15947127 -0.052376907 0.08889082 0.0140475035 -0.15522288 0.1739254 -0.10332041
0.38337746 0.053374436 -0.0872727 -0.17790058 -0.054088052 -0.20649594 0.041915275 -0.15372999
-0.3244032 -0.1688998 -0.048403464 -0.08616128 -0.041711543 0.09274592 0.037718635 0.018083373
-0.044421665 0.029734148 0.018563146 -0.044496346 -0.027571235 0.03861641 -0.17030849 -0.08193968
00000000: ced9 3dbe b363 02be 90f0 ae3d f19d 9c3b
00000010: 2e08 283e 2c64 843e 4c61 113d bd27 03bd
00000020: 7936 b23c cda5 51bc 7817 85be a79b 9f3e
00000030: 4627 8dbd 9669 8f3b 6c9b f0bd 43a4 263e
00000040: ea86 003d 0324 15be df50 463e d0d1 243e
00000050: 6aef 923e 3bbb d73d 21d7 853d 06fd cebd
00000060: b7e8 983e 5eba 8cbe e1ed 673d c119 8bbb
00000070: a299 003e d40c 6b3d 33cc d33b 3700 8b3e
00000080: c55a 443e e732 a6bc d4eb 323e 4f8b aa3c
00000090: 3a24 00be e243 36bd d2c8 b0bd 67e9 f53d
000000a0: bbb8 11be 8729 993e 200e 36bd 6e54 c93d
000000b0: 05f4 77bd 183f 47be 9542 303e f11d 023e
000000c0: e4c6 e2bd be87 dd3d d74b d9bd eca0 53be
000000d0: 6601 b2bd 8197 133d a70d 96bc d098 8f3c
000000e0: 362e 0e3e 8b60 5abb 94b0 51be b812 023e
000000f0: 8768 8c3e 0781 8abc 42b6 1c3e 6348 ef3d
00000100: 02e0 71bd cf3a cebd b0a6 f7bd 4028 3e3e
00000110: 90c2 18bc a74d c83d 3197 e33d f119 4ebe
00000120: 3088 af3d aeb1 043e 6c71 023d a1a6 c53d
00000130: 3abe b83c 2dc6 53bd 2704 c6bd 9d4f 99bb
00000140: 2b4b 3dbd b317 7fbd a5bd 323e b71d db3d
00000150: cbf1 b53b 14af 8b3d 6e84 933e 9062 173e
00000160: 53ec 9d3e 9645 633d f2ab 213e ee02 1bbe
00000170: 93f4 7d3c 4bbe c8bc ff8e 4d3d cf20 d83d
00000180: c087 6e3d 4259 1a3e 4c55 a73d 5e03 9ebd
00000190: 4af6 943d a20b 92bd 70df 353e a4fb 42be
000001a0: 6fdd fabc 8733 a43c 3749 113e 1f35 bbbd
000001b0: 6761 253e c174 7bbd 8ab6 2cbd bca6 46bd
000001c0: 5e9e 2fbd 28e1 c2bc b4ea 53be 5f0d 2b3d
000001d0: 1702 f2bd 5fc5 21bd e4da 87bd d294 f8bd
000001e0: 355b e5bb ac74 13bc 83ce 473e 9ce0 e53d
000001f0: c7c6 3ebd 2f30 56bc cac9 413e db02 ccbd
00000200: 8c75 443e 3f32 85bd f0e6 b1bd d91e 63bd
00000210: 1058 273d 84b3 473e fc3e 103e 3b16 2cbe
00000220: b7c8 35bc 5ae4 2b3d b436 3fbe 49dc 823b
00000230: 6415 d8bd 8ba1 b5bd 3380 a73d f5ef 09be
00000240: 326c 8f3d 59a1 b7bd 666d 263d e14c 353d
00000250: 186b d33d df33 1ebc 0d5c 2e3e 8005 32bd
00000260: bf15 063e 373c 96bd 46e3 343e 093e 013e
00000270: 42a6 59be fc4c 23be 9ba5 e63c 06a1 66be
00000280: 334f 73bd b594 843d ec45 5b3d be9a 68be
00000290: 1d29 96bd a1aa 523c d52b 433c d26e 753c
000002a0: cd04 3b3d 1854 f2bd 07a6 9b3c a9c8 88be
000002b0: b829 173e 88ca 153e 2c3e aabd 07c5 55bd
000002c0: 4eea dabc 9dac f7bd 2e61 52be 58e3 1abe
000002d0: 17ec 673d c98c 3bbe 5eff 523d 8de6 ea3b
000002e0: 9bf8 9f3a 1b60 a2bd ff46 1bbe 813f 70bd
000002f0: 38e3 19be bdfd ed3d 92e8 283e b650 a23d
00000300: 6d87 67be 6153 00be f458 91bd 0fa4 663d
00000310: 886f 89bd 1382 bc3d d8dd 393e 153b 12be
00000320: 99b2 a0bb f7fb 6dbc 104d afbc 8dd3 723d
00000330: 2877 a43e d101 f73c de01 813a 6440 1d3d
00000340: b87d ba3d 2a28 833d 7dce 7abd 84d9 8f3e
00000350: c89b 92bd 9804 65be 9b43 313e 4100 bbbd
00000360: e463 f4bc c850 15bd aa80 ab3d 5211 03bd
00000370: 607f 52be ad22 833d f2a4 023e 1cf7 703d
00000380: c434 9dbd 704c 233e 2b89 56bd 640c b63d
00000390: 8027 663c bff2 1ebe 8019 323e a799 d3bd
000003a0: 0d4a c43e 279f 5a3d 08bc b2bd 922b 36be
000003b0: 6f8b 5dbd ac73 53be 5aaf 2b3d 656b 1dbe
000003c0: 2d18 a6be 12f4 2cbe b642 46bd 5375 b0bd
000003d0: b9d9 2abd 93f1 bd3d db7e 1a3d 9523 943c
000003e0: 7ef3 35bd 0795 f33c bd11 983c cd41 36bd
000003f0: 12dd e1bc 3e2c 1e3d 5965 2ebe fecf a7bd

rnn.weight_hh_l0 f4 [200, 50]
0.117160976 -0.07803263 0.11996251 0.0077880183 0.20785385 -0.08292545 -0.103042185 -0.06552608
0.022902507 -0.22973655 -0.116742775 0.18654807 0.16826792 -0.044811938 0.1249837 0.14075981
0.088488504 -0.124015205 -0.030967787 -0.054754253 -0.03915686 0.040239066 0.046890095 0.025182439
-0.05334038 0.117207885 -0.025675548 0.052282624 0.021389678 0.033335116 -0.04938989 -0.13476223
0.05562129 0.05487817 0.07494356 -0.09162068 -0.14781764 0.09609044 -0.15323488 0.046964075
0.025475841 -0.05900932 0.17368843 0.019751912 0.017988961 0.047716074 0.18701902 0.15174639
-0.006380708 -0.0027459594 -0.046802014 -0.099684305 -0.07855884 0.0033707 -0.11211453 -0.075924456
0.10415784 0.016080948 0.15462108 -0.055355255 -0.051422667 0.10586525 -0.09404319 0.07716787
0.096691765 -0.09617491 -0.116802715 -0.17386483 0.3157208 0.0521732 0.12065136 0.02096939
0.2391318 -0.28017637 0.03595306 0.013487083 0.05211114 -0.11505454 0.14977264 -0.06043937
0.11286717 -0.21303576 -0.26924914 -0.06474856 -0.18136498 0.012339541 0.19856566 0.13720244
-0.33676913 0.05517618 -0.031833336 0.29577047 -0.0045780386 0.12779093 -0.078247026 -0.17267902
0.17415763 0.03341905 -0.20992398 -0.07811954 0.01513498 -0.16228674 0.18684547 0.12973759
0.29490152 0.07638882 0.014617273 -0.0044492115 -0.09094223 -0.043388005 0.080609255 0.06933066
-0.13131712 0.055012006 0.30015323 0.09720401 -0.48808745 -0.109285064 0.07694527 -0.050949298
-0.12482891 0.032133684 0.25011557 -0.008001408 0.13220379 -0.13631678 -0.16716485 -0.04190642
-0.14386031 -0.09321287 0.017964015 -0.25257382 -0.2488483 0.084260926 -0.023618082 0.011439411
0.24279657 0.007238529 -0.19022018 0.2833245 -0.09582873 0.20615731 -0.059089042 -0.05323986
0.020433556 -0.099816024 0.18760651 0.08792323 -0.11868815 -0.04231896 -0.008991896 -0.2013507
-0.063748926 -0.27586094 0.2314933 -0.02936005 0.043997083 0.043012228 -0.12293082 0.19963099
-0.17979318 -0.021226171 -0.012029233 0.23564525 0.057294145 -0.0117647555 -0.24478525 0.08801337
-0.14735888 0.011922044 0.16772844 -0.06274307 -0.028242998 -0.08604693 0.0017788205 0.086925715
-0.012930611 0.075684726 0.14553942 -0.06660384 -0.048915826 -0.023375614 0.057492293 -0.062485833
0.0926876 0.13290139 -0.0100623835 -0.03850004 -0.044771194 -0.09083265 0.047164228 0.15594858
0.12224775 -0.12818743 0.22390456 -0.13511176 0.12763381 0.13268577 0.010998172 -0.069858424
-0.0451674 0.048481133 0.08717474 0.15995929 -0.08599626 -0.00053002156 -0.15863559 0.15283526
-0.03293458 -0.01666448 0.0065576513 -0.0914708 -0.03375883 0.001176739 -0.1242523 0.038518548
-0.19936779 -0.03980041 -0.13817978 -0.0605924 0.090099424 -0.0050573354 -0.048109505 0.09574913
-0.08271561 0.06865941 0.030478671 0.12367759 0.1384327 0.04315001 0.16361724 -0.024650402
-0.22121039 -0.17716499 -0.057047054 -0.086472124 0.068062924 0.063806534 -0.10868931 0.06579524
0.040285464 0.01627518 -0.1803061 0.11798367 0.027209755 -0.07408405 -0.059181985 0.030321116
-0.08323474 0.14378889 -0.19260405 -0.079672895 -0.1494775 0.059827235 0.17374848 -0.029106447
00000000: 18f2 ef3d 92cf 9fbd e8ae f53d a232 ff3b
00000010: a4d7 543e d1d4 a9bd c807 d3bd 8a32 86bd
00000020: 0a9e bb3c 0f40 6bbe d616 efbd 7506 3f3e
00000030: 6d4e 2c3e b98c 37bd 74f7 ff3d 5723 103e
00000040: 7639 b53d affb fdbd 28b0 fdbc ff45 60bd
00000050: f262 20bd b8d1 243d d40f 403d 674b ce3c
00000060: 717b 5abd b00a f03d 8755 d2bc 4e26 563d
00000070: 6839 af3c 678a 083d 0e4d 4abd 1cff 09be
00000080: 26d3 633d efc7 603d 027c 993d a0a3 bbbd
00000090: 825d 17be 11cb c43d 9be9 1cbe 675d 403d
000000a0: b6b2 d03c c2b3 71bd 61db 313e c3ce a13c
000000b0: 965d 933c ee71 433d ea81 3f3e 6863 1b3e
000000c0: 4215 d1bb 8ef5 33bb 78b3 3fbd 4927 ccbd
000000d0: 75e3 a0bd f6e6 5c3b 4d9c e5bd 487e 9bbd
000000e0: b550 d53d 31bc 833c fd54 1e3e 31bc 62bd
000000f0: 93a0 52bd e1cf d83d b799 c0bd 300a 9e3d
00000100: 5506 c63d 5af7 c4bd 4336 efbd 9f09 32be
00000110: 28a6 a13e 91b3 553d 0f18 f73d 00c8 ab3c
00000120: f7de 743e 4773 8fbe 8443 133d edf8 5c3c
00000130: 7e72 553d b7a1 ebbd 005e 193e 468f 77bd
00000140: e726 e73d 0c26 5abe 06db 89be e59a 84bd
00000150: beb7 39be c92b 4a3c cc54 4b3e cc7e 0c3e
00000160: 016d acbe 6b00 623d ac63 02bd 3a6f 973e
00000170: 5f03 96bb a0db 023e fa3f a0bd c5d2 30be
00000180: 6156 323e 6ae2 083d 50f6 56be 23fd 9fbd
00000190: b5f8 773c 7f2e 26be 6b54 3f3e eed9 043e
000001a0: 55fd 963e be71 9c3d 497d 6f3c b1ca 91bb
000001b0: eb3f babd 9fb7 31bd 7716 a53d 3cfd 8d3d
000001c0: ff77 06be 4554 613d afad 993e e512 c73d
000001d0: 99e6 f9be d9d0 dfbd 7b95 9d3d 36b0 50bd
000001e0: 4da6 ffbd 9c9e 033d 260f 803e 5618 03bc
000001f0: 6e60 073e a096 0bbe 432d 2bbe 11a6 2bbd
00000200: 1e50 13be 64e6 bebd 4529 933c 5b51 81be
00000210: 17d2 7ebe fe90 ac3d b57a c1bc 5e6c 3b3c
00000220: aa9f 783e 2f31 ed3b 14c9 42be e90f 913e
00000230: da41 c4bd e71a 533e 5a07 72bd 0a12 5abd
00000240: 4664 a73c 586c ccbd ec1b 403e 1811 b43d
00000250: c612 f3bd a556 2dbd bf52 13bc e12e 4ebe
00000260: cc8e 82bd a53d 8dbe 940c 6d3e 7d84 f0bc
00000270: 4936 343d 972d 303d 27c3 fbbd 116c 4c3e
00000280: b41b 38be 82e2 adbc 4316 45bc fd4c 713e
00000290: 44ad 6a3d f6c0 40bc fca8 7abe 5b40 b43d
000002a0: 3fe5 16be ad54 433c 01c1 2b3e 707f 80bd
000002b0: dc5d e7bc 5f39 b0bd 5027 e93a 1c06 b23d
000002c0: eada 53bc 9800 9b3d 4908 153e 9867 88bd
000002d0: f65b 48bd 377e bfbc 0a7d 6b3d 25f1 7fbd
000002e0: ffd2 bd3d 4d17 083e b2dc 24bc 38b2 1dbd
000002f0: 0062 37bd 7806 babd 472f 413d fcb0 1f3e
00000300: 075d fa3d 9143 03be 3d47 653e bd5a 0abe
00000310: 70b2 023e c7de 073e ad31 343c ef11 8fbd
00000320: 7401 39bd 2794 463d ac88 b23d 5ecc 233e
00000330: cf1e b0bd 25f1 0aba 5e71 22be d980 1c3e
00000340: 69e6 06bd f383 88bc 91e1 d63b 0b55 bbbd
00000350: b346 0abd cf3c 9a3a fd77 febd a0c5 1d3d
00000360: 1227 4cbe c105 23bd 007f 0dbe bd2f 78bd
00000370: 0c86 b83d 01b8 a5bb 790e 45bd 1f18 c43d
00000380: cd66 a9bd 4e9d 8c3d 68ae f93c ad4a fd3d
00000390: 4dc1 0d3e 11be 303d 478b 273e a4ef c9bc
000003a0: fa84 62be bd6a 35be 2caa 69bd 4c18 b1bd
000003b0: 9364 8b3d 00ad 823d 8098 debd a8bf 863d
000003c0: 5f02 253d 8753 853c 2aa2 38be 6ca1 f13d
000003d0: fee6 de3c 61b9 97bd cf68 72bd fd63 f83c
000003e0: fa76 aabd 653d 133e ff39 45be 8b2b a3bd
000003f0: a110 19be 670d 753d 1feb 313e a570 eebc

rnn.bias_ih_l0 f4 [200]
0.09941524 0.14272898 0.026226666 -0.18838142 -0.020397568 0.02169655 -0.040098753 0.07574434
0.032431886 -0.04333032 -0.07151699 -0.05240551 0.08795693 -0.12776047 -0.17810172 0.10625792
-0.035426747 0.0491581 0.07705342 -0.06254209 -0.11463372 0.084526144 -0.113195345 0.090829
0.08011517 0.053015165 -0.15552513 0.07540818 -0.070426695 -0.028681282 -0.0103803035 -0.0017196593
-0.00938115 -0.012634544 0.049903005 -0.10222916 -0.08436798 0.030299641 -0.030577566 -0.075915925
0.016745683 0.008023785 -0.12519506 -0.080589995 -0.004212863 0.11061944 0.09118012 -0.0013402087
0.116899006 -0.05965921 0.20358 -0.12500352 0.010335565 0.18816106 -0.05251534 0.09674731
0.09116653 0.057056732 -0.03608323 0.106898084 0.019058436 -0.104977265 0.21508142 0.009992853
-0.08959678 0.056490086 -0.08908255 0.06404847 0.1593103 -0.0279283 0.07496469 -0.07069524
0.028227761 0.016885351 0.07351289 0.09797782 0.09265267 -0.060934972 0.1256952 0.12202818
0.12785612 -0.0501421 0.018628713 -0.05551249 0.03941012 0.038124766 0.1771906 0.10313954
-0.0033649434 -0.016427055 -0.08365655 -0.08926245 0.091565564 -0.06243247 0.03036736 0.09120452
0.103166595 0.08270927 0.04989931 0.16007112 -0.098207854 -0.095854 0.06425263 -0.079188086
0.09315202 -0.024850065 0.05074488 -0.014060043 0.14991021 0.0016184871 -0.10217447 -0.099359035
-0.18764076 0.012963417 0.03913027 0.071157284 0.17601174 0.11816516 0.01940533 -0.06839395
0.044935077 -0.14023791 -0.059392307 0.0055380403 -0.011972604 0.044992097 -0.104738936 -0.11961319
-0.13258864 -0.06752955 0.104748584 -0.09903758 -0.131333 0.032948833 0.037108004 0.017404301
0.07922057 -0.005212511 0.115404844 0.021696463 0.12757514 -0.035879888 -0.08810757 0.019428546
-0.022410262 -0.074127585 0.056697737 -0.05489832 0.02117635 -0.11637303 0.14752014 0.1813958
0.11772214 -0.09617403 0.061885014 -0.066096224 0.07822052 0.08658884 -0.08994853 -0.07260643
-0.023986502 0.10987943 0.12530956 0.045383032 0.13759245 0.15736164 0.06846202 0.10347242
0.12210343 -0.11051541 0.12498703 0.14731462 -0.055155598 0.12728637 -0.05141752 0.18244626
-0.1255142 0.010002115 -0.07779441 0.054970518 -0.078294076 -0.06582256 -0.04803658 0.039813824
0.037165884 0.054884862 0.051097024 0.12618352 0.19833127 0.018781153 0.17056283 0.062696375
-0.012130389 0.1856793 0.026221523 0.15336572 0.2326065 -0.035176583 0.083746925 0.038266983
00000000: 389a cb3d 8c27 123e 4ed9 d63c 0fe7 40be
00000010: cd18 a7bc f7bc b13c 973e 24bd d91f 9b3d
00000020: 4cd7 043d 227b 31bd 8077 92bd 29a7 56bd
00000030: c322 b43d a4d3 02be 4c60 36be c19d d93d
00000040: a31b 11bd 015a 493d 2fce 9d3d 1116 80bd
00000050: 15c5 eabd 0b1c ad3d f6d2 e7bd 8e04 ba3d
00000060: 6c13 a43d 6e26 593d fb41 1fbe 9b6f 9a3d
00000070: df3b 90bd 02f5 eabc 2612 2abc 3166 e1ba
00000080: 65b3 19bc 1e01 4fbc 1867 4c3d 865d d1bd
00000090: 1fc9 acbd f436 f83c ce7d fabc cf79 9bbd
000000a0: 3e2e 893c 3276 033c 2233 00be 5e0c a5bd
000000b0: 0e0c 8abb 728c e23d a5bc ba3d f1a9 afba
000000c0: bf68 ef3d 375d 74bd 4777 503e ec00 00be
000000d0: 8056 293c 4bad 403e 531a 57bd 7423 c63d
000000e0: 85b5 ba3d 52b4 693d 02cc 13bd 62ed da3d
000000f0: 7020 9c3c 52fe d6bd 4e3e 5c3e 10b9 233c
00000100: 847e b7bd 2662 673d e970 b6bd d82b 833d
00000110: 3d22 233e e4c9 e4bc 1687 993d aac8 90bd
00000120: e83d e73c 2653 8a3c ed8d 963d 98a8 c83d
00000130: afc0 bd3d f396 79bd 3eb6 003e e9e9 f93d
00000140: b7ec 023e cd61 4dbd 3e9b 983c 1161 63bd
00000150: 826c 213d b728 1c3d 7471 353e d33a d33d
00000160: 6286 5cbb 0892 86bc 2054 abbd 3bcf b6bd
00000170: ba86 bb3d 31b9 7fbd f8c4 f83c 6fc9 ba3d
00000180: 0249 d33d 7a63 a93d 3863 4c3d afe9 233e
00000190: 3321 c9bd 1a4f c4bd e296 833d 5d2d a2bd
000001a0: 7cc6 be3d 5d92 cbbc ddd9 4f3d 185c 66bc
000001b0: 1082 193e 6a23 d43a d940 d1bd c07c cbbd
000001c0: e624 40be 8364 543c 1047 203d e9ba 913d
000001d0: 6c3c 343e 9300 f23d edf7 9e3c 2112 8cbd
000001e0: d80d 383d 879a 0fbe 5945 73bd 7378 b53b
000001f0: be28 44bc a249 383d 5e81 d6bd c3f7 f4bd
00000200: 51c5 07be ef4c 8abd 6d86 d63d 37d4 cabd
00000210: 287c 06be 5bf5 063d 90fe 173d 7793 8e3c
00000220: 653e a23d b6cd aabb 6059 ec3d c8bc b13c
00000230: 0fa3 023e caf6 12bd be71 b4bd 9d28 9f3c
00000240: ba95 b7bc 34d0 97bd e33b 683d 10dd 60bd
00000250: 067a ad3c fc54 eebd 850f 173e d2bf 393e
00000260: 4e18 f13d e4f6 c4bd 247b 7d3d 755d 87bd
00000270: 1432 a03d 7d55 b13d ef36 b8bd aeb2 94bd
00000280: 577f c4bc 7708 e13d 2651 003e 8fe3 393d
00000290: 09e5 0c3e 6923 213e d135 8c3d 59e9 d33d
000002a0: 5d11 fa3d e755 e2bd 33f9 ff3d a5d9 163e
000002b0: d6ea 61bd 5c57 023e 2d9b 52bd 31d3 3a3e
000002c0: cb86 00be e9df 233c ad52 9fbd c428 613d
000002d0: a558 a0bd facd 86bd 01c2 44bd d213 233d
000002e0: 413b 183d f3ce 603d 1d4b 513d 4136 013e
000002f0: 5a17 4b3e efda 993c 06a8 2e3e f566 803d
00000300: 8abe 46bc b722 3e3e 85ce d63c e70b 1d3e
00000310: 6630 6e3e 5215 10bd 8283 ab3d d7bd 1c3d

rnn.bias_hh_l0 f4 [200]
0.078137845 0.051010985 -0.012865316 -0.019479921 0.012440704 0.13732405 -0.17484011 0.0736358
-0.08244581 -0.08923975 0.10348742 0.05380111 0.07054441 -0.043667346 -0.08543438 0.09379553
-0.09182554 -0.09109844 0.044560768 0.0014408682 -0.10844787 -0.08360412 -0.031358454 0.059187576
-0.06654685 -0.08776657 0.027894156 -0.031270698 0.08965326 -0.06142324 -0.01622797 -0.036205266
0.167967 0.11436787 0.11116747 -0.030663742 0.025697712 -0.18626657 0.17953108 0.054924656
0.041959904 0.0742395 -0.042144053 -0.009361097 -0.026665607 0.107458524 0.09233519 -0.0015683125
0.10164222 -0.060696058 0.05228976 0.0021743404 0.12671469 0.052209236 0.10437386 0.015367157
0.043622006 0.08207355 0.092728965 0.06627556 0.084636524 0.124568574 0.093763545 -0.039247908
-0.026588175 -0.09128932 -0.08954734 0.044145465 0.0032403367 -0.016942553 0.06931959 0.12192144
0.095006295 0.1807779 0.03335207 0.061740346 -0.00010090224 0.18373801 0.058694523 -0.11599964
-0.018633747 -0.12413791 -0.0068077706 -0.007859014 0.056690093 0.14851692 -0.014549508 0.1489737
-0.03440797 0.0062830052 0.17971003 -0.13004322 0.042355128 -0.061542083 0.09173878 0.21098848
0.04652523 -0.12782682 -0.10199944 -0.024556043 -0.11167798 0.0061758966 0.026846351 -0.13339953
0.09440699 -0.12868206 0.0862838 0.061365683 0.17054617 -0.11292973 -0.1212869 -0.029209182
0.034506023 0.13857655 0.07288819 -0.10062255 0.018905256 0.05132479 0.02619107 -0.13084865
-0.06295782 0.10789083 -0.16241768 0.07023519 0.039741375 -0.011032073 -0.018407673 0.09455231
0.020867752 0.1031257 -0.030936867 0.012887049 0.115900576 -0.1397512 0.0052905376 -0.07203499
0.10531525 -0.07868787 -0.038324654 -0.1718334 0.09967444 0.052216355 -0.009901579 0.10976061
0.115228064 0.018620647 -0.025516098 0.12493838 0.025120592 0.10010855 -0.046501145 0.06922542
0.13719787 0.017808113 0.14043945 0.14520101 -0.009737443 -0.006794158 0.070776485 -0.1337374
0.113055654 -0.038248945 0.059440065 0.09645961 0.08049631 0.0482274 0.10858869 -0.054943465
-0.02348962 -0.09586928 -0.03790929 0.118986204 -0.0030879495 0.11603086 -0.00787384 0.16938885
0.123607576 0.07429184 0.15211746 -0.0122721335 0.02070363 -0.034771346 0.12499612 0.056549903
-0.08807517 0.13342772 0.1303689 -0.021905892 0.19346566 0.013059687 0.17600483 0.058320623
0.07893264 0.14512949 0.057358682 -0.002532133 -0.01902159 0.13947698 -0.041904602 -0.014995296
00000000: bc06 a03d e5f0 503d 0cc9 52bc 5b94 9fbc
00000010: 18d4 4b3c ad9e 0c3e 4909 33be 5ece 963d
00000020: 59d9 a8bd 54c3 b6bd 36f1 d33d 8d5e 5c3d
00000030: 9679 903d 88dc 32bd 38f8 aebd df17 c03d
00000040: 070f bcbd d291 babd 5a85 363d 84db bc3a
00000050: eb19 debd a338 abbd b971 00bd ac6e 723d
00000060: b749 88bd f6be b3bd 4982 e43c b415 00bd
00000070: 219c b73d ef96 7bbd 85f0 84bc f94b 14bd
00000080: 8bff 2b3e b439 ea3d c5ab e33d 8732 fbbc
00000090: 0284 d23c aabc 3ebe ffd6 373e adf8 603d
000000a0: 26de 2b3d e10a 983d 3e9f 2cbd 495f 19bc
000000b0: d571 dabc 3713 dc3d 3b1a bd3d d68f cdba
000000c0: cc29 d03d 6e9c 78bd ca2d 563d 617f 0e3b
000000d0: 7fc1 013e 5ad9 553d f6c1 d53d 87c6 7b3c
000000e0: fdac 323d 2d16 a83d afe8 bd3d 7bbb 873d
000000f0: ea55 ad3d cf1d ff3d 1a07 c03d 6ac2 20bd
00000100: 72cf d9bc e5f5 babd 9964 b7bd e0d1 343d
00000110: d45b 543b 1ccb 8abc 6ef7 8d3d f3b1 f93d
00000120: a992 c23d d81d 393e 2e9c 083d 72e3 7c3d
00000130: 7a9b d3b8 d125 3c3e ab69 703d 3891 edbd
00000140: cda5 98bc 043c febd b813 dfbb 18c3 00bc
00000150: df33 683d d214 183e 0f61 6ebc 908c 183e
00000160: 5fef 0cbd abe1 cd3b e805 383e 0d2a 05be
00000170: 927c 2d3d 8d13 7cbd 8be1 bb3d 5d0d 583e
00000180: 3d91 3e3d 09e5 02be 15e5 d0bd c129 c9bc
00000190: 6db7 e4bd 2d5f ca3b e1ec db3c e399 08be
000001a0: 7458 c13d 3bc5 03be 90b5 b03d 955a 7b3d
000001b0: a8a3 2e3e b447 e7bd 4465 f8bd 1848 efbc
000001c0: 3056 0d3d 03e7 0d3e 6746 953d 3213 cebd
000001d0: 32df 9a3c f139 523d a88e d63c 30fd 05be
000001e0: 08f0 80bd def5 dc3d d250 26be 78d7 8f3d
000001f0: dac7 223d debf 34bc b0cb 96bc a4a4 c13d
00000200: d9f2 aa3c 9133 d33d 506f fdbc 3324 533c
00000210: 485d ed3d f01a 0fbe 3f5c ad3b 1587 93bd
00000220: 86af d73d 1b27 a1bd 50fa 1cbd 18f5 2fbe
00000230: 1d22 cc3d d1e0 553d 3b3a 22bc 2cca e03d
00000240: b1fc eb3d 548a 983c 2307 d1bc b2df ff3d
00000250: b3c9 cd3c b605 cd3d fc77 3ebd 0fc6 8d3d
00000260: 997d 0c3e 52e2 913c 5ccf 0f3e 93af 143e
00000270: cc89 1fbc 87a1 debb 43f3 903d 75f2 08be
00000280: b989 e73d edaa 1cbd 6d77 733d 9e8c c53d
00000290: 40db a43d 188a 453d bf63 de3d 660c 61bd
000002a0: 4e6d c0bc 1d57 c4bd c646 1bbd 0aaf f33d
000002b0: 325f 4abb 96a1 ed3d 4701 01bc 4574 2d3e
000002c0: f825 fd3d 5226 983d aec4 1b3e 0f11 49bc
000002d0: a99a a93c 666c 0ebd f7fd ff3d dfa0 673d
000002e0: c160 b4bd 47a1 083e 6d7f 053e fc73 b3bc
000002f0: dd1b 463e 4cf8 553c 9c3a 343e 9be1 6e3d
00000300: 70a7 a13d d39c 143e f0f0 6a3d 24f2 25bb
00000310: 2ad3 9bbc 0ed3 0e3e 29a4 2bbd d4ae 75bc

rnn.weight_ih_l0_reverse f4 [200, 300]
0.28507274 0.15092185 -0.36368552 -0.07195503 0.01684313 -0.13124998 -0.04072218 0.16583207
-0.011562872 0.06573212 -0.09762343 0.13528569 -0.10172739 -0.12738629 -0.14410792 -0.20279756
0.011352647 -0.14234136 -0.20866267 -0.12678611 -0.20329005 -0.17991371 -0.106993906 -0.24240136
0.09552382 0.022391794 -0.03304336 -0.051687714 0.16970435 0.01399696 -0.0026962191 0.107789665
0.14381273 0.013680174 -0.065655224 0.10302903 -0.24090183 0.013271732 0.06643964 0.023438796
-0.20455667 -0.146521 -0.21298116 0.04614912 -0.10653704 -0.025193946 -0.07347816 0.13044539
-0.12709685 0.06250241 -0.00889139 0.049351107 -0.22344863 0.2745049 -0.11349879 -0.07706756
0.03836484 -0.103243954 0.10728608 0.051299766 -0.034994557 -0.07529159 -0.29063645 0.08705779
0.090248175 0.057936892 -0.067936674 -0.22968683 -0.16982912 0.2469752 0.16114794 -0.13476206
-0.19507794 0.26876038 0.18375948 -0.21825753 -0.05695454 -0.0816203 -0.06597542 0.061495118
0.16097608 0.05350712 0.2650094 -0.1033789 -0.025826093 -0.03238016 -0.025194976 0.065191045
-0.354683 0.046754308 0.019546678 -0.08961038 -0.03700561 -0.0678716 -0.26863968 0.24699926
0.072983444 0.13921635 0.131672 -0.01993208 0.0016060614 0.010455029 0.11965271 -0.13387957
-0.0029481868 -0.042186525 0.16691928 0.064693294 0.03005682 0.008122768 -0.09236543 -0.07892925
-0.03540067 0.039001636 0.036069892 -0.02715712 0.043502998 0.08402298 0.047120642 -0.17730075
0.13643351 0.23424277 -0.0890559 0.12189795 0.15759763 0.20855331 -0.05603923 -0.041559003
-0.11466586 0.011895858 0.16273077 -0.1785142 0.018411806 -0.24231921 -0.12710387 -0.12841885
0.13315694 -0.026798628 -0.09957007 -0.2788535 -0.012318443 -0.10259481 -0.010705897 -0.34998825
-0.092423715 0.038173717 0.1286937 0.24649435 -0.13921098 0.04018845 -0.043377288 -0.010567669
0.2719568 0.34249032 0.027453823 -0.14407182 -0.06517897 0.09952922 -0.019385247 0.04600649
-0.01933884 0.14129037 0.06770404 -0.22920097 0.05014672 -0.023639832 0.45066383 -0.284125
-0.19371453 0.071735084 0.08829404 -0.1803498 -0.08221557 -0.048637327 0.21772432 -0.045371454
0.16145012 -0.092622 -0.28515017 0.04323587 0.030940225 0.088873565 -0.13272291 -0.18173145
-0.072326615 -0.0484347 -0.16708039 0.19631986 0.10076259 0.27097136 0.2244124 0.07963529
0.025298236 0.046530925 0.014086181 -0.16396782 -0.069339186 -0.004732482 -0.016019223 -0.059689786
0.08901065 0.051229402 -0.10482759 0.0089984 0.16756515 -0.026253551 -0.08678808 -0.29099938
-0.024552852 0.13270247 -0.13133426 0.08711137 0.06121638 -0.05044265 0.06986337 -0.012124416
0.021263154 -0.011520227 -0.121443614 -0.13700317 0.12713628 0.14090234 -0.18784617 -0.094892964
0.044745326 0.09860362 0.029040977 -0.099748604 -0.1528819 -0.056815542 0.1717819 -0.14401957
-0.1369441 -0.09336303 0.1509821 -0.09136402 -0.0924594 -0.13959341 0.09298174 -0.091902144
0.008904616 0.041286446 0.13454878 -0.04790357 -0.092614196 -0.15547979 -0.17719667 -0.19310844
0.060469072 0.09661092 -0.065540716 0.26884532 0.045921 -0.4252904 -0.3097083 0.1171254
00000000: 0ef5 913e 428b 1a3e fd34 babe 295d 93bd
00000010: 9bfa 893c 6566 06be 4dcc 26bd e2cf 293e
00000020: 3372 3dbc 909e 863d cbee c7bd 5588 0a3e
00000030: 7356 d0bd 8d71 02be 0791 13be 2aaa 4fbe
00000040: 7400 3a3c efc1 11be abab 55be 38d4 01be
00000050: 442b 50be 4d3b 38be 9f1f dbbd 1038 78be
00000060: fea1 c33d ff6e b73c 7958 07bd 7fb6 53bd
00000070: fac6 2d3e 8153 653c 0db3 30bb d4c0 dc3d
00000080: a543 133e cf22 603c 3f76 86bd e200 d33d
00000090: f8ae 76be ae71 593c 8211 883d b802 c03c
000000a0: 4e77 51be 9a09 16be bc17 5abe dc06 3d3d
000000b0: 1730 dabd 8963 cebc b87b 96bd 7a93 053e
000000c0: ad25 02be 4301 803d 31ad 11bc 6324 4a3d
000000d0: b8cf 64be e88b 8c3e 0e72 e8bd 99d5 9dbd
000000e0: 7324 1d3d 9171 d3bd ceb8 db3d b41f 523d
000000f0: 7456 0fbd 7a32 9abd 4dce 94be 5b4b b23d
00000100: 09d4 b83d 3c4f 6d3d 6222 8bbd 0633 6bbe
00000110: afe7 2dbe 11e7 7c3e f703 253e 11ff 09be
00000120: 83c2 47be f69a 893e 722b 3c3e e77e 5fbe
00000130: 2a49 69bd 8b28 a7bd 1f1e 87bd 4ee2 7b3d
00000140: ead6 243e 482a 5b3d 50af 873e 51b8 d3bd
00000150: 3e91 d3bc 0fa1 04bd b265 cebc e282 853d
00000160: 0399 b5be 7281 3f3d 5b20 a03c a685 b7bd
00000170: 3293 17bd 4400 8bbd 248b 89be 60ed 7c3e
00000180: 5878 953d bb8e 0e3e 06d5 063e 9a48 a3bc
00000190: 7a82 d23a 924b 2b3c 7b0c f53d ba17 09be
000001a0: 5e36 41bb c7cb 2cbd e3ec 2a3e eb7d 843d
000001b0: b839 f63c 5c15 053c 162a bdbd a9a5 a1bd
000001c0: 4b00 11bd 2ec0 1f3d 06be 133d 9c78 debc
000001d0: 3330 323d 3d14 ac3d 9301 413d 548e 35be
000001e0: 3ab5 0b3e 56dd 6f3e f162 b6bd a2a5 f93d
000001f0: 4661 213e 008f 553e 6489 65bd c639 2abd
00000200: efd5 eabd d8e6 423c e5a2 263e 6dcc 36be
00000210: 5bd4 963c 8722 78be 8427 02be 3b80 03be
00000220: 4b5a 083e cc88 dbbc 65eb cbbd e3c5 8ebe
00000230: 4bd3 49bc 3a1d d2bd c967 2fbc a931 b3be
00000240: a548 bdbd 0b5c 1c3d 48c8 033e 0469 7c3e
00000250: 538d 0ebe a59c 243d 62ac 31bd 0424 2dbc
00000260: ec3d 8b3e e45a af3e d7e6 e03c 9087 13be
00000270: 8d7c 85bd fad5 cb3d cfcd 9ebc 4d71 3c3d
00000280: 7d6c 9ebc 6cae 103e 6aa8 8a3d a9b3 6abe
00000290: a666 4d3d 52a8 c1bc 69bd e63e d578 91be
000002a0: 1a5d 46be d8e9 923d 81d3 b43d 9ead 38be
000002b0: a360 a8bd ef37 47bd 20f3 5e3e 6bd7 39bd
000002c0: 2e53 253e 9ab0 bdbd 34ff 91be 1818 313d
000002d0: 5b76 fd3c 5803 b63d 84e8 07be cf17 3abe
000002e0: fa1f 94bd 7763 46bd 1f17 2bbe 1308 493e
000002f0: 9e5c ce3d c2bc 8a3e 5dcc 653e d417 a33d
00000300: 3f3e cf3c 3697 3e3d bac9 663c 2ee7 27be
00000310: b401 8ebd f012 9bbb bf3a 83bc 477d 74bd
00000320: 374b b63d ecd5 513d d9af d6bd 066e 133c
00000330: 3396 2b3e b011 d7bc f3bd b1bd dffd 94be
00000340: 1023 c9bc 28e3 073e 7d7c 06be 7267 b23d
00000350: 07be 7a3d f49c 4ebd 8714 8f3d 7da5 46bc
00000360: 1130 ae3c 56bf 3cbc 6eb7 f8bd 8f4a 0cbe
00000370: 0330 023e b448 103e bf5a 40be 3e57 c2bd
00000380: e046 373d b2f0 c93d 58e7 ed3c ff48 ccbd
00000390: 138d 1cbe 6ab7 68bd 98e7 2f3e de79 13be
000003a0: 133b 0cbe 1e35 bfbd 0d9b 1a3e 0f1d bbbd
000003b0: 5b5b bdbd 93f1 0ebe 366d be3d 3137 bcbd
000003c0: abe4 113c fa1b 293d 28c7 093e 8936 44bd
000003d0: 83ac bdbd 1836 1fbe 0b73 35be 38be 45be
000003e0: 6bae 773d f2db c53d 363a 86bd 18a6 893e
000003f0: a917 3c3d aabf d9be 1692 9ebe 71df ef3d

rnn.weight_hh_l0_reverse f4 [200, 50]
-0.12667061 -0.13273896 0.019735947 -0.0152904 0.11199241 0.2232679 -0.2748502 0.1335341
0.13390335 0.08684962 0.009741901 -0.10964293 -0.004193446 0.07983112 0.047229722 0.04848855
0.10692172 0.25994474 0.18533988 -0.009219365 -0.05968403 0.20713948 0.15234871 -0.027221631
-0.25537962 -0.09852653 0.12379212 -0.08650067 -0.21097885 -0.0058820653 0.17765921 0.08153231
-0.012143685 0.010022142 0.09979123 0.23525237 -0.19603413 0.13640018 -0.19396742 0.2869934
0.04182146 0.054941252 0.08593316 -0.03396437 0.124080345 0.19461083 -0.019207554 -0.11532296
0.11356773 -0.42761526 -0.085948735 0.015099735 0.08012725 0.01909815 0.105290465 -0.098135725
-0.12604864 0.054089177 0.13027367 -0.093985535 -0.12772396 0.017657187 0.23303153 -0.016106693
-0.14768705 0.06694107 0.036944903 0.020033557 -0.0018888939 -0.18094751 0.015181233 -0.0715382
0.040199477 0.051159337 -0.17487776 0.026113687 -0.009234706 -0.03335264 -0.09299385 -0.17346612
0.008756995 -0.019781314 -0.13234982 -0.059304297 3.932952e-05 0.12778817 -0.06083919 0.11326703
-0.06799506 0.08782939 0.12064474 0.048125744 -0.059097834 -0.013469355 0.04836838 0.12892175
0.05785692 -0.24327861 0.14289694 -0.27733424 0.1479062 0.0119023025 -0.16954583 0.1695378
0.015038428 -0.06616885 0.09841637 -0.1114616 0.12747619 0.18438104 -0.33081457 -0.20664519
0.23754644 -0.06922194 -0.21156606 -0.06364894 0.08799765 -0.05963644 0.021113161 -0.16725619
-0.001658484 -0.001699532 0.107324615 -0.11594332 -0.12769388 -0.036985103 -0.070979424 -0.15549096
-0.12299009 -0.047469184 0.14192751 0.01518176 0.14296503 0.11845043 -0.06634097 -0.031976633
-0.1671431 -0.064846754 -0.12788002 -0.18356863 0.2511418 -0.01586045 0.11614681 -0.017854566
0.13074951 0.0960485 -0.016988432 -0.2079891 -0.18021403 -0.21498318 0.10244411 0.0855823
-0.07532799 -0.06894738 0.27383274 -0.08667951 0.08214913 0.06491532 0.13015695 -0.015177336
0.3130157 -0.29658276 0.002656004 -0.13040885 -0.18080026 0.009677926 -0.10958114 0.06588401
-0.055803876 -0.13437915 -0.1528998 0.11282415 0.12391821 0.08239989 0.008324964 0.032748237
-0.29564092 -0.10012227 0.143056 0.09860739 0.025987271 -0.30431437 0.1228803 0.04658563
0.019781785 0.3418618 0.16967174 0.25414002 0.046886876 -0.00883484 -0.08014802 0.20413674
0.17620178 0.04957045 -0.010731934 0.16630958 0.15523413 0.046939593 0.2082075 -0.11865149
-0.12299627 0.16380744 0.043717586 0.2567534 -0.09554377 0.14981283 -0.3778632 -0.16679245
0.16093864 -0.17886232 -0.44162762 -0.05154573 0.16471897 0.1096043 -0.0832014 0.24865901
-0.060367186 0.11192366 -0.02563633 -0.015160235 -0.0037965619 0.28522828 0.07334217 -0.15209267
-0.10819244 -0.037370175 0.1592185 -0.08535475 0.0822842 -0.2569273 0.2699264 0.06545227
0.0037387162 0.18818009 0.18588474 -0.035119697 -0.29566687 -0.15513416 -0.17108594 0.13998301
0.14527728 0.29834098 -0.183883 0.13647266 0.056526236 0.036572196 -0.14473532 -0.087857254
-0.06855633 -0.073206164 -0.104721166 -0.14696518 0.14451765 -0.09439721 -0.15225348 -0.12628718
00000000: f1b5 01be b9ec 07be 48ad a13c 9684 7abc
00000010: 475c e53d 57a0 643e 2ab9 8cbe 2abd 083e
00000020: f61d 093e 37de b13d 7f9c 1f3c 798c e0bd
00000030: 2d69 89bb 807e a33d f473 413d ee9b 463d
00000040: c6f9 da3d 7a17 853e bdc9 3d3e d20c 17bc
00000050: 3e77 74bd 5f1c 543e 4d01 1c3e e6ff debc
00000060: 1ec1 82be 47c8 c9bd b986 fd3d 4327 b1bd
00000070: d70a 58be 57be c0bb 4cec 353e 69fa a63d
00000080: 4ef6 46bc e933 243c 585f cc3d ffe5 703e
00000090: 2cbd 48be 7dac 0b3e 659f 46be cdf0 923e
000000a0: fb4c 2b3d 140a 613d b9fd af3d 391e 0bbd
000000b0: d61d fe3d 1048 473e 2959 9dbc 722e ecbd
000000c0: 3396 e83d 63f0 dabe e405 b0bd e164 773c
000000d0: c119 a43d b973 9c3c 87a2 d73d 62fb c8bd
000000e0: e512 01be 9d8c 5d3d 7666 053e 7d7b c0bd
000000f0: 12ca 02be cea5 903c d19f 6e3e 2ff2 83bc
00000100: 463b 17be 6618 893d 8a53 173d 6a1d a43c
00000110: c394 f7ba 4e4a 39be b5ba 783c 9f82 92bd
00000120: 35a8 243d 748c 513d 2813 33be 5fec d53c
00000130: 2a4d 17bc c79c 08bd 8f73 bebd 1aa1 31be
00000140: 8079 0f3c 6c0c a2bc b686 07be 10e9 72bd
00000150: c0f5 2438 e7da 023e 8432 79bd 8bf8 e73d
00000160: fe40 8bbd e5df b33d 9714 f73d 801f 453d
00000170: 9210 72bd 92ae 5cbc ec1d 463d 1004 043e
00000180: 61fb 6c3d 071e 79be 9353 123e c1fe 8dbe
00000190: b974 173e e001 433c 6c9d 2dbe 519b 2d3e
000001a0: bd63 763c 8983 87bd 868e c93d fb45 e4bd
000001b0: 1e89 023e 62ce 3c3e 8760 a9be cc9a 53be
000001c0: 603f 733e 3cc4 8dbd c6a4 58be 605a 82bd
000001d0: 1d38 b43d 5745 74bd 82f5 ac3c 3545 2bbe
000001e0: 7d61 d9ba d5c2 deba 02cd db3d b173 edbd
000001f0: 2fc2 02be b17d 17bd a95d 91bd 0639 1fbe
00000200: 3ae2 fbbd 0c6f 42bd 7255 113e ebbc 783c
00000210: 6d65 123e 2496 f23d c6dd 87bd eef9 02bd
00000220: 9027 2bbe 60ce 84bd fbf2 02be 6af9 3bbe
00000230: a895 803e c6ed 81bc 61de ed3d bd43 92bc
00000240: 33e3 053e 13b5 c43d 532b 8bbc 18fb 54be
00000250: 078a 38be 8d24 5cbe 38ce d13d c645 af3d
00000260: 9045 9abd 4934 8dbd ce33 8c3e 0785 b1bd
00000270: ce3d a83d 53f2 843d dd47 053e 5caa 78bc
00000280: 9843 a03e b2d9 97be 5a10 2e3b e689 05be
00000290: b423 39be 2a90 1e3c 146c e0bd 32ee 863d
000002a0: 9b92 64bd b09a 09be c491 1cbe 5910 e73d
000002b0: d5c8 fd3d 46c1 a83d 6e65 083c 0423 063d
000002c0: 3f5e 97be e80c cdbd 467d 123e acf2 c93d
000002d0: 42e3 d43c 18cf 9bbe aba8 fb3d 93d0 3e3d
000002e0: 690d a23c 8308 af3e 6ebe 2d3e a41e 823e
000002f0: 740c 403d 01c0 10bc a524 a4bd 3909 513e
00000300: 3d6e 343e 620a 4b3d fed4 2fbc 0f4d 2a3e
00000310: b2f5 1e3e bb43 403d 5934 553e 8dff f2bd
00000320: 78e5 fbbd 23bd 273e 3611 333d 2f75 833e
00000330: 74ac c3bd 8968 193e 4977 c1be a4cb 2abe
00000340: 19cd 243e af27 37be 041d e2be 9e21 53bd
00000350: 17ac 283e 3878 e03d 7f65 aabd 78a0 7e3e
00000360: 9543 77bd 3b38 e53d 4803 d2bc a262 78bc
00000370: bdcf 78bb 7109 923e 6b34 963d 2ebe 1bbe
00000380: ff93 ddbd 7811 19bd 2d0a 233e 79ce aebd
00000390: 9e84 a83d fa8b 83be cb33 8a3e d70b 863d
000003a0: 4005 753b 48b2 403e 9258 3e3e acd9 0fbd
000003b0: a661 97be 7ddb 1ebe 2731 2fbe b557 0f3e
000003c0: 91c3 143e 26c0 983e d34b 3cbe 7dbf 0b3e
000003d0: 0e88 673d bacc 153d 7f35 14be 81ee b3bd
000003e0: 4367 8cbd 1ded 95bd 0d78 d6bd 0a7e 16be
000003f0: 6ffc 133e 5353 c1bd 56e8 1bbe 6d51 01be

rnn.bias_ih_l0_reverse f4 [200]
-0.07056815 0.049674872 -0.076021716 0.010739991 0.02707449 -0.017838975 -0.10009944 0.18677647
0.020279342 0.08889212 0.06549538 -0.119650155 0.08916697 0.016556391 -0.03227773 -0.0595631
-0.0686679 -0.060779337 -0.090399675 0.102782056 0.0583468 0.06505081 -0.08156122 -0.12794155
-0.018374795 -0.032373425 0.18848707 0.049019683 -0.03429127 -0.0021568919 -0.16081122 0.0071895923
-0.035696935 0.03196485 0.027285257 -0.020093463 0.24337107 0.14276932 -0.07783534 0.013575305
-0.10673575 0.04977644 -0.03359726 0.0069509433 0.06210107 0.13054827 0.07050494 -0.048010375
-0.10225173 -0.0868659 0.14641854 0.059162978 0.040576432 0.17391421 -0.07319392 0.14419058
0.11475205 -0.003942694 0.116514236 -0.031187296 0.047414184 -0.113463506 -0.011324237 0.025675617
0.098584525 0.098679125 -0.061825797 0.01343075 -0.013326444 0.03997638 -0.13386182 -0.057742998
-0.100629136 -0.037780732 -0.08394917 -0.06262896 -0.13171406 0.058021322 -0.00025367033 0.0013610318
-0.099578805 -0.013987598 -0.059056237 0.09328168 0.012326562 0.036020838 0.026829986 -0.058518756
-0.051390268 0.15957226 -0.0069141663 -0.13318191 0.0647206 -0.11631125 0.03925442 -0.044653602
-0.00055401464 0.07814057 0.07808174 0.02188696 -0.17089814 -0.14216982 -0.077989355 -0.098059244
0.10302826 0.006401327 0.039550256 0.08295666 0.0740132 0.15202534 -0.14650583 -0.10287676
0.1592761 0.061360214 -0.11100943 0.113430485 0.078349784 -0.037425622 -0.06503498 0.07035704
-0.034907065 0.12048446 0.022269955 -0.031794567 0.06934071 -0.030556548 0.0130402185 0.02117061
-0.12969854 -0.12424555 0.09891345 0.045311823 -0.069432944 0.014867706 -0.08249412 -0.014195803
-0.004953095 0.0048784167 -0.024960995 0.025310168 0.1690601 -0.06684752 0.043852445 0.0018426887
0.020720266 0.13483042 -0.017553838 -0.15957323 -0.0069596176 0.03778402 0.053800296 0.14109863
0.111082084 0.11648599 -0.018771283 0.048946448 0.008191122 0.165271 0.020945935 -0.06329091
-0.10083396 0.007160108 -0.061274044 0.09730466 0.15713723 -0.12598789 -0.07278951 -0.047827974
0.20151295 0.03527657 0.08296237 0.094776616 -0.0015648413 0.103802234 0.17014737 -0.11662741
0.17436285 0.1478543 0.11327071 -0.013218267 0.10927772 0.181695 -0.1193805 -0.12182777
-0.025895512 0.047834106 0.05382115 0.0025256227 0.021499362 0.16039659 0.048007496 -0.05148883
0.100975744 0.059310697 0.046705324 0.120197766 0.03276914 0.0637212 0.1300013 0.008243515
00000000: 0986 90bd e177 4b3d 46b1 9bbd caf6 2f3c
00000010: 52cb dd3c 0b23 92bc ef00 cdbd 5542 3f3e
00000020: dd20 a63c 120d b63d 7122 863d 240b f5bd
00000030: 2c9d b63d 45a1 873c a735 04bd 70f8 73bd
00000040: c2a1 8cbd c1f3 78bd 7723 b9bd 667f d23d
00000050: 0efd 6e3d 5c39 853d 9209 a7bd 1c03 03be
00000060: bd86 96bc ff99 04bd c102 413e ddc8 483d
00000070: 0175 0cbd a45a 0dbb b2ab 24be ac96 eb3b
00000080: f336 12bd 93ed 023d 5585 df3c 0c9b a4bc
00000090: 4436 793e 1f32 123e 2268 9fbd f56a 5e3c
000000a0: 4698 dabd 61e2 4b3d 489d 09bd bdc4 e33b
000000b0: b15d 7e3d 72ae 053e e564 903d 87a6 44bd
000000c0: 5b69 d1bd c0e6 b1bd beee 153e e154 723d
000000d0: 7933 263d 9116 323e b2e6 95bd b2a6 133e
000000e0: 1f03 eb3d b731 81bb 049f ee3d 807c ffbc
000000f0: 6035 423d 8e5f e8bd 4b89 39bc ac55 d23c
00000100: afe6 c93d 4818 ca3d 0c3d 7dbd a60c 5c3c
00000110: 2857 5abc 46be 233d 1313 09be ec83 6cbd
00000120: a616 cebd f8bf 1abd 8bed abbd 9d43 80bd
00000130: 0de0 06be c4a7 6d3d 0eff 84b9 a664 b23a
00000140: f9ef cbbd 3d2c 65bc f4e4 71bd 770a bf3d
00000150: 59f5 493c 968a 133d 8fca db3c 5db1 6fbd
00000160: 9a7e 52bd e966 233e 3b90 e2bb d760 08be
00000170: 3c8c 843d 9834 eebd 3ec9 203d b2e6 36bd
00000180: 4b3b 11ba 2a08 a03d 52e9 9f3d 484c b33c
00000190: ecff 2ebe f794 11be e2b8 9fbd 49d3 c8bd
000001a0: 7b00 d33d 39c2 d13b 73ff 213d 2ee5 a93d
000001b0: 3c94 973d 88ac 1b3e a005 16be 0db1 d2bd
000001c0: 4619 233e d954 7b3d e958 e3bd 3e4e e83d
000001d0: da75 a03d 9c4b 19bd 0f31 85bd 5a17 903d
000001e0: b6fa 0ebd 8ec0 f63d 7b6f b63c 053b 02bd
000001f0: 8102 8e3d ba51 fabc a4a6 553c fd6d ad3c
00000200: b2cf 04be 7374 febd 2393 ca3d e498 393d
00000210: dc32 8ebd ae97 733c adf2 a8bd 8395 68bc
00000220: 934d a2bb 20db 9f3b 007b ccbc 4557 cf3c
00000230: 171e 2d3e 5ae7 88bd 9f9e 333d 5f86 f13a
00000240: 8cbd a93c fc10 0a3e 11cd 8fbc 2a67 23be
00000250: 810d e4bb 6bc3 1a3d b35d 5c3d 297c 103e
00000260: 017f e33d 3590 ee3d 3cc6 99bc 127c 483d
00000270: 0e34 063c cd3c 293e cf96 ab3c aa9e 81bd
00000280: 0982 cebd 579f ea3b 7efa 7abd aa47 c73d
00000290: 95e8 203e f802 01be ab12 95bd 44e7 43bd
000002a0: 6959 4e3e 2a7e 103d 2de8 a93d 3e1a c23d
000002b0: 5c1b cdba 4496 d43d 1d3b 2e3e 5ada eebd
000002c0: 2d8c 323e 1e67 173e 79fa e73d 6e91 58bc
000002d0: ffcc df3d 410e 3a3e c37d f4bd d680 f9bd
000002e0: d322 d4bc b2ed 433d 9173 5c3d eb84 253b
000002f0: 6e1f b03c 013f 243e 82a3 443d f4e5 52bd
00000300: 5fcc ce3d c6ef 723d 154e 3f3d 3f2a f63d
00000310: ef38 063d 4380 823d 101f 053e cf0f 073c

rnn.bias_hh_l0_reverse f4 [200]
-0.21148619 0.067904964 -0.022988137 0.030992068 -0.14082548 0.14538613 0.026473122 0.032548398
0.08379259 0.08466261 -0.14443174 0.00660563 0.10802651 -0.0026653407 -0.0022288545 -0.025812153
0.054242756 -0.16707848 -0.016358351 -0.016229365 -0.011694096 -0.020728637 0.071381934 -0.0102468785
-0.19745259 0.14247856 0.14865085 -0.027494725 0.01829665 -0.0015504558 -0.10500493 -0.006385381
-0.1562167 -0.16250265 0.009298698 -0.013167643 0.035872616 0.0037924857 0.022899708 0.08207043
-0.11978256 0.056007903 -0.05696758 0.04338292 -0.12568313 0.065151215 -0.089619815 -0.06675304
-0.047688786 -0.21055274 -0.04529443 0.11272876 -0.11207497 0.10302494 0.098424435 0.07785527
-0.020234777 -0.08851469 0.08683303 -0.020249082 -0.057735942 0.024950985 -0.061648212 0.09875933
-0.028351117 0.05823481 0.020421576 0.053765323 0.12722188 -0.018572956 -0.077247955 0.14612757
-0.045167353 -0.07049504 0.01942247 -0.12997316 0.1369891 0.10585902 0.031150747 0.016338805
0.007248503 0.18963623 0.06988714 0.07154398 0.123359405 0.13789323 -0.04645316 0.09269741
0.14963236 0.02166132 0.015788544 -0.09726028 0.12941195 0.021988513 -0.054743268 0.12430064
-0.11657393 -0.09903278 0.124456555 0.0703402 0.019678943 0.08945492 0.0004857835 0.13045625
-0.079828195 0.051778898 -0.14251547 -0.039803132 0.19191103 -0.04132761 0.0737211 0.0027506647
-0.026061019 0.002080192 -0.052463833 -0.023007534 -0.020051483 -0.05029307 -0.07296974 0.047415994
-0.124614805 -0.0042477804 -0.03819713 -0.03241434 -0.10525973 0.0959932 -0.076178096 -0.100158036
-0.1174559 -0.103619285 0.030342394 -0.1992241 -0.11320714 0.06251299 0.016199635 -0.12797984
-0.11486362 0.04199246 0.03793522 0.0061484384 0.119362935 0.17503831 0.095930874 -0.04605057
-0.009949134 -0.05658249 -0.083914906 -0.113877304 0.06840057 0.0840617 0.13390793 -0.043445036
0.097999856 0.15356812 -0.04359102 0.13452561 -0.027860554 0.20760775 0.07372689 -0.08215313
0.10495613 0.16656934 -0.00514893 -0.029716594 -0.008770863 0.11129903 -0.1026078 0.14491774
0.18353333 0.006257602 0.054367978 0.047940474 -0.033669475 0.004591791 0.020763434 -0.1110422
-0.0045629586 0.085664265 -0.050199963 -0.053722654 0.043194417 -0.06520589 0.014160341 0.08452876
0.03291901 0.057666287 0.23847005 0.10635392 -0.012977954 0.02534687 -0.048805684 -0.05144648
0.02788759 0.1268149 -0.15160938 0.12934506 0.019351922 0.15657793 -0.075743824 -0.06518822
00000000: d68f 58be c211 8b3d 9e51 bcbc 14e3 fd3c
00000010: 8e34 10be 1ae0 143e 29de d83c 7851 053d
00000020: 739b ab3d 9763 ad3d eae5 13be 0a74 d83b
00000030: 013d dd3d ffac 2ebb f911 12bb 0274 d3bc
00000040: a72d 5e3d 9f16 2bbe f301 86bc 72f3 84bc
00000050: 9898 3fbc 1acf a9bc b130 923d 86e2 27bc
00000060: 0331 4abe e6e5 113e ee37 183e 9e3c e1bc
00000070: dbe2 953c aa38 cbba d30c d7bd 753c d1bb
00000080: 45f7 1fbe 1867 26be 9159 183c 19bd 57bc
00000090: 2aef 123d 5a8b 783b 2b98 bb3c 8b14 a83d
000000a0: 8f50 f5bd 8b68 653d d656 69bd 4ab2 313d
000000b0: 14b3 00be 006e 853d 988a b7bd d1b5 88bd
000000c0: 5155 43bd 239b 57be a786 39bd 56de e63d
000000d0: 9087 e5bd bdfe d23d c092 c93d 9572 9f3d
000000e0: 67c3 a5bc 3147 b5bd 84d5 b13d 67e1 a5bc
000000f0: 867c 6cbd 0266 cc3c d682 7cbd 5542 ca3d
00000100: 9a40 e8bc a087 6e3d 264b a73c 0739 5c3d
00000110: 7446 023e 5026 98bc 2d34 9ebd 77a2 153e
00000120: 6701 39bd b45f 90bd df1b 9f3c af17 05be
00000130: df46 0c3e 9dcc d83d da2f ff3c f5d8 853c
00000140: da84 ed3b 0030 423e fd20 8f3d a685 923d
00000150: dba3 fc3d e233 0d3e ab45 3ebd 24d8 bd3d
00000160: 3a39 193e 1573 b13c fa56 813c 6630 c7bd
00000170: 9184 043e 4121 b43c 7a3a 60bd 5591 fe3d
00000180: 50be eebd b3d1 cabd 14e3 fe3d 860e 903d
00000190: bc35 a13c 2434 b73d c2b0 fe39 5396 053e
000001a0: f77c a3bd 1c16 543d 93ef 11be 9c08 23bd
000001b0: 5384 443e 2447 29bd 17fb 963d 7f44 343b
000001c0: eb7d d5bc d553 083b 51e4 56bd 4c7a bcbc
000001d0: 0243 a4bc 1b00 4ebd 2971 95bd 4637 423d
000001e0: 0c36 ffbd f730 8bbb 9874 1cbd e6c4 04bd
000001f0: 6a92 d7bd 1598 c43d 4303 9cbd a81f cdbd
00000200: b88c f0bd 5936 d4bd 9d90 f83c 6701 4cbe
00000210: 25d9 e7bd cf06 803d 19b5 843c 260d 03be
00000220: 9e3d ebbd 4900 2c3d f661 1b3d d778 c93b
00000230: 8e74 f43d 3e3d 333e 6877 c43d 869f 3cbd
00000240: b101 23bc 0bc3 67bd 94db abbd 8138 e9bd
00000250: 9915 8c3d 8a28 ac3d 291f 093e 6cf3 31bd
00000260: 26b4 c83d f640 1d3e 7f8c 32bd 15c1 093e
00000270: d13b e4bc 2097 543e 20fe 963d e63f a8bd
00000280: 3df3 d63d 2791 2a3e 5bb8 a8bb 3770 f3bc
00000290: aab3 0fbc bff0 e33d 0a24 d2bd 5165 143e
000002a0: 29f0 3b3e 920c cd3b f5b0 5e3d 3b5d 443d
000002b0: 01e9 09bd bc76 963b 1418 aa3c 186a e3bd
000002c0: df84 95bb bf70 af3d 7a9e 4dbd 490c 5cbd
000002d0: a1ec 303d aa8a 85bd c600 683c 6a1d ad3d
000002e0: 15d6 063d 7c33 6c3d 7e31 743e 16d0 d93d
000002f0: 7ca1 54bc 3da4 cf3c 78e8 47bd 8bb9 52bd
00000300: 8474 e43c c4db 013e 7d3f 1bbe 0873 043e
00000310: ec87 9e3c f755 203e 941f 9bbd 6781 85bd
