saved_models/agg_model.pth (torch_old, 208910 bytes, 13 tensors)

agg_predictor.rnn.weight_ih_l0 f4 [200, 50]
00000000: 96ca e3be 59cf 74be b87d e53c 05c5 84bd
00000010: 9f83 33bc 2013 d63d 3f95 93bd b67d 643e
00000020: 60cc 5cbe 1770 be3e 7bb0 933e 09c7 283e
00000030: 4976 edbd d78f 713f 18b2 49be 0a28 b7be
00000040: b427 f6be 749c db3e 57d1 2a3e ddf0 053f
00000050: 1642 f7be cb39 b53e c09d e9be 70c4 d33e
00000060: 77f8 cb3e 3760 91bd 1c38 063e abbb f8be
00000070: 96ea 8ebe c57c 36be 0e14 bebd 2f9f 40be
00000080: 3efb ff3e e949 e33c 8c78 0b3e 2163 483f
00000090: daaa 4ebe 9762 853e 2e27 cd3d 0ef0 bdbe
000000a0: 03f6 9b3e 8207 8e3e 0207 ae3d 967b c3bd
000000b0: 4f01 0b3f 9f73 a6be 2f70 8e3e 50ad f1bd
000000c0: 7f87 a03d aa27 ed3d 55a5 4bbc fb68 9f3d
000000d0: df6f 4abf 3a5f b13e f901 1bbe d0c7 7b3e
000000e0: 8ffb 37be d7d4 6e3e cf52 50be dbb6 813e
000000f0: 258b 26bf 84df d23e b4a4 bdbe ebf0 7f3e
00000100: 4b7a 183d 5727 8cbe f9ec 3abd c7ec 28be
00000110: 284e 93be 0284 113f 8377 e5be 06a5 a13e
00000120: 37f7 4fbe f68e a0bd 05ff 383e 9744 debb
00000130: 464b 2f3c e07f 603f 138b b33e 60e9 bcbe
00000140: 097d 2cbe 3bad 18be 4088 2cbe 1dd7 e93d
00000150: 5e6f 57be 6999 bd3e 080a 3c3e fed7 a7be
00000160: 04ce f2bd 5b5e 26be f315 db3d 00b3 4c3e
00000170: dc9c 72bf dc05 66be 4404 a4bd be3a 573e
00000180: f0b9 073d 7d89 be3c 12ba e2bc 803e e23e
00000190: 29f0 8bbd 2cea b6bc dab8 88bd 1d47 9e3e
000001a0: 5cef 5c3e 8b98 6ebe ec58 323e 3306 d73e
000001b0: 3de4 993e f85e 97bd db40 b5bc 07a9 81be
000001c0: 0817 4ebb 6799 6dbe 8e1c 02be d97c e03c
000001d0: a521 af3d c44c 833e d774 8ebe f5c9 50be
000001e0: 3dea 81be e00b b0bd c9c4 01bf f7ba d1be
000001f0: 711e a7bd a0f5 18be 9867 d13d ea38 e93c
00000200: 4d88 313e b0cd 173f 0192 99bc ea52 8b3e
00000210: 6204 ee3d 5ce4 593c 2446 033e 9583 023e
00000220: 874a 903e 92ba dd3e af68 013e f0c5 fe3d
00000230: c4ca 3ebe 773a d3bd ec87 a3be efca b73e
00000240: bfc4 59bf da35 5bbc 5ab7 12be 4768 433e
00000250: 16e4 973d 7b2b 9fbe 0246 d43d ac31 b7be
00000260: 3fc4 6bbd 89d1 973e 1d71 fcbe 8bb7 6cbc
00000270: 6dcb da3d aae6 10bd 4531 92be 70b7 5abe
00000280: dab5 6dbe b3d1 5b3e 4e86 f83c 9036 f0bd
00000290: f73e 8abe 1f44 fcbe 78fd 8b3c 9b26 223e
000002a0: f23c e93e e391 5bbd df8b d73e 31e8 1fbd
000002b0: fbc3 e1be 47d5 c53d d415 88be bd98 963e
000002c0: 71db 543e 96f1 c4be 32ee 2abf dd9c 7dbe
000002d0: e6de 68be fe41 ccbd 3864 b83d 619c 183e
000002e0: a614 a1bd a0ad 983e e23c 82be 8ee9 383e
000002f0: 6261 973c 5b30 e33e 1547 2f3e 5f10 9f3a
00000300: 195d 653e 0542 21bd 75e3 d23e a87d 613e
00000310: 0aa2 e1be 8796 4abe 5e84 40be fc87 12bf
00000320: 3eb2 be3e 8930 33bf 5ae4 5c3e 837a e53e
00000330: e6c4 9ebe 091c c5bd 2ac9 853e 9ad6 7cbd
00000340: 1c82 bbbc de58 a0be 7598 b6be 80a6 99be
00000350: b596 dc3d d6b2 4dbd 889d 3cbe 3a52 be3e
00000360: d858 3c3e 6958 0abe 7afe dabd 4a74 9c3d
00000370: ed60 913e 28fc 663d a425 c3be 5f3a 94bc
00000380: 3a77 e83e 5a8f 933e fe6f 813e bf2f 433e
00000390: 8e9a 81be fad1 733e 8a5c acbe a5f0 fd3e
000003a0: 3160 0abe 3a56 c13c f9ea b5bf 18a2 30be
000003b0: 91e8 2fbf 3060 8abf f2bb 36bd 6f15 bfbe
000003c0: e502 c03e eb0f dd3e 077f 09bd 9c0e b9be
000003d0: a001 913e 8266 aabe 1085 753e 3cd9 ea3e
000003e0: 5afb 243f 10a1 0fbe 9d23 2ebf 21fb 9e3d
000003f0: 6694 413d ad64 893e 15a8 06be 7a7d 87bc
-0.44490498 -0.23907222 0.028014049 -0.06482891 -0.010956674 0.104528666 -0.07206201 0.2231358
-0.21562338 0.37194893 0.2884558 0.16482176 -0.11594827 0.9436011 -0.19696844 -0.35772735
-0.48077166 0.42892802 0.1668142 0.52320653 -0.48292607 0.35395655 -0.45628166 0.41360807
0.39838 -0.0709843 0.13107342 -0.4858068 -0.2791335 -0.17821033 -0.09281169 -0.18810724
0.4999637 0.027745204 0.13620204 0.7827626 -0.20182362 0.2605178 0.100172386 -0.3709721
0.3046113 0.27740103 0.084974304 -0.095450565 0.5429887 -0.32510087 0.27819964 -0.11800635
0.07838344 0.11579831 -0.012429555 0.07783695 -0.7907695 0.34642965 -0.15137471 0.24587941
-0.17967056 0.2332338 -0.20344089 0.2533482 -0.6505607 0.41186154 -0.3703972 0.24994247
0.037226003 -0.27373764 -0.04563615 -0.16496573 -0.28770566 0.5684205 -0.44817743 0.31571215
-0.20309149 -0.07839768 0.18066032 -0.006783079 0.010699099 0.8769512 0.35067043 -0.368968
-0.16844572 -0.14909832 -0.1684885 0.11417983 -0.21038577 0.37031105 0.18363202 -0.32781976
-0.118557006 -0.16246931 0.10697546 0.19990158 -0.947706 -0.22463173 -0.08008626 0.21018502
0.03313631 0.023258919 -0.027676616 0.4418831 -0.06832916 -0.022328459 -0.06675883 0.3091363
0.21575683 -0.23300378 0.17416734 0.41996917 0.30056944 -0.07391161 -0.022125652 -0.2532427
-0.0031446833 -0.2320305 -0.12706205 0.027403282 0.08551339 0.25644505 -0.27823517 -0.2038954
-0.25374022 -0.08596015 -0.50690895 -0.40962955 -0.08160103 -0.14937449 0.10224837 0.028469522
0.17337151 0.5929823 -0.018746378 0.27211696 0.1162193 0.013299074 0.12819725 0.12745507
0.2818186 0.43306404 0.1263759 0.12440097 -0.18632036 -0.10313886 -0.31939638 0.35897014
-0.85065836 -0.013379538 -0.14327756 0.19082747 0.07416551 -0.3108786 0.103649154 -0.35780084
-0.0575602 0.2965205 -0.4930505 -0.014448057 0.10683332 -0.03537623 -0.28553215 -0.21359038
-0.23213902 0.21466713 0.030337479 -0.11729157 -0.27001163 -0.49270722 0.017088637 0.1583504
0.4555431 -0.053605925 0.420989 -0.039039794 -0.44094834 0.0965982 -0.26579154 0.29413405
0.20786835 -0.38465565 -0.6676971 -0.2476687 -0.22741279 -0.099735245 0.0900349 0.14903404
-0.078652665 0.29819965 -0.25437075 0.18057844 0.018479053 0.4437283 0.1711696 0.0012135616
0.22398795 -0.0393696 0.4118916 0.2202059 -0.44068938 -0.19783984 -0.18800494 -0.57238746
0.37245363 -0.69995934 0.21571484 0.44820032 -0.31009597 -0.09624488 0.26130038 -0.061728097
-0.02288919 -0.313178 -0.3566319 -0.30009842 0.107709326 -0.05021938 -0.18419468 0.3717211
0.18393266 -0.13510288 -0.10693069 0.07639368 0.2839426 0.05639282 -0.38114655 -0.01809424
0.45403463 0.28820306 0.25280756 0.19061182 -0.25313228 0.23810568 -0.33664352 0.4959766
-0.13513257 0.023600686 -1.4212333 -0.17249334 -0.68714243 -1.0810604 -0.044612832 -0.3732104
0.37502208 0.43176207 -0.03356841 -0.3614396 0.28321552 -0.33281332 0.2397654 0.45868862
0.6444603 -0.14026284 -0.6802309 0.07762743 0.047260664 0.26834622 -0.13150056 -0.016539324

agg_predictor.rnn.weight_hh_l0 f4 [200, 50]
00000000: 10fb 14be 7015 abbd 98ca cb3d 8572 dc3e
00000010: 3114 d13d 4147 993e 67a8 3e3e 00b0 96bc
00000020: 13ec 953c e27a 373e 417f b03e 108f e4bc
00000030: 3298 efbd a810 033d 580e 7c3e afb0 55bd
00000040: 170f 97be f3a9 8a3e 895a 563e 407a dd3d
00000050: 4bac ec3e ec50 613e 1077 153e f469 113e
00000060: 9fc7 ab3c 3290 a1bd ca1b e0bc a07a ccbd
00000070: 6778 2ebe 5677 abbe e902 a9bd 92af 4cbd
00000080: b29a cc3d b317 b53e d68f 01be ee29 43be
00000090: d78c 473e 26e7 9b3b c425 4ebd 2700 18be
000000a0: b0cc 55be 6ef0 423e 17ff e9bd 062a 9f3e
000000b0: 9175 c6bd 5347 543c a7d1 8ebd 866c cfbd
000000c0: 96fe a0be 2300 9c3d 49a6 c2bd 1db7 efbe
000000d0: 6925 25bf 68cc 473e 8dfb d53e f757 3ebd
000000e0: 972e 6f3e 770c 3ebe 9918 9a3d 906a 64be
000000f0: e1ff 693d 3cde 30be b362 bfbc 5a28 303e
00000100: f465 c63d be20 66be 4621 30be 97f9 823e
00000110: 9428 ec3c 1505 3cbe 46d5 8b3e 7ebe 893e
00000120: 2729 eebe 1cf0 0b3e 55e6 37be 86d4 abbd
00000130: 92ad 0c3d 00c5 e4be 8a6d 23be 76e5 32be
00000140: 69ce 9bbd 5fc9 85bd c9ae cf3e ae64 1abe
00000150: 50da 77be d2d7 24be 4013 41bc 19f0 203d
00000160: 837d 6b3d 799e 133c 448e da3d c1c0 2b3e
00000170: 4aa4 8ebe 252a 06bf 7f29 62be 7aac 623e
00000180: a4a5 6f3e fb5c 53be e4f0 eb3e a853 963e
00000190: 5a0f 363e 574f 85bf 42b6 fc3e 8ddf 5b3e
000001a0: b73f 90be 8f44 46bf 5d4d 193f 1214 e4be
000001b0: 931b a13e fe6b 31bf ea90 3bbf 8d8e 303d
000001c0: 5ed2 15bf 274a 583e cc1b 903d 3ccc fd3e
000001d0: 57c0 a1bc d412 b93e a029 ba3e 4a80 01bf
000001e0: af56 3e3e e408 e83e 9c70 f0be c150 9bbd
000001f0: 7c4b 02be cf28 5bbf c2e0 143f 887a 86bf
00000200: 78f7 12bf c9ff 563d d6d6 6abe c9e1 aebe
00000210: 3ee1 d93e f2cd 9b3d 9e36 d6be cfbb 29bd
00000220: 1fcb 67be 577a 813e a774 853e 0f14 23bd
00000230: b1c0 14bf 0369 503d 260a a0be af09 8fbe
00000240: 8e07 bf3e 9e32 23be 6e8d 32be 7c55 56bf
00000250: febe 8d3f 11ee 153e d46f bd3e 8158 8dbe
00000260: f96c 28bf e6eb 47be 3a44 e53e 9a22 753d
00000270: 6c16 173e e424 a7be a369 1f3d 2701 dcbd
00000280: ad69 c03e 2c9e a1bd 280e 50be ad0e ef3c
00000290: 5dba 80bd e4ae dd3b 202d 913e b98c ccbd
000002a0: f754 183e 7e27 98bd f1bb 78be a901 4d3e
000002b0: 917b 23be 92a9 273d f59a abbd 2895 543c
000002c0: e390 df3d b174 80be 2a1c a7bd 70e0 3fbe
000002d0: 9919 efbd 8819 6f3d 9a85 45be c6fe 8b3e
000002e0: e0e1 2cbe 0756 41be d467 043e 6254 ab3d
000002f0: f7d5 d6bc 25e5 3f3d 5840 233e 1ed5 9f3d
00000300: c15a 17bd a2a0 1b3d 890b f1bc 0b89 bc3e
00000310: aaef 1bbe 99d2 a6be 577c 9b3c 2b33 d93e
00000320: f00b e9be f7b9 2dbf 8b49 a23e ee8f 9a3e
00000330: 4d62 7f3e 548e 83be f208 bf3e 0010 0abf
00000340: fef4 65bf 97e7 1bbe 5342 523e a7d4 09bf
00000350: 277d c9be e785 393e 1abf 36be 295c 0cbf
00000360: b9f2 3f3f 3197 f23e fe47 b13d 809a 95be
00000370: 5730 76bf 89c8 56be 87fd 28bf cdb2 1c3f
00000380: fbc5 0bbf a3e7 96be d7a5 b5be 2fed e4be
00000390: daf4 0dbf b09c e13e 3ec2 87be 7504 cdbd
000003a0: e763 48bf 86f9 873e f1b9 1dbf 02e1 00bf
000003b0: e085 1ebe a8a7 0abe fd14 6c3f f8d2 d73e
000003c0: c585 a73e 73f2 51bc 6f46 18bf a60a 043f
000003d0: ba15 b63d e090 7938 b748 cc3e 130a a1be
000003e0: 488b 123f 30f0 50bf a03a ed3d 1be0 25bf
000003f0: beb5 583e fdff 803e e879 f0bd 311a 90be
-0.14548898 -0.08353698 0.09950751 0.4305612 0.10208929 0.29937175 0.18618928 -0.01839447
0.018301046 0.1791797 0.34472087 -0.027900249 -0.11698951 0.031998307 0.24614847 -0.05217045
-0.295037 0.27082786 0.20932974 0.10814333 0.462252 0.22003525 0.145962 0.14200574
0.02096921 -0.07888831 -0.027357 -0.09984326 -0.17038117 -0.33489484 -0.08252508 -0.049972124
0.09990443 0.35369644 -0.12652525 -0.19058964 0.1948732 0.0047577797 -0.050328985 -0.14843808
-0.20878863 0.19037029 -0.11425608 0.3108675 -0.09690393 0.012956458 -0.06973582 -0.10128121
-0.31444234 0.076172136 -0.095043726 -0.46819392 -0.6451021 0.19511569 0.4179348 -0.04647061
0.23357616 -0.18559442 0.07524223 -0.22306275 0.05712879 -0.17272276 -0.023362493 0.17202893
0.09687415 -0.22473428 -0.17200193 0.25581047 0.028827943 -0.18361314 0.27311152 0.26903147
-0.46515772 0.13665813 -0.17958958 -0.08390145 0.034345217 -0.4468155 -0.15959755 -0.17470345
-0.07607729 -0.06532549 0.40563038 -0.15077469 -0.24204373 -0.16097954 -0.011784375 0.039291475
0.057492744 0.009009951 0.10671666 0.16772749 -0.27859718 -0.5240806 -0.22086142 0.22136107
0.2340303 -0.20640938 0.46082222 0.293607 0.17779294 -1.0414838 0.49357802 0.21471997
-0.2817361 -0.7744836 0.5988367 -0.44546562 0.3146635 -0.6930541 -0.73267996 0.043104697
-0.5852412 0.21122037 0.07036552 0.4956988 -0.019745035 0.36147177 0.36359882 -0.5058638
0.18587755 0.45319283 -0.46960914 -0.07583762 -0.12724108 -0.85609144 0.58155453 -1.0506144
-0.5740886 0.05249003 -0.22933516 -0.34156635 0.4255466 0.0760764 -0.41838545 -0.041438874
-0.22636078 0.2528865 0.2606556 -0.03981405 -0.58106524 0.050881397 -0.31257743 -0.27937075
0.3731045 -0.15937278 -0.17436764 -0.8372419 1.1073911 0.14641596 0.3699938 -0.27606586
-0.6579128 -0.19523582 0.44778615 0.05984745 0.14754647 -0.32645333 0.038919102 -0.10742407
0.37580624 -0.07891497 -0.203179 0.029181803 -0.06285546 0.0067652334 0.2835474 -0.09987778
0.14876162 -0.074294075 -0.24290444 0.20020165 -0.15965106 0.0409332 -0.08379165 0.012975015
0.10916307 -0.25089028 -0.08159669 -0.1873796 -0.11674804 0.058373958 -0.19289246 0.27342814
-0.1688304 -0.18880473 0.12930232 0.08365704 -0.026225073 0.04684939 0.15942514 0.07804321
-0.036951784 0.03799499 -0.029424446 0.36823305 -0.15228143 -0.32582548 0.018980188 0.4242185
-0.4551692 -0.67861885 0.31696734 0.30187935 0.24939843 -0.25694525 0.37311512 -0.53930664
-0.89826953 -0.15225063 0.20533113 -0.53840107 -0.39353296 0.18117486 -0.17846337 -0.54828125
0.7497974 0.47380975 0.086563095 -0.29219437 -0.9616751 -0.20974936 -0.6601185 0.6121033
-0.5459897 -0.294736 -0.35478088 -0.44712207 -0.5545174 0.44064856 -0.26515383 -0.10010616
-0.7827744 0.2655756 -0.6161185 -0.50343335 -0.15480757 -0.13540518 0.92219526 0.42153144
0.32719246 -0.012814152 -0.59482473 0.5157875 0.08890863 5.950115e-05 0.39899227 -0.31453
0.57243776 -0.816165 0.115834475 -0.6479508 0.21163079 0.25195304 -0.11742002 -0.28144982

agg_predictor.rnn.bias_ih_l0 f4 [200]
00000000: ee12 87be 7028 00be 6b88 51bd 6b89 b5bd
00000010: 3e86 91be 3317 8dbe 6ee7 e2bd 632a 26be
00000020: c047 88be ffc4 02be 24b9 08be 08ed 4dbd
00000030: 564e 48be 4eb5 383d fed3 95bd e240 91be
00000040: d2dc 6a3d 74d3 9ebd 2450 6bbe ab59 25be
00000050: c3a4 05be 601b a33d dd30 4dbe 94e2 90be
00000060: 7026 d33c 84e8 9fbd c00e da3c 4f00 e1bc
00000070: 15d3 92bd d36d 6ebe 5596 24bd 75ff cbbe
00000080: 8625 723c f7aa a6be d35f 96bc 3a34 3abe
00000090: cc66 91bd 152f 76bd 9775 723d 74c8 81bd
000000a0: 95a0 efbe e1c6 adbd ddd3 febd c674 a1bd
000000b0: 223a babe 262f 9abe 7f3c acbd 7dac 60bd
000000c0: f723 20be 228c a6be 6ac2 3ebe 99d1 b7be
000000d0: 079a a1be 9779 92bc b836 95be 0c2b 98be
000000e0: af30 223e 86fc 10bd 7d8b 8cbe 00ef 3dbe
000000f0: 07ce 8c3c 5964 a8bd 6254 4f3d 16c8 fd3c
00000100: 6ff6 1ebe a47b 8ebd 26f2 ca3d 6a70 cf3e
00000110: d632 87bd faba 20be d488 483e 7082 e13d
00000120: bcfa 813d c0c8 76be 4b6c 673e 9066 9bbd
00000130: b8c8 82be 7ad2 68be 6e98 533e 7503 b5be
00000140: bf95 69bd a26a 11be 5fb5 4d3c a462 6abe
00000150: 4913 013e 5551 d8bd ae7c fd3d 0aae 9ebd
00000160: 44aa 543e e3f4 7bbe 67f5 adbe dda2 1fbc
00000170: adc8 013e bb36 39be ee02 96be 0bf9 cebb
00000180: a80e db3d 4a7c 21be 30bb 30be b385 7f3e
00000190: f67b 2b3d 2f9d 56be 3015 52bd 6d2f 32bd
000001a0: 8bcb 243e 9e13 4fbc 7973 3bbc bc59 c83c
000001b0: 00c1 323e 887c 4f3a afe8 61be f7a4 723b
000001c0: 2ae7 fd3d b71f 8abd 3872 103e 18c4 393e
000001d0: 019b b8bd c5db 123e 081a 60bc c4c8 8abd
000001e0: 13dc f6bd 4a4c c93d d2e0 0f3e f45a 74bd
000001f0: 48fd db3d 1590 2e3e 7869 f03d 8d7a 4ebe
00000200: 351e 463d 2191 babb 15dc 323e 0085 93b6
00000210: 4f1a 263e aa10 12be 614a c8ba 7cd1 873c
00000220: ea2f 873a 8b25 03bd ff94 12be cab2 0bbe
00000230: fdd4 54be 5382 acbc 27cf e63d 86d4 a3bd
00000240: 8cd2 333e 9304 443c 80dc e03c 3f17 7ebe
00000250: 983a ed3d 70d6 e53d 7c01 94be e250 9abe
00000260: 6803 15be 0ef6 72be e0b3 84be e9ec 23be
00000270: 9a08 cfbc e795 9cbd a50a a9bd 0a6c 5cbe
00000280: ff61 34bd 3943 afbd c736 21be c36b a6bd
00000290: 27e1 d8bd 560e 3ebe fb56 5d3d f57f b73d
000002a0: 11a2 68be b894 45bd 2cd5 26bd dfcd 83bc
000002b0: 08a2 aebc 20ab cabe 088b 7fbe aace 953d
000002c0: a427 853c 47d7 a1bd 81fb 42be d0ca 0cbe
000002d0: 05af 12be 02f0 0abe b6d9 76bd 61f4 ccbe
000002e0: 5931 153d cee8 cdbe e6ea c53c 0851 5fbe
000002f0: fa28 9dbc ba0d ebbd 0131 abbd b9d2 c5bd
00000300: cd41 14be 2402 c8bd f509 77be 2a1b 0cbd
00000310: c5db 81bc 4aee 323e 77f2 16be c4b4 733c
-0.2638163 -0.12515426 -0.05115549 -0.08864101 -0.2842273 -0.27556762 -0.11079298 -0.16227107
-0.2661724 -0.1277046 -0.13351876 -0.05027488 -0.19561133 0.04509478 -0.07315825 -0.28369814
0.057339497 -0.07755175 -0.2297979 -0.16147487 -0.13051133 0.07964206 -0.20038171 -0.28297865
0.025775164 -0.07808021 0.026618361 -0.027465967 -0.07169167 -0.23284082 -0.04018243 -0.39843336
0.014779454 -0.3255231 -0.01835624 -0.18183985 -0.07099685 -0.060103495 0.059194174 -0.063370615
-0.46802202 -0.08485199 -0.124427535 -0.07883601 -0.36372477 -0.30114096 -0.08409976 -0.054851998
-0.1563872 -0.32528788 -0.1862885 -0.35902098 -0.31562826 -0.017880244 -0.2914331 -0.29720342
0.15838884 -0.035397075 -0.2745017 -0.18548203 0.017188085 -0.08222265 0.050617583 0.030979197
-0.15523694 -0.06957176 0.099094674 0.40515453 -0.06601493 -0.15696326 0.19583446 0.11011207
0.06346652 -0.24100018 0.22599904 -0.075879216 -0.2554376 -0.2273654 0.20663616 -0.353542
-0.057027575 -0.14200833 0.012555449 -0.22889191 0.12605013 -0.10562388 0.123772964 -0.07748039
0.20768076 -0.24605136 -0.3397629 -0.0097434195 0.12674208 -0.18087284 -0.2929911 -0.0063163093
0.10696155 -0.15770069 -0.17258906 0.24953346 0.041866265 -0.20958398 -0.051289737 -0.04350226
0.1609327 -0.012638954 -0.011441105 0.024456851 0.17456436 0.000791498 -0.22061418 0.0037024596
0.12397607 -0.067443304 0.14106071 0.1814121 -0.0901394 0.14341648 -0.013678081 -0.06776574
-0.120536946 0.09829004 0.14050606 -0.059657052 0.10741669 0.1704715 0.117388666 -0.20163937
0.04836865 -0.0056935702 0.17466767 -4.3964246e-06 0.16220973 -0.1426417 -0.0015280956 0.016579382
0.0010313962 -0.032018226 -0.1431465 -0.13642421 -0.20784374 -0.021058237 0.1126998 -0.0799952
0.17560786 0.011963981 0.027448893 -0.24813555 0.115834415 0.11222541 -0.28907382 -0.30139834
-0.1455208 -0.23726675 -0.25918484 -0.16008343 -0.025272656 -0.07645779 -0.082539834 -0.21525589
-0.04403877 -0.085577436 -0.15743552 -0.08126023 -0.105898194 -0.18560156 0.05403803 0.08959953
-0.22718073 -0.048237532 -0.04073064 -0.016089378 -0.021317497 -0.39583683 -0.2495538 0.07314809
0.016254254 -0.07902389 -0.19041254 -0.13749242 -0.14324577 -0.13568118 -0.06026622 -0.40030196
0.036424015 -0.40216678 0.02415986 -0.21808255 -0.019184578 -0.114772275 -0.08358956 -0.09659333
-0.14478226 -0.09766033 -0.24124892 -0.034205593 -0.015851865 0.17473713 -0.1474093 0.014874641

agg_predictor.rnn.bias_hh_l0 f4 [200]
00000000: 51d9 acbd be10 ecbc 5955 e0bd 3531 cabd
00000010: c065 babe a0ab 7cbe 7916 10be 2435 483d
00000020: 818a 42be 501d 46be 03b3 1bbe 0600 69be
00000030: 57d8 adbd e6a5 a0bd b34b bfbd 97bc afbe
00000040: bc16 663c aec6 113e c09c 79be e804 0dbe
00000050: 284e bdbb 53e7 673d 122d 34be 4ef1 cbbe
00000060: 0739 0ebe 8812 ef3c 166c 45bc b026 53be
00000070: 6100 26be 4ce9 88be 2b28 a13d b4c0 1cbe
00000080: de09 f5bc 5b7f cebe 0bfc 11be 3cff 6abe
00000090: 02ed fbbc 2f4f 88be df34 07be 5aa3 1fbe
000000a0: 80ac 78be a624 02bc 5ac9 54bd 3652 60be
000000b0: 6adb a8be a1ae b2bd b9ad 49be 3c2d 543e
000000c0: d7f6 56be abe7 b1be 993c 95be 342e b3be
000000d0: f369 17be 386f 82be 101f 91bd 9742 61be
000000e0: 4ca4 96bc 7b0b fabd 6cc5 14be 73da 8abd
000000f0: 035c 3bbe dd0d e9bd 91ce 103e 660d 643e
00000100: 32a2 99be c00b a9bd c6aa 563d 1013 de3e
00000110: ccb2 953b 4de5 55be 8077 403e 9985 d93d
00000120: 9024 3abd 1711 85bd ff2c 29bd fa13 8ebd
00000130: 8cdb 9cbe f302 1fbe cd32 713e 019c 97be
00000140: 1c4e 4dbd 0b4f fcba 3fdc 1cbe c4a6 63be
00000150: 78fa 893e 9fe1 70be 7053 1ebd 11c0 f0bd
00000160: b71d 463e d015 fabd 8559 08be 7c0d 5b3d
00000170: 00a5 9b3d 741c 82be be1e bcbd ad59 ec3d
00000180: c435 473d 6226 d9bd 71f9 6fbd 7108 c43e
00000190: 5d4b 0d3d 3df6 0c3d 1ff5 bf3c 4c94 0a3d
000001a0: 598f 6dbd 4eb0 313e e5cd f63c a438 2f3b
000001b0: da7c 983b a973 dabd 747b ebbd 5dcb 513e
000001c0: 5e37 a43d 5676 9ebd 75e5 bb3c 1b5d 363e
000001d0: 4c73 0fbe 327a f23b b457 81bd f8a1 fdbb
000001e0: 6854 cf3d 6f6a 88bd 3600 61bd e23d f5bb
000001f0: 5136 bcbd 4ffe 683d 345c 903e 68e4 d43c
00000200: a21c 6e3d 8a57 c3bd 14e4 8abd 6c95 e9bd
00000210: 437b 93bc 213e 03be f7fb 89bd 04a1 683e
00000220: d495 39be ad7a b9bd 6ba6 10be 66c6 09be
00000230: 1bc7 20be a5a8 e1bd bfa2 f33d 582c 35bd
00000240: e847 63bd f938 c53c 549e 52bc 9221 30be
00000250: 1b21 bb3b d289 703d 497a 98be b2e4 6dbe
00000260: 5106 88be 5527 6cbe a1bb 00be 8a2d 47be
00000270: 59a3 383d 175c 86bd 3a49 a6bd dfd8 54be
00000280: 626a 9ebe bae0 50bc ba69 02be 0a7c 8fbe
00000290: 78c5 87be 7fd3 8fbe 8f75 933e 5b4e 05be
000002a0: 2392 4cbe df27 47be ed3f 063e d24f 67bd
000002b0: c50b 7dbe c38b afbe 0ddb 663c db37 ccbc
000002c0: a8a6 04be 3731 0b3e 0916 10be c6dc 0cbe
000002d0: 0707 2abe 2489 9abd 446d 73bd 7e95 98be
000002e0: 4259 5ebd 42e9 aabe 9103 35be fc4c 8cbe
000002f0: 1ca1 61be 0e6f 89be 472b 62be 37f5 dcbc
00000300: ad8b 26bd 7fa8 2fbe a39a dbbe 1cf7 78bc
00000310: 38c6 53bd f9c3 1a3e d7e9 a1be a65a 983b
-0.08439887 -0.028816577 -0.10953779 -0.09872667 -0.36405754 -0.24674845 -0.14071073 0.048878804
-0.18998148 -0.1934712 -0.15205006 -0.22753915 -0.08488529 -0.078441426 -0.0934061 -0.3432357
0.014043506 0.14235947 -0.24376202 -0.13771403 -0.005777139 0.056617092 -0.17595318 -0.39832538
-0.13888942 0.029183641 -0.0120496955 -0.20620227 -0.16211082 -0.2674049 0.078689896 -0.15307885
-0.029911932 -0.4033154 -0.14256303 -0.22948927 -0.030752663 -0.26622912 -0.13203762 -0.15589657
-0.24284554 -0.007943308 -0.051949836 -0.21906361 -0.329799 -0.08724714 -0.19695176 0.2072038
-0.209926 -0.3474706 -0.29147795 -0.34996188 -0.1478651 -0.25475478 -0.07086003 -0.21998058
-0.01838889 -0.12209221 -0.14528435 -0.06779947 -0.18296818 -0.11379597 0.14141299 0.22270736
-0.30006558 -0.08254194 0.052408956 0.4337392 0.0045684334 -0.20888253 0.18795586 0.10621185
-0.045445025 -0.064974 -0.041302677 -0.06937404 -0.3063625 -0.15528469 0.23554535 -0.2961121
-0.05012332 -0.0019249631 -0.15318392 -0.22231585 0.26948905 -0.23523568 -0.03865379 -0.11755384
0.19347273 -0.12211192 -0.13315399 0.053479657 0.075998306 -0.25412333 -0.09185551 0.11540542
0.04863526 -0.10603024 -0.058587495 0.3828769 0.0344957 0.03441452 0.023432313 0.033832833
-0.057998035 0.17352411 0.030127475 0.0026736641 0.0046535553 -0.10666592 -0.11498156 0.20487733
0.08018373 -0.077374145 0.022936562 0.17808954 -0.14008826 0.0073998207 -0.06315556 -0.0077402554
0.10123521 -0.066609256 -0.05493184 -0.0074841836 -0.091900475 0.056883153 0.28195345 0.025987819
0.058132775 -0.09538181 -0.06781784 -0.11405453 -0.018003112 -0.12816669 -0.067375116 0.22717673
-0.18123561 -0.09056602 -0.14125983 -0.13454589 -0.15700953 -0.110184945 0.11896276 -0.044231743
-0.055488497 0.024075018 -0.012855131 -0.17200306 0.0057107336 0.058725186 -0.29780796 -0.23231772
-0.2656732 -0.23061879 -0.12571575 -0.19450966 0.045077655 -0.065605335 -0.081194356 -0.20785855
-0.3094054 -0.0127488915 -0.12735644 -0.28024322 -0.26517844 -0.28091046 0.28800628 -0.13018171
-0.19977622 -0.19448803 0.13110323 -0.056472607 -0.24711521 -0.34286317 0.014090312 -0.024928978
-0.129542 0.13592993 -0.14070906 -0.13756093 -0.16604243 -0.07545689 -0.059430376 -0.29801553
-0.05428434 -0.33381087 -0.17677142 -0.27402484 -0.22034115 -0.2684254 -0.22086821 -0.026972396
-0.04066055 -0.1715412 -0.42891416 -0.015195634 -0.051702708 0.1511382 -0.31623718 0.004649478

agg_predictor.rnn.weight_ih_l0_reverse f4 [200, 50]
00000000: 35f4 67bd 3513 1fbe a492 a03c 3eb8 dc3e
00000010: 8c22 5c3e 6fb4 ee3d 1e59 1a3f 46d2 9fbe
00000020: 2e64 b43e 90ae 033d 761d 143e bfb2 04bd
00000030: 6fb7 cb3e 2faa a2bd 7542 2fbe 660f 0a3f
00000040: e058 003f d430 49bd b9e1 fa3e 4bed f8ba
00000050: 1f97 f4be fe81 aabe e222 e3be 1757 593e
00000060: e9b9 e4bd d4d5 f13c 7141 08bd 9b08 f53e
00000070: 4255 ebbc 98cb e83e ec83 87be 39ed dbbe
00000080: fd0d ec3c 1537 62bd d338 f43c b0af 0fbf
00000090: 9881 26be 210b cebd 6233 583e eb5d 8bbe
000000a0: 9070 433d eae6 4abe b815 2e3e ba3c 49bd
000000b0: a144 7bbe c6ae ce3d 37f5 f33d e5b7 4a3e
000000c0: 2cde 033f 9946 0c3c 5539 bd3e 043c 543e
000000d0: 66a0 06be 6fa5 a73e e77d f43d f45d 673e
000000e0: 8f9c a53e ee0d f63d a235 48bd 1a0a b33c
000000f0: 9e28 4a3e 47a2 863e 4204 00be 5cde 27be
00000100: ebea b0bd 00dc 383f d4d2 5ebc bc92 febd
00000110: ea9b 4d3e fb60 153e 9a42 a3be ef4d 093f
00000120: 3805 87be 621f 863b 3116 f13e c67d 10be
00000130: da46 22bd 6783 b33e 53ef e8bd 2f62 f4bb
00000140: 3f8b b4bd aa99 41be 81a9 dcbd 0f95 debd
00000150: 44cf 9fbe 634c 85bd 3564 12be ac63 8bbe
00000160: c8c2 e63d 75da 453e 0ff8 de3e 4b7b 3f3f
00000170: 4c15 a7bd 1e46 afbd 4948 ff3d e00f e7bd
00000180: 8c31 603d f505 aebe 6313 323e 6ad1 303b
00000190: 6cee a7be 1aa9 a83c 6027 bebd e7c1 a53e
000001a0: efcf ed3e 3eb5 113f 58f5 a63d bbd2 8fbe
000001b0: 0779 64be bae5 cc3e 033c 3ebe d281 433e
000001c0: b09d 743c d153 3abd c435 07bf dedc fdbd
000001d0: fe1c b13e 68e8 553d 01a3 283e db38 86bd
000001e0: 4fe8 e1be 4b01 e83e 8c4d f7bc c7d1 aabe
000001f0: 840f bd3d e481 2e3e 515f c33e 72a7 d83e
00000200: c153 bebc 4c78 65be d708 cebe 534d 2ebe
00000210: f40a 18be b5b1 e53e 3aa6 1c3e e35f 2bbe
00000220: 38a2 40be 409e 873e f93c 593d c453 683d
00000230: 709d 0c3f 9b0e 803e fe50 29be 5aa8 9dbe
00000240: ee83 913d 1e7b 1f3d cb54 debd 382b be3d
00000250: fa79 6c3e 8f37 a73c 34e9 69be 3771 fe3e
00000260: 899f 89be 2ff5 fd3d 417b 85be 7222 2ebe
00000270: 106b 8ebd 3701 d03e 2d3c 293e 1d19 37bc
00000280: 71d7 febe ac07 f63d 3009 5bbe 5ddc 083d
00000290: e08b 723d 9616 57bd 119c ab3d 2da1 3dbd
000002a0: a879 a6bd 063b 89be 8a0b 67be 1823 19bd
000002b0: bc37 85bd f43f 003b 83ea b33e c035 39be
000002c0: c1f4 45be 8f70 1f3e 904e 4bbe da13 6b3e
000002d0: acbd 2e3e 1c06 80be c64d 473e 5e68 3ebd
000002e0: 63af 943e ee86 9f3e 49c9 1f3f c29e 3b3f
000002f0: bbc1 20bf cf7b 3f3c d7d1 0e3d 5283 033e
00000300: e8fc fabe 8bb5 8a3e eb2a 81be f681 2abe
00000310: cc9b c13c 192f 65bc c483 08be 1954 af3d
00000320: 2fa5 843d 6f5b a2bd 0cc4 24bf fa52 bc3d
00000330: 79a6 64bd dbbc b43d b4b8 123d 41bb 2a3e
00000340: ac08 913d c363 b9bc 0890 963e 8cef fd3e
00000350: b3a7 16be cceb 0e3c 4f1e c3be 92be 8b3e
00000360: c99a 853e 9475 163f d5fd 6f3e 9fc3 f6bc
00000370: 51a3 febe d068 663e 1712 a4be 7b3f 72bc
00000380: 91f6 6e3e dc54 97ba 5c1c a8bd f041 fb3e
00000390: ba18 72be 20c5 803e 981c 62be 9f8d 56bf
000003a0: dd40 58be 4feb 5e3d 1a97 23bd 98c0 d2be
000003b0: 7b98 9cbc a578 03be cf73 8f3d adc9 c63e
000003c0: 9931 8d3e c486 0c3e d0dd ebbd 0e4a 57be
000003d0: 1fab 52bd d753 96be 6a97 b6be e238 0fbf
000003e0: a6e4 8d3e b4d8 fdbc 4dd4 08bc 1b0f 9c3e
000003f0: 9ffd 993d acb8 ae3d 789c a4bc d881 213d
-0.05662938 -0.1553467 0.019601174 0.43109316 0.21497554 0.11655509 0.6029223 -0.31215113
0.3523268 0.032148898 0.14464363 -0.032397028 0.39788386 -0.07942616 -0.17115195 0.53929746
0.5013561 -0.04911883 0.49000338 -0.0018991617 -0.47771546 -0.333023 -0.4436255 0.21224628
-0.11168272 0.029520907 -0.033265535 0.47858128 -0.028727178 0.4546783 -0.26467836 -0.42954424
0.028815264 -0.05522831 0.029812252 -0.5612745 -0.16260374 -0.100607164 0.21113351 -0.2722009
0.04771477 -0.19814649 0.17000473 -0.04913018 -0.24537899 0.10091929 0.119120054 0.19796713
0.5151088 0.008561754 0.36957803 0.20726019 -0.13147125 0.32743403 0.119380765 0.22594434
0.32346007 0.120143756 -0.048879273 0.021855403 0.19742057 0.26295683 -0.12501624 -0.16393417
-0.08638557 0.72210693 -0.01360007 -0.12430331 0.20079008 0.14587776 -0.3188675 0.5363454
-0.2637117 0.0040930966 0.47087243 -0.14110479 -0.03961835 0.3506119 -0.113737725 -0.0074579935
-0.088156216 -0.18906274 -0.10774518 -0.108682744 -0.3121282 -0.0650871 -0.14296038 -0.2722448
0.1126762 0.19321616 0.4354863 0.74797505 -0.08158359 -0.08558296 0.12464959 -0.11282325
0.05473475 -0.3398892 0.17390208 0.002698029 -0.3279909 0.020588446 -0.09284854 0.32374498
0.46447703 0.5691718 0.08152264 -0.28090462 -0.22311793 0.40019017 -0.1857758 0.19092491
0.014930174 -0.04549009 -0.52816415 -0.12395643 0.34592432 0.052223593 0.16468431 -0.06553813
-0.4412255 0.45313486 -0.030188344 -0.33363172 0.09231475 0.17041737 0.38158658 0.4231525
-0.023233296 -0.22409171 -0.4024112 -0.17021684 -0.14847928 0.44862142 0.15297785 -0.16735797
-0.18811882 0.26487923 0.053036664 0.05672051 0.5492773 0.25011143 -0.16534802 -0.30792505
0.07105242 0.038935773 -0.10856017 0.09285587 0.23093405 0.020412235 -0.22842866 0.4969575
-0.26879528 0.12400281 -0.26070598 -0.17005327 -0.06954014 0.40625927 0.16526861 -0.011175421
-0.49773744 0.12013182 -0.21390224 0.03341328 0.059215426 -0.052511774 0.08379377 -0.046296287
-0.08128673 -0.26802844 -0.22562996 -0.037386984 -0.06504771 0.001956937 0.35139856 -0.1808691
-0.19331647 0.15570281 -0.19854188 0.22956792 0.17064542 -0.2500466 0.19463262 -0.04648625
0.2904006 0.3115763 0.6241651 0.7328912 -0.6279561 0.011687233 0.034868088 0.12843063
-0.49021077 0.2709163 -0.25228056 -0.16651139 0.02363386 -0.01398828 -0.13331515 0.08560962
0.06476819 -0.07927596 -0.64361644 0.09195514 -0.055822823 0.08825084 0.035820678 0.16672994
0.07081732 -0.022630578 0.29406762 0.49596822 -0.1471241 0.008723211 -0.3810906 0.2729383
0.26094654 0.5877316 0.23436673 -0.030122576 -0.49733976 0.2250092 -0.3204505 -0.014785643
0.23336245 -0.0011545676 -0.08208534 0.49073744 -0.23642245 0.25150394 -0.2208122 -0.83809847
-0.21118493 0.054423627 -0.039939024 -0.41162562 -0.019115677 -0.12838991 0.070045106 0.3882574
0.27576903 0.13723284 -0.11516917 -0.21024343 -0.051432725 -0.2936084 -0.35662395 -0.5594617
0.27713507 -0.030987121 -0.008351398 0.30480275 0.075190775 0.08531317 -0.020094141 0.03943047

agg_predictor.rnn.weight_hh_l0_reverse f4 [200, 50]
00000000: 9cac 6d3e 1df0 253e 41d4 0fbe 4c80 413e
00000010: 44a0 803e 0d24 3bbe 9e2d 9e3c b1ac 2d3e
00000020: c1bc 60bb 602d 243c 23a5 55be 8dbf 3b3e
00000030: e363 49be b6c2 53bd 6dd6 8fbe d9fa c83e
00000040: 5889 45bd a5c7 0e3f 3007 823c 34e4 87be
00000050: 39f1 16bc 6ad9 a4be c32c 893e 1202 d1be
00000060: b4ba 85bd decd 9dbd ec37 02bf de0d a2bd
00000070: 5808 c7bd 9b13 0cbe 6e00 06be a1af 2fbd
00000080: ac8a 023f 4b12 5fbd 04e4 043f 2118 14be
00000090: 1b97 983e c8f0 b3be 5c99 d73c f9bb f6bd
000000a0: ee1f 6d3c cbfd 00bd 86e0 3cbd ea73 e5be
000000b0: bf4c 5abb f05c 0ebe 0b7f 093f 4e92 1dbe
000000c0: 62a8 e1bd 5c71 e43d 9525 113e 0a52 33bd
000000d0: bf03 f4bd f446 05be 8ef9 c13c 5d36 47be
000000e0: 98bc 95bd 5666 233e 1dfd dbbd 8d0c 12be
000000f0: cc32 ab3e 5bbc ab3d e094 89bb bca5 c4bd
00000100: 239e a9bd f478 f13d b23a 1cbe 4f31 173e
00000110: 917e 6fbe c430 72be c775 db3e eaec 6abe
00000120: 04ce b2bd 1867 cdbd 79cb 86be 00ef 77be
00000130: 5984 b2bd 74e4 5a3e 8c9e fb3a 51ee 393e
00000140: 0b43 b53d a789 43bd e654 bf3d ac46 28bd
00000150: befb 353d 5e5e ab3e 4e31 b83d 0f67 943e
00000160: 8dc6 393d bf34 ec3c 1de9 4f3d 530c 71bd
00000170: 6baa 1c3e a21b b13e bfdb e43e 17d9 42be
00000180: bc43 0fbf 55a7 913d 685b c13e 23cb 743c
00000190: ead1 bb3d 0a1a 6c3e f253 47bc a00f 91be
000001a0: 63ac 8e3d b8cb d7bd 6850 16be 8b90 273e
000001b0: 0ae0 0e3d 3065 88ba ae66 19be df95 bebd
000001c0: 520f b3bc 481e 8abe e265 293e 6036 c63e
000001d0: 02fd 983d 51e3 c03d 1088 4ebe 4c0a c3be
000001e0: b95e 023f 7e24 9dbe 424b 74be 1a55 023b
000001f0: 1b28 92be a0c1 fbbe 8aff a13c 7a24 e7bc
00000200: 3e0b 7dbd 884f 8dbd dde5 8ebe 5807 0fbe
00000210: 3c4b 1bbe 3c94 293d 8163 68bd a3cc b83d
00000220: 1e49 72bd 1ed7 5dbe eada dabc 1e24 bd3c
00000230: 01d5 eabd bae6 883d 1df5 56bd b1cc edbe
00000240: 8c9b 8dbe e486 bcbe c2b4 c03d 9e64 65bd
00000250: ce91 06bd 5849 82be 63d8 4d3d eb2c 98be
00000260: 3342 553e 61c8 a73e eab8 e43c 6e79 41bd
00000270: e760 dd3e c838 463e 53a5 6a3e 71f2 d6be
00000280: ce2c 1b3f 8fb4 533d c4b8 ab3e 0359 c1bc
00000290: 4100 3d3e dc16 733d 6c17 00bf 0a93 913f
000002a0: d93c f5bd 2547 3dbd 215f 90bd 4dbd 90bd
000002b0: 5ff9 b33d 4d82 033f 7e08 1c3e 6160 053f
000002c0: 41c6 603f 5e3f b53e 954b b2be 9a3f 233c
000002d0: 2df3 1c3f f880 25bf b4bc 8dbe 212f c43e
000002e0: bbf2 d7be ba4d 95bd f15c ad3e e6d9 7abf
000002f0: 085b 803d 55c4 0cba 9882 9d3e 1fc9 73be
00000300: 3f10 9c3d e7f6 f33c d150 b13d dea2 093e
00000310: 78f2 153f 38a4 1f3e f72f 873e 4b9e c53e
00000320: 4a2f b63e f23f 063d dd53 84be 6711 9abd
00000330: f228 d93d 7ba0 cdbd 9184 12be 065d 393e
00000340: f5b2 2abd 38d8 c0be a6c7 403d 8b23 393e
00000350: 483b 5ebe a204 04be f971 7b3d 1008 ff3a
00000360: 4dda bbbd a820 b23e 0a9f 95be 5e4f c3be
00000370: cefd 193e a7bf 5dbd 5fbf b0bd 4329 5cbe
00000380: fa9d 0ebe 35a0 35be 1381 533b fd2a 693d
00000390: df03 e8bd 02c8 143e f150 f3bd 9a25 ca3c
000003a0: 099d f3bd f917 a3bd 90ae 12bd cb9e 183e
000003b0: 07b9 27bc 71d1 893e 6b82 333e c7d3 81bd
000003c0: b024 223e 8069 6a3e 96f9 573e 0dcd 21be
000003d0: 0b7d 7b3e e7ff 5abd e9ea 92be 5388 9bbd
000003e0: decc 363e 1e0a 203e d13f db3e 06b1 1d3d
000003f0: c688 23be 9763 0e3f 2007 8b3d 2224 41be
0.23210377 0.16204877 -0.14045812 0.18896598 0.25122273 -0.18275471 0.019308861 0.16960408
-0.0034292194 0.010020584 -0.20863776 0.1833479 -0.1966701 -0.051699363 -0.2809328 0.39253882
-0.048226684 0.55773383 0.015872568 -0.26541293 -0.009212785 -0.32197124 0.26791963 -0.40821892
-0.065297514 -0.07705282 -0.5086658 -0.07912801 -0.09718388 -0.13679354 -0.13086101 -0.042892102
0.50992846 -0.054460805 0.51910424 -0.1446233 0.29802784 -0.3514464 0.026318245 -0.12047572
0.014472945 -0.031492036 -0.04611256 -0.44814998 -0.0033309904 -0.1390264 0.5370948 -0.15387842
-0.110184446 0.11154434 0.14174493 -0.04377941 -0.11914777 -0.13015348 0.023678567 -0.19454332
-0.07311362 0.15957007 -0.10741637 -0.142626 0.33437192 0.08385535 -0.0041986555 -0.09601924
-0.08282115 0.11790648 -0.15256765 0.14764903 -0.23388125 -0.23651415 0.42863294 -0.22941938
-0.087307006 -0.10029429 -0.26327112 -0.24212265 -0.087166496 0.2137621 0.0019197031 0.18157317
0.08850678 -0.047738697 0.09342365 -0.041083023 0.044429533 0.33470434 0.08993779 0.28984877
0.04535537 0.028833745 0.050759424 -0.058849644 0.15299384 0.34591395 0.44698903 -0.19028126
-0.5596273 0.07111994 0.3776505 0.01494101 0.09170897 0.23056808 -0.01216601 -0.28332233
0.06966474 -0.10536903 -0.1467911 0.16363733 0.03488163 -0.0010406133 -0.14980575 -0.093059294
-0.021857891 -0.26976228 0.16542771 0.3871336 0.074701324 0.09418357 -0.20169091 -0.38093793
0.50925785 -0.30691904 -0.23856834 0.001988715 -0.28546223 -0.49171162 0.01977517 -0.028215636
-0.0617783 -0.06899935 -0.27909747 -0.13967645 -0.15165418 0.041401133 -0.05673552 0.09023406
-0.05915176 -0.21664092 -0.026715714 0.023088511 -0.114664085 0.066846326 -0.052479852 -0.4644523
-0.27657735 -0.36821663 0.09409477 -0.05600416 -0.032853894 -0.25446582 0.05025519 -0.2972177
0.20826034 0.32770064 0.027920205 -0.047234945 0.43237993 0.19357598 0.22914629 -0.41981843
0.6061524 0.051685866 0.33539402 -0.023602014 0.18457128 0.059347972 -0.5003574 1.1372998
-0.119744964 -0.046210427 -0.070493944 -0.07067356 0.08787798 0.513707 0.15237615 0.5210019
0.8780251 0.35399908 -0.3482329 0.009963894 0.61308557 -0.64649916 -0.27683032 0.38317207
-0.42177376 -0.07290216 0.3385997 -0.97988737 0.06267363 -0.0005369832 0.30763698 -0.2380719
0.07620286 0.029780818 0.08657993 0.13441035 0.585731 0.15589988 0.26403782 0.3859733
0.35582954 0.032775827 -0.25845233 -0.075228505 0.10603513 -0.10040375 -0.14308383 0.18101892
-0.041674573 -0.37664962 0.0470654 0.18079965 -0.21702302 -0.12892392 0.06138799 0.0019457359
-0.09172497 0.3479054 -0.292229 -0.3814649 0.15038225 -0.054137852 -0.08630251 -0.21500115
-0.13927451 -0.17736895 0.003227298 0.056925762 -0.11328863 0.14529422 -0.11880673 0.024676133
-0.118951865 -0.07963557 -0.035811007 0.14904325 -0.010236985 0.26917604 0.1753022 -0.063392214
0.15834308 0.22891808 0.21091303 -0.15800877 0.24559419 -0.053466704 -0.28694847 -0.07594361
0.17851588 0.1562886 0.42822126 0.0384989 -0.15970144 0.5562071 0.06788468 -0.1886144

agg_predictor.rnn.bias_ih_l0_reverse f4 [200]
00000000: aa3d 51be 670e 5abd 25a4 f5bd 7da1 aebd
00000010: 20f1 96be 4045 3fbe 1aed 8d3b 9526 9f3d
00000020: 019e 83be c45d 79be b1cf d5bd 6e95 efbd
00000030: 3740 bbbd 2359 91bd 06f8 6bbe 1260 a0be
00000040: e036 b2bc ba14 07be 5e76 15be a433 c7be
00000050: e06b d9bd 9a4c a1be edfb 0abe 81b3 6ebe
00000060: bc2f a2be feb3 a0bd b13f 7cbe d1b5 a7bd
00000070: cb0d 41be 8e93 88be 06e4 7cbd 4ddf d7be
00000080: 78d3 92be 57f4 58be ceb7 cbbe e67b 48be
00000090: 5cb9 e5bd e451 9cbe 3485 b6be 8106 30be
000000a0: 0797 e4bd 4e65 76be 6588 c0be 0119 b0be
000000b0: ff09 eb3d 803c 8cbe fd65 a6be 04a8 fcbd
000000c0: f6f1 2fbd 6411 2abe fd85 ebbd 227a 673d
000000d0: cb02 3ebe 1285 4dbe 631a 00be 0423 86be
000000e0: f405 1d3e 103d 893e 17c6 07be 43da b0be
000000f0: 9aec 4bbe d1e0 643d 3439 aa3d a232 6abe
00000100: 5ccb 05be 082b 44be 8d86 8d3d cd44 0abf
00000110: 21b1 47be 394c 08bd 7d97 493e f4ad 323d
00000120: 07ce 923b e402 aebe b691 8fbc 2419 273d
00000130: 2f1f 40be 745f dabe 7024 c2bd 3586 dbbd
00000140: 5776 23be 54d3 adbd 204f 60be 4eb5 96bd
00000150: a621 6ebe a518 103d 24dd f7bd ac8f 85be
00000160: 8bc1 16be 7c2b 48be 80f3 24be 79af bdba
00000170: 2909 56be a276 69bc 3039 9d3d b0f0 5cbe
00000180: 35a4 88bd c50f c9bd 010f 56be d93c 20be
00000190: c8de 0cbe 1af3 a4bd 8938 803d 3f98 0abe
000001a0: 02ca bcbd 95c8 31bd 121d dbbd c183 edbd
000001b0: 35b9 c7bd 166c f9bd 6450 0d3d 633f c1bd
000001c0: 8728 7cbb e33f 90bd b0fa d73d 8280 263e
000001d0: 5d7b 2abe 2056 33be c3c9 19be 1501 24be
000001e0: 4ef9 443e 30f4 07be 26d0 64bc d05d 933d
000001f0: b88d 12be 15b3 6bbe 338f 13be 9a80 79bd
00000200: 6616 d43b eb62 9e3c 1955 f6bd 8bcb 30bd
00000210: 137b cb3d b974 da3d 9a99 e93d 8219 163e
00000220: ef48 efbd 4ae2 85bd 678a 98be 246c 7c3e
00000230: 631d b13d 4b3a 46bd bcf4 b43e efcc debd
00000240: 2a9a 1d3c 3cef 30be 92c4 e9bc d287 673e
00000250: a2c5 063e c080 e1bd 9af8 403d 9bbe 3ebe
00000260: 3d5e 87be 05cd 163e e624 5cbe 1241 ebbd
00000270: 0102 9cbb c9b5 9ebe ef7e 02be 11c3 d5bd
00000280: a60f 59be 2528 61be b160 a63d 17f2 27be
00000290: 7e0e efbd 081a e8be 7945 a3be e624 d6bd
000002a0: 1f97 24be d9cd 26be 12bc afbd 96b8 8bbe
000002b0: 29af 59be cd07 d2bd 9dc8 90be 9d15 64be
000002c0: d5bd 26be dc31 8a3d a706 10be 55b4 5f3d
000002d0: f63f f6bd 2354 d4bd 333a 8abe 0d3f 3fbe
000002e0: bb39 99be 7b37 8d3d 8e2f 6cbe 03b1 01be
000002f0: bdb0 c9be 095d 91be 40a0 88be 0e58 dcbe
00000300: 2ac8 b8be 624f 1dbc cc2b 79bd 9b66 d1be
00000310: 4edf 99be b38d 313e 08d6 ddbc 27fc c43d
-0.20433679 -0.05323639 -0.11994199 -0.08526895 -0.2948084 -0.1867876 0.004331243 0.07771031
-0.25706485 -0.24352175 -0.104400046 -0.11698423 -0.091431074 -0.070970796 -0.23043832 -0.31323296
-0.021754682 -0.131915 -0.14595935 -0.38906586 -0.10616279 -0.31503755 -0.13572665 -0.23310663
-0.31677043 -0.07846831 -0.24633671 -0.081889756 -0.18852918 -0.26675075 -0.061740898 -0.42162552
-0.28676963 -0.21186958 -0.3978867 -0.19578514 -0.11216995 -0.30531228 -0.356485 -0.17189981
-0.11161619 -0.24062082 -0.3760406 -0.34394076 0.11476516 -0.27389908 -0.32499686 -0.12336734
-0.04295536 -0.16608196 -0.115001656 0.05651296 -0.18555753 -0.20070294 -0.12510066 -0.2619859
0.15334302 0.268044 -0.13259159 -0.3454152 -0.19914475 0.055878464 0.08311692 -0.22870877
-0.13065857 -0.1915704 0.06910429 -0.5401123 -0.19501163 -0.033275817 0.19686694 0.043622926
0.004480127 -0.3398658 -0.017525535 0.04079546 -0.18761896 -0.4265095 -0.09479606 -0.10718957
-0.15963112 -0.08487573 -0.21905184 -0.073588 -0.23255023 0.035179753 -0.12102726 -0.26086175
-0.14722268 -0.19547838 -0.16108513 -0.0014471851 -0.20901932 -0.014249476 0.07676923 -0.2157619
-0.06671945 -0.09817461 -0.20904161 -0.15648212 -0.1375686 -0.080541804 0.06260783 -0.1353464
-0.092182174 -0.04340418 -0.10698904 -0.11597396 -0.09752122 -0.12178819 0.034500495 -0.09435918
-0.0038476305 -0.070434354 0.10545862 0.1625996 -0.16648622 -0.17513323 -0.15018372 -0.16016038
0.19235727 -0.13276744 -0.013965642 0.07195628 -0.14311874 -0.23017533 -0.14410095 -0.06091366
0.0064723967 0.019334277 -0.1202795 -0.043162864 0.09935584 0.10666794 0.1140625 0.14658168
-0.11683833 -0.06537302 -0.29793093 0.24650627 0.08648183 -0.048395436 0.35342968 -0.10878932
0.009619275 -0.1727876 -0.028536115 0.22610405 0.13161328 -0.11010885 0.047112085 -0.18627398
-0.26439086 0.14726646 -0.2149845 -0.114870206 -0.004760981 -0.30998066 -0.12743734 -0.104375966
-0.21197376 -0.2198797 0.08123911 -0.16400944 -0.11672686 -0.4533236 -0.3188894 -0.104562566
-0.16073273 -0.16289462 -0.085807934 -0.27289265 -0.21258225 -0.10255394 -0.28278056 -0.2227387
-0.16283353 0.06747791 -0.14065038 0.054615337 -0.12023918 -0.1036761 -0.26997527 -0.18676396
-0.29926857 0.06895348 -0.23065016 -0.12665181 -0.39392653 -0.28391293 -0.2668476 -0.4303593
-0.36090213 -0.009601446 -0.060832784 -0.40898594 -0.3005318 0.1733921 -0.027079597 0.09618407

agg_predictor.rnn.bias_hh_l0_reverse f4 [200]
00000000: 72be f6bc 17ad 3bbd 183f 76be 58d4 cfbc
00000010: 5849 a5bd 061e 79bd 0a1b 153e 67c9 633c
00000020: 6983 a0be 3df3 1dbd 5820 a9bc a5b0 e1bd
00000030: 39b2 3bbe 2b1a 003e 3d35 76be d812 08bf
00000040: e85c 9d3d 0003 f5bc e833 9dbe b441 bbbe
00000050: 9ca8 36be b699 5ebe 0a2c 35be 912d 95bd
00000060: 861c 5fbe a233 9abe a92f 89be d49a 243e
00000070: 9d0f 54be 942e 0dbe 55a3 e8bc a826 aabe
00000080: 3296 0ebe 2ba5 0dbe e3a1 48be 16cb 20bd
00000090: f3aa 04be aaf5 92be bcee a1be c850 e9bd
000000a0: 8596 0fbe 7cf6 f8bd 4e33 67be fe47 c0be
000000b0: 61a1 1dbe 23bc 92be 9744 babe 3463 1cbd
000000c0: 1d9b 1b3e 9168 54be c97e a4bd 4392 113e
000000d0: 2904 d8bc 1fb4 b5bd 2f6d 953d 52de 7dbe
000000e0: 6d01 f63d 141f 793e 2347 5abe 7929 98be
000000f0: 1478 89bd 606e 40bc 7956 ae3c 1c1b 6abd
00000100: d517 8fbe 0e37 59be 7b8a 66bc 0c3a c1be
00000110: 0ccc 68bd b51b a7bd 9a2f e93d b163 fcbd
00000120: aaa0 8dbc dafd b1be 1097 0fbe a73c 24be
00000130: b87a 11be ca7d cabe a4ed 2dbe b3d9 e8bd
00000140: 20b0 7938 4f7f 0e3d 1967 4dbe cb15 35bd
00000150: d4be 78be 452f 66bc 7c60 1f3d 753d 90be
00000160: 992a b8bd 24c7 1fbe ab29 d7bd d806 31be
00000170: 8d87 0fbe 3b1a 87bd 0266 f63d 6166 c1be
00000180: e90f 163e 2054 9ebd 86e8 3cbe da74 51bc
00000190: 4073 c33d 57be efbc f0db 483d 5bbb 73be
000001a0: 7e3d aebd 116c a73d 8c5e a9bd d271 d13c
000001b0: 7607 34be 637c 793d d1bf 013e 2540 0e3e
000001c0: dc71 a73c eebc 47bc 7f91 0d3e fe07 193e
000001d0: aa16 3a3c 8c0e 52bd f9a2 0dbe 1656 8cbe
000001e0: beb3 bc3d 7d34 6abe bd24 03be 791d 84bc
000001f0: b06c 89be 2d2f c3bd 8e42 b1bc 8175 0dbe
00000200: bbaa 46be 1456 a63a c077 2939 c898 60be
00000210: cf3e 24bd 4630 72bc dbc3 783e bf3e f23d
00000220: bc31 86bd a4f5 fe3d 45e9 7bbe 8699 543d
00000230: 732a 243d e818 ce3d 8c28 8a3e a584 b1bd
00000240: 8c08 033e eb3e 43bd 5fff e8bd 0cd3 0e3e
00000250: dde5 693e 2d07 65bc a6fe a03c e2e7 2cbe
00000260: b9cb 80be 68bd 253e 4ebc 68be e69a 49be
00000270: ce14 11bd e0de 99be 6e41 a1be 8aec a6bc
00000280: 15a0 69be c249 05be d204 823d 85e4 483d
00000290: bf9b a4be e4b2 f4be 8a2a 60be dd9a 58be
000002a0: 46c1 e4bd c285 9ebe 713a 95be 65c3 22be
000002b0: a1d2 d9bd 82b3 b7bd 4daf b5be 0f63 1cbd
000002c0: 35ef 0dbe c68d a53c ac6a 9cbe a1ff f3bc
000002d0: a52f 52be 2442 82be c8bd 56be 247a 94be
000002e0: 888c 93be bfbd 0c3e dce4 51be 758a 91be
000002f0: a6cc 7ebe 80a3 a3bd 1c7c 94be 55e2 43be
00000300: 4348 e6be c513 f0bd 3291 1f3e 308b e2be
00000310: 36db 9ebe 15f6 083e 5bd4 08be f2b3 cd3d
-0.030120108 -0.04581937 -0.24047506 -0.025369808 -0.0807063 -0.06081965 0.14561096 0.0139029985
-0.31350258 -0.03856205 -0.020645306 -0.110200204 -0.18329705 0.12509982 -0.24043746 -0.53153753
0.07683736 -0.029908657 -0.30703664 -0.36573565 -0.17837757 -0.21738324 -0.17692581 -0.07284082
-0.21788225 -0.30117518 -0.26794174 0.16074687 -0.20709081 -0.137873 -0.028398195 -0.33232617
-0.13924482 -0.13832538 -0.19593005 -0.039256178 -0.12955837 -0.28703052 -0.31627452 -0.11392361
-0.14022262 -0.12156388 -0.22578165 -0.37554926 -0.15393592 -0.28659162 -0.36380455 -0.038180545
0.1519589 -0.20743014 -0.08031995 0.1421595 -0.026369171 -0.08872246 0.07296216 -0.2479184
0.12011991 0.24328262 -0.21316199 -0.2971914 -0.06712356 -0.011745065 0.021281468 -0.05715476
-0.2794787 -0.21212408 -0.014071102 -0.377396 -0.05683522 -0.081595816 0.113860324 -0.12323702
-0.017288525 -0.34763986 -0.1402247 -0.16038762 -0.1420697 -0.39549094 -0.16985184 -0.11369648
5.9530255e-05 0.03478938 -0.2005886 -0.044210237 -0.24291545 -0.014049356 0.038910374 -0.28171888
-0.089925 -0.1560331 -0.105059944 -0.17287767 -0.14016552 -0.065968 0.12031175 -0.3777342
0.14654507 -0.07730889 -0.18448076 -0.012784207 0.095434666 -0.029265566 0.049037874 -0.23801939
-0.085078225 0.08174909 -0.082699865 0.025566969 -0.17580971 0.06090964 0.12670828 0.13891657
0.020440035 -0.01219104 0.13825034 0.14944455 0.011357943 -0.051283404 -0.138317 -0.27409428
0.092139706 -0.22871585 -0.12806983 -0.016127335 -0.26840734 -0.095304824 -0.021638181 -0.13814355
-0.19401066 0.0012690448 0.00016161706 -0.21933281 -0.04009896 -0.014782017 0.24293463 0.11828374
-0.06552455 0.12449196 -0.24600704 0.051904224 0.040079545 0.10063344 0.2698406 -0.08667878
0.12796229 -0.047667425 -0.11376833 0.13947695 0.22841592 -0.013978762 0.019652676 -0.16885331
-0.25155428 0.16185534 -0.22728083 -0.19687995 -0.03542023 -0.30052853 -0.3149523 -0.020376462
-0.22814973 -0.13016418 0.06348576 0.04904606 -0.32150075 -0.47792733 -0.21891227 -0.21152826
-0.111696765 -0.30961424 -0.2914615 -0.1589485 -0.106358774 -0.08969785 -0.35485306 -0.038180407
-0.13860781 0.020209204 -0.30550134 -0.02978498 -0.20525987 -0.25441086 -0.20970833 -0.28999436
-0.28818154 0.13744257 -0.20497459 -0.28425947 -0.24882755 -0.079901695 -0.29000938 -0.19129308
-0.44977006 -0.11722521 0.15582731 -0.44246817 -0.3102662 0.13375123 -0.13362257 0.100440875

agg_predictor.attn.weight f4 [1, 100]
00000000: d68a 67be c797 273d 6cf7 bc3e 17dc 9d3e
00000010: 25ef 283d 4cbe fa3d 0248 683e 133c 79be
00000020: e06d d8bd 06a7 f33c 4a8b 743d f948 a7be
00000030: 6064 aebe b3b9 db3d ec97 f5bd 7b61 25bd
00000040: 5b7f c83d a078 c83e 9588 403e 98df 1ebe
00000050: 199b a3be cd11 ec3d 8ccf f53c de4e 0cbe
00000060: b818 45be 39fd a2be f408 52be 9176 a2bd
00000070: ef3f 57be 7c51 ac3b e2d0 c1be 8e49 44bc
00000080: dd5e 65bb 4f80 6b3e 709d c7be 904b 49bd
00000090: 7a4e c63e f31b 443e 04b1 733e 6240 793d
000000a0: 1f15 683d fa4a 063f 2015 67be 9c0a f4bc
000000b0: dd1e da3d 0c72 5ebe 6f58 8b3d c25e 23be
000000c0: 51f0 8a3d ce9b d2bd 04b2 85bd 4a85 7e3e
000000d0: c1e5 30bd 10cd 8c3e 7868 493e a6bf 89be
000000e0: fd24 cc3d 0723 c43e 6a26 953e a356 343d
000000f0: 5e24 11be e4b6 8dbe 07ff ba3d 855f 5abe
00000100: 6ebb 9abd 18a0 ba3e 488e 043f c5b1 cbbd
00000110: 4e61 603d 5305 4b3e faea 9cbe f112 333e
00000120: 882b 733e 43e2 16be 2cd1 16bd 61cd bd3e
00000130: 5733 543d f2d9 943e 46d7 863e 6f63 ccbd
00000140: ab09 4ebe 1c28 ee3d ca48 85bd ec39 09bb
00000150: e741 32be 8d00 38be 23f3 993e 1c14 ac3d
00000160: 995b b8bc 8dac 76be 2f24 87be 47e7 c53c
00000170: 89d1 bbbd 9e25 30be 6ea8 fdbe 9398 573e
00000180: be96 913e 847e dbbe 6f9d 8bbe 85aa 8e3e
-0.22611555 0.04091623 0.36907518 0.30831978 0.04124369 0.122433275 0.22683719 -0.24339323
-0.10567832 0.029742729 0.05970315 -0.3267286 -0.34060955 0.10728779 -0.119918674 -0.040376168
0.09789916 0.3915453 0.18802102 -0.15514982 -0.31954268 0.11526833 0.030006193 -0.1370196
-0.1924771 -0.3183382 -0.20511228 -0.07932771 -0.21020482 0.005258737 -0.37854677 -0.011980427
-0.003499917 0.22998165 -0.38987303 -0.049144328 0.38731748 0.19151287 0.23797995 0.060852416
0.056660768 0.52458155 -0.22566652 -0.029790215 0.10650418 -0.21723193 0.06803977 -0.15954116
0.06784118 -0.10283624 -0.065280944 0.24855533 -0.04318786 0.275002 0.19668758 -0.2690403
0.099679925 0.38307974 0.2913087 0.044027936 -0.14174029 -0.27678597 0.09130674 -0.213255
-0.075552806 0.36450267 0.51779604 -0.09946016 0.054780297 0.1982625 -0.30648023 0.17487694
0.23747075 -0.1473475 -0.036820576 0.37070754 0.051806774 0.2907253 0.26336116 -0.09979903
-0.20120876 0.11628744 -0.06508024 -0.0020939065 -0.17407952 -0.1796896 0.3006831 0.08402273
-0.022504615 -0.2408926 -0.26394793 0.024158133 -0.09170825 -0.1720185 -0.49542564 0.21054296
0.2843532 -0.4286996 -0.2726855 0.2786447
